name: "WFLW_final"

# data ------------------------------------

input: "data"
input_shape {
  dim: 1
  dim: 1
  dim: 256
  dim: 256
}

# net -------------------------------------

layer {
  name: "conv1"
  type: "Convolution"
  bottom: "data"
  top: "conv1"
  param {
    lr_mult: 0
    decay_mult: 1
  }
  convolution_param {
    num_output: 64
    bias_term: false
    pad: 3
    kernel_size: 7
    stride: 2
    weight_filler {
      type: "constant"
    }
  }
}
layer {
  name: "conv1/bn_batchmorn"
  type: "BatchNorm"
  bottom: "conv1"
  top: "conv1tmp"
}
layer {
  name: "conv1/bn_scale"
  type: "Scale"
  bottom: "conv1tmp"
  top: "conv1/bn"
  scale_param {
    bias_term: true
  }
}
layer {
  name: "conv1/bn/relu"
  type: "PReLU"
  bottom: "conv1/bn"
  top: "conv1/bn"
  param {
    lr_mult: 0
    decay_mult: 0
  }
}
layer {
  name: "pre_res_1/branch1/conv1_1x1"
  type: "Convolution"
  bottom: "conv1/bn"
  top: "pre_res_1/branch1/conv1_1x1"
  param {
    lr_mult: 0
    decay_mult: 1
  }
  convolution_param {
    num_output: 32
    bias_term: false
    pad: 0
    kernel_size: 1
    stride: 1
    weight_filler {
      type: "constant"
    }
  }
}
layer {
  name: "pre_res_1/branch1/conv1_1x1/bn_batchmorn"
  type: "BatchNorm"
  bottom: "pre_res_1/branch1/conv1_1x1"
  top: "pre_res_1/branch1/conv1_1x1tmp"
}
layer {
  name: "pre_res_1/branch1/conv1_1x1/bn_scale"
  type: "Scale"
  bottom: "pre_res_1/branch1/conv1_1x1tmp"
  top: "pre_res_1/branch1/conv1_1x1/bn"
  scale_param {
    bias_term: true
  }
}
layer {
  name: "pre_res_1/branch1/conv1_1x1/bn/relu"
  type: "PReLU"
  bottom: "pre_res_1/branch1/conv1_1x1/bn"
  top: "pre_res_1/branch1/conv1_1x1/bn"
  param {
    lr_mult: 0
    decay_mult: 0
  }
}
layer {
  name: "pre_res_1/branch1/conv2_3x3"
  type: "Convolution"
  bottom: "pre_res_1/branch1/conv1_1x1/bn"
  top: "pre_res_1/branch1/conv2_3x3"
  param {
    lr_mult: 0
    decay_mult: 1
  }
  convolution_param {
    num_output: 32
    bias_term: false
    pad: 1
    kernel_size: 3
    stride: 1
    weight_filler {
      type: "constant"
    }
  }
}
layer {
  name: "pre_res_1/branch1/conv2_3x3/bn_batchmorn"
  type: "BatchNorm"
  bottom: "pre_res_1/branch1/conv2_3x3"
  top: "pre_res_1/branch1/conv2_3x3tmp"
}
layer {
  name: "pre_res_1/branch1/conv2_3x3/bn_scale"
  type: "Scale"
  bottom: "pre_res_1/branch1/conv2_3x3tmp"
  top: "pre_res_1/branch1/conv2_3x3/bn"
  scale_param {
    bias_term: true
  }
}
layer {
  name: "pre_res_1/branch1/conv2_3x3/bn/relu"
  type: "PReLU"
  bottom: "pre_res_1/branch1/conv2_3x3/bn"
  top: "pre_res_1/branch1/conv2_3x3/bn"
  param {
    lr_mult: 0
    decay_mult: 0
  }
}
layer {
  name: "pre_res_1/branch1/conv3_1x1"
  type: "Convolution"
  bottom: "pre_res_1/branch1/conv2_3x3/bn"
  top: "pre_res_1/branch1/conv3_1x1"
  param {
    lr_mult: 0
    decay_mult: 1
  }
  convolution_param {
    num_output: 128
    bias_term: false
    pad: 0
    kernel_size: 1
    stride: 1
    weight_filler {
      type: "constant"
    }
  }
}
layer {
  name: "pre_res_1/branch2/conv1_1x1"
  type: "Convolution"
  bottom: "conv1/bn"
  top: "pre_res_1/branch2/conv1_1x1"
  param {
    lr_mult: 0
    decay_mult: 1
  }
  convolution_param {
    num_output: 128
    bias_term: false
    pad: 0
    kernel_size: 1
    stride: 1
    weight_filler {
      type: "constant"
    }
  }
}
layer {
  name: "pre_res_1"
  type: "Eltwise"
  bottom: "pre_res_1/branch2/conv1_1x1"
  bottom: "pre_res_1/branch1/conv3_1x1"
  top: "pre_res_1"
  eltwise_param {
    operation: SUM
  }
}
layer {
  name: "pool1_3x3_s2"
  type: "Pooling"
  bottom: "pre_res_1"
  top: "pool1_3x3_s2"
  pooling_param {
    pool: MAX
    kernel_size: 3
    stride: 2
  }
}
layer {
  name: "pool1_3x3_s2/bn_batchmorn"
  type: "BatchNorm"
  bottom: "pool1_3x3_s2"
  top: "pool1_3x3_s2tmp"
}
layer {
  name: "pool1_3x3_s2/bn_scale"
  type: "Scale"
  bottom: "pool1_3x3_s2tmp"
  top: "pool1_3x3_s2/bn"
  scale_param {
    bias_term: true
  }
}
layer {
  name: "pool1_3x3_s2/bn/relu"
  type: "PReLU"
  bottom: "pool1_3x3_s2/bn"
  top: "pool1_3x3_s2/bn"
  param {
    lr_mult: 0
    decay_mult: 0
  }
}
layer {
  name: "pre_res_2/branch1/conv1_1x1"
  type: "Convolution"
  bottom: "pool1_3x3_s2/bn"
  top: "pre_res_2/branch1/conv1_1x1"
  param {
    lr_mult: 0
    decay_mult: 1
  }
  convolution_param {
    num_output: 32
    bias_term: false
    pad: 0
    kernel_size: 1
    stride: 1
    weight_filler {
      type: "constant"
    }
  }
}
layer {
  name: "pre_res_2/branch1/conv1_1x1/bn_batchmorn"
  type: "BatchNorm"
  bottom: "pre_res_2/branch1/conv1_1x1"
  top: "pre_res_2/branch1/conv1_1x1tmp"
}
layer {
  name: "pre_res_2/branch1/conv1_1x1/bn_scale"
  type: "Scale"
  bottom: "pre_res_2/branch1/conv1_1x1tmp"
  top: "pre_res_2/branch1/conv1_1x1/bn"
  scale_param {
    bias_term: true
  }
}
layer {
  name: "pre_res_2/branch1/conv1_1x1/bn/relu"
  type: "PReLU"
  bottom: "pre_res_2/branch1/conv1_1x1/bn"
  top: "pre_res_2/branch1/conv1_1x1/bn"
  param {
    lr_mult: 0
    decay_mult: 0
  }
}
layer {
  name: "pre_res_2/branch1/conv2_3x3"
  type: "Convolution"
  bottom: "pre_res_2/branch1/conv1_1x1/bn"
  top: "pre_res_2/branch1/conv2_3x3"
  param {
    lr_mult: 0
    decay_mult: 1
  }
  convolution_param {
    num_output: 32
    bias_term: false
    pad: 1
    kernel_size: 3
    stride: 1
    weight_filler {
      type: "constant"
    }
  }
}
layer {
  name: "pre_res_2/branch1/conv2_3x3/bn_batchmorn"
  type: "BatchNorm"
  bottom: "pre_res_2/branch1/conv2_3x3"
  top: "pre_res_2/branch1/conv2_3x3tmp"
}
layer {
  name: "pre_res_2/branch1/conv2_3x3/bn_scale"
  type: "Scale"
  bottom: "pre_res_2/branch1/conv2_3x3tmp"
  top: "pre_res_2/branch1/conv2_3x3/bn"
  scale_param {
    bias_term: true
  }
}
layer {
  name: "pre_res_2/branch1/conv2_3x3/bn/relu"
  type: "PReLU"
  bottom: "pre_res_2/branch1/conv2_3x3/bn"
  top: "pre_res_2/branch1/conv2_3x3/bn"
  param {
    lr_mult: 0
    decay_mult: 0
  }
}
layer {
  name: "pre_res_2/branch1/conv3_1x1"
  type: "Convolution"
  bottom: "pre_res_2/branch1/conv2_3x3/bn"
  top: "pre_res_2/branch1/conv3_1x1"
  param {
    lr_mult: 0
    decay_mult: 1
  }
  convolution_param {
    num_output: 128
    bias_term: false
    pad: 0
    kernel_size: 1
    stride: 1
    weight_filler {
      type: "constant"
    }
  }
}
layer {
  name: "pre_res_2"
  type: "Eltwise"
  bottom: "pre_res_2/branch1/conv3_1x1"
  bottom: "pool1_3x3_s2"
  top: "pre_res_2"
  eltwise_param {
    operation: SUM
  }
}
layer {
  name: "pre_res_2/bn_batchmorn"
  type: "BatchNorm"
  bottom: "pre_res_2"
  top: "pre_res_2tmp"
}
layer {
  name: "pre_res_2/bn_scale"
  type: "Scale"
  bottom: "pre_res_2tmp"
  top: "pre_res_2/bn"
  scale_param {
    bias_term: true
  }
}
layer {
  name: "pre_res_2/bn/relu"
  type: "PReLU"
  bottom: "pre_res_2/bn"
  top: "pre_res_2/bn"
  param {
    lr_mult: 0
    decay_mult: 0
  }
}
layer {
  name: "hourglass_0/output/branch1/conv1_1x1"
  type: "Convolution"
  bottom: "pre_res_2/bn"
  top: "hourglass_0/output/branch1/conv1_1x1"
  param {
    lr_mult: 0
    decay_mult: 1
  }
  convolution_param {
    num_output: 64
    bias_term: false
    pad: 0
    kernel_size: 1
    stride: 1
    weight_filler {
      type: "constant"
    }
  }
}
layer {
  name: "hourglass_0/output/branch1/conv1_1x1/bn_batchmorn"
  type: "BatchNorm"
  bottom: "hourglass_0/output/branch1/conv1_1x1"
  top: "hourglass_0/output/branch1/conv1_1x1tmp"
}
layer {
  name: "hourglass_0/output/branch1/conv1_1x1/bn_scale"
  type: "Scale"
  bottom: "hourglass_0/output/branch1/conv1_1x1tmp"
  top: "hourglass_0/output/branch1/conv1_1x1/bn"
  scale_param {
    bias_term: true
  }
}
layer {
  name: "hourglass_0/output/branch1/conv1_1x1/bn/relu"
  type: "PReLU"
  bottom: "hourglass_0/output/branch1/conv1_1x1/bn"
  top: "hourglass_0/output/branch1/conv1_1x1/bn"
  param {
    lr_mult: 0
    decay_mult: 0
  }
}
layer {
  name: "hourglass_0/output/branch1/conv2_3x3"
  type: "Convolution"
  bottom: "hourglass_0/output/branch1/conv1_1x1/bn"
  top: "hourglass_0/output/branch1/conv2_3x3"
  param {
    lr_mult: 0
    decay_mult: 1
  }
  convolution_param {
    num_output: 64
    bias_term: false
    pad: 1
    kernel_size: 3
    stride: 1
    weight_filler {
      type: "constant"
    }
  }
}
layer {
  name: "hourglass_0/output/branch1/conv2_3x3/bn_batchmorn"
  type: "BatchNorm"
  bottom: "hourglass_0/output/branch1/conv2_3x3"
  top: "hourglass_0/output/branch1/conv2_3x3tmp"
}
layer {
  name: "hourglass_0/output/branch1/conv2_3x3/bn_scale"
  type: "Scale"
  bottom: "hourglass_0/output/branch1/conv2_3x3tmp"
  top: "hourglass_0/output/branch1/conv2_3x3/bn"
  scale_param {
    bias_term: true
  }
}
layer {
  name: "hourglass_0/output/branch1/conv2_3x3/bn/relu"
  type: "PReLU"
  bottom: "hourglass_0/output/branch1/conv2_3x3/bn"
  top: "hourglass_0/output/branch1/conv2_3x3/bn"
  param {
    lr_mult: 0
    decay_mult: 0
  }
}
layer {
  name: "hourglass_0/output/branch1/conv3_1x1"
  type: "Convolution"
  bottom: "hourglass_0/output/branch1/conv2_3x3/bn"
  top: "hourglass_0/output/branch1/conv3_1x1"
  param {
    lr_mult: 0
    decay_mult: 1
  }
  convolution_param {
    num_output: 256
    bias_term: false
    pad: 0
    kernel_size: 1
    stride: 1
    weight_filler {
      type: "constant"
    }
  }
}
layer {
  name: "hourglass_0/output/branch2/conv1_1x1"
  type: "Convolution"
  bottom: "pre_res_2/bn"
  top: "hourglass_0/output/branch2/conv1_1x1"
  param {
    lr_mult: 0
    decay_mult: 1
  }
  convolution_param {
    num_output: 256
    bias_term: false
    pad: 0
    kernel_size: 1
    stride: 1
    weight_filler {
      type: "constant"
    }
  }
}
layer {
  name: "hourglass_0/output"
  type: "Eltwise"
  bottom: "hourglass_0/output/branch2/conv1_1x1"
  bottom: "hourglass_0/output/branch1/conv3_1x1"
  top: "hourglass_0/output"
  eltwise_param {
    operation: SUM
  }
}
layer {
  name: "hourglass_1/pool1_2x2_s2"
  type: "Pooling"
  bottom: "hourglass_0/output"
  top: "hourglass_1/pool1_2x2_s2"
  pooling_param {
    pool: MAX
    kernel_size: 2
    stride: 2
  }
}
layer {
  name: "hourglass_1/pool1_2x2_s2/bn_batchmorn"
  type: "BatchNorm"
  bottom: "hourglass_1/pool1_2x2_s2"
  top: "hourglass_1/pool1_2x2_s2tmp"
}
layer {
  name: "hourglass_1/pool1_2x2_s2/bn_scale"
  type: "Scale"
  bottom: "hourglass_1/pool1_2x2_s2tmp"
  top: "hourglass_1/pool1_2x2_s2/bn"
  scale_param {
    bias_term: true
  }
}
layer {
  name: "hourglass_1/pool1_2x2_s2/bn/relu"
  type: "PReLU"
  bottom: "hourglass_1/pool1_2x2_s2/bn"
  top: "hourglass_1/pool1_2x2_s2/bn"
  param {
    lr_mult: 0
    decay_mult: 0
  }
}
layer {
  name: "hourglass_1/lower_1/res/branch1/conv1_1x1"
  type: "Convolution"
  bottom: "hourglass_1/pool1_2x2_s2/bn"
  top: "hourglass_1/lower_1/res/branch1/conv1_1x1"
  param {
    lr_mult: 0
    decay_mult: 1
  }
  convolution_param {
    num_output: 64
    bias_term: false
    pad: 0
    kernel_size: 1
    stride: 1
    weight_filler {
      type: "constant"
    }
  }
}
layer {
  name: "hourglass_1/lower_1/res/branch1/conv1_1x1/bn_batchmorn"
  type: "BatchNorm"
  bottom: "hourglass_1/lower_1/res/branch1/conv1_1x1"
  top: "hourglass_1/lower_1/res/branch1/conv1_1x1tmp"
}
layer {
  name: "hourglass_1/lower_1/res/branch1/conv1_1x1/bn_scale"
  type: "Scale"
  bottom: "hourglass_1/lower_1/res/branch1/conv1_1x1tmp"
  top: "hourglass_1/lower_1/res/branch1/conv1_1x1/bn"
  scale_param {
    bias_term: true
  }
}
layer {
  name: "hourglass_1/lower_1/res/branch1/conv1_1x1/bn/relu"
  type: "PReLU"
  bottom: "hourglass_1/lower_1/res/branch1/conv1_1x1/bn"
  top: "hourglass_1/lower_1/res/branch1/conv1_1x1/bn"
  param {
    lr_mult: 0
    decay_mult: 0
  }
}
layer {
  name: "hourglass_1/lower_1/res/branch1/conv2_3x3"
  type: "Convolution"
  bottom: "hourglass_1/lower_1/res/branch1/conv1_1x1/bn"
  top: "hourglass_1/lower_1/res/branch1/conv2_3x3"
  param {
    lr_mult: 0
    decay_mult: 1
  }
  convolution_param {
    num_output: 64
    bias_term: false
    pad: 1
    kernel_size: 3
    stride: 1
    weight_filler {
      type: "constant"
    }
  }
}
layer {
  name: "hourglass_1/lower_1/res/branch1/conv2_3x3/bn_batchmorn"
  type: "BatchNorm"
  bottom: "hourglass_1/lower_1/res/branch1/conv2_3x3"
  top: "hourglass_1/lower_1/res/branch1/conv2_3x3tmp"
}
layer {
  name: "hourglass_1/lower_1/res/branch1/conv2_3x3/bn_scale"
  type: "Scale"
  bottom: "hourglass_1/lower_1/res/branch1/conv2_3x3tmp"
  top: "hourglass_1/lower_1/res/branch1/conv2_3x3/bn"
  scale_param {
    bias_term: true
  }
}
layer {
  name: "hourglass_1/lower_1/res/branch1/conv2_3x3/bn/relu"
  type: "PReLU"
  bottom: "hourglass_1/lower_1/res/branch1/conv2_3x3/bn"
  top: "hourglass_1/lower_1/res/branch1/conv2_3x3/bn"
  param {
    lr_mult: 0
    decay_mult: 0
  }
}
layer {
  name: "hourglass_1/lower_1/res/branch1/conv3_1x1"
  type: "Convolution"
  bottom: "hourglass_1/lower_1/res/branch1/conv2_3x3/bn"
  top: "hourglass_1/lower_1/res/branch1/conv3_1x1"
  param {
    lr_mult: 0
    decay_mult: 1
  }
  convolution_param {
    num_output: 256
    bias_term: false
    pad: 0
    kernel_size: 1
    stride: 1
    weight_filler {
      type: "constant"
    }
  }
}
layer {
  name: "hourglass_1/lower_1/res"
  type: "Eltwise"
  bottom: "hourglass_1/lower_1/res/branch1/conv3_1x1"
  bottom: "hourglass_1/pool1_2x2_s2"
  top: "hourglass_1/lower_1/res"
  eltwise_param {
    operation: SUM
  }
}
layer {
  name: "hourglass_1/pool2_2x2_s2"
  type: "Pooling"
  bottom: "hourglass_1/lower_1/res"
  top: "hourglass_1/pool2_2x2_s2"
  pooling_param {
    pool: MAX
    kernel_size: 2
    stride: 2
  }
}
layer {
  name: "hourglass_1/pool2_2x2_s2/bn_batchmorn"
  type: "BatchNorm"
  bottom: "hourglass_1/pool2_2x2_s2"
  top: "hourglass_1/pool2_2x2_s2tmp"
}
layer {
  name: "hourglass_1/pool2_2x2_s2/bn_scale"
  type: "Scale"
  bottom: "hourglass_1/pool2_2x2_s2tmp"
  top: "hourglass_1/pool2_2x2_s2/bn"
  scale_param {
    bias_term: true
  }
}
layer {
  name: "hourglass_1/pool2_2x2_s2/bn/relu"
  type: "PReLU"
  bottom: "hourglass_1/pool2_2x2_s2/bn"
  top: "hourglass_1/pool2_2x2_s2/bn"
  param {
    lr_mult: 0
    decay_mult: 0
  }
}
layer {
  name: "hourglass_1/lower_2/res/branch1/conv1_1x1"
  type: "Convolution"
  bottom: "hourglass_1/pool2_2x2_s2/bn"
  top: "hourglass_1/lower_2/res/branch1/conv1_1x1"
  param {
    lr_mult: 0
    decay_mult: 1
  }
  convolution_param {
    num_output: 64
    bias_term: false
    pad: 0
    kernel_size: 1
    stride: 1
    weight_filler {
      type: "constant"
    }
  }
}
layer {
  name: "hourglass_1/lower_2/res/branch1/conv1_1x1/bn_batchmorn"
  type: "BatchNorm"
  bottom: "hourglass_1/lower_2/res/branch1/conv1_1x1"
  top: "hourglass_1/lower_2/res/branch1/conv1_1x1tmp"
}
layer {
  name: "hourglass_1/lower_2/res/branch1/conv1_1x1/bn_scale"
  type: "Scale"
  bottom: "hourglass_1/lower_2/res/branch1/conv1_1x1tmp"
  top: "hourglass_1/lower_2/res/branch1/conv1_1x1/bn"
  scale_param {
    bias_term: true
  }
}
layer {
  name: "hourglass_1/lower_2/res/branch1/conv1_1x1/bn/relu"
  type: "PReLU"
  bottom: "hourglass_1/lower_2/res/branch1/conv1_1x1/bn"
  top: "hourglass_1/lower_2/res/branch1/conv1_1x1/bn"
  param {
    lr_mult: 0
    decay_mult: 0
  }
}
layer {
  name: "hourglass_1/lower_2/res/branch1/conv2_3x3"
  type: "Convolution"
  bottom: "hourglass_1/lower_2/res/branch1/conv1_1x1/bn"
  top: "hourglass_1/lower_2/res/branch1/conv2_3x3"
  param {
    lr_mult: 0
    decay_mult: 1
  }
  convolution_param {
    num_output: 64
    bias_term: false
    pad: 1
    kernel_size: 3
    stride: 1
    weight_filler {
      type: "constant"
    }
  }
}
layer {
  name: "hourglass_1/lower_2/res/branch1/conv2_3x3/bn_batchmorn"
  type: "BatchNorm"
  bottom: "hourglass_1/lower_2/res/branch1/conv2_3x3"
  top: "hourglass_1/lower_2/res/branch1/conv2_3x3tmp"
}
layer {
  name: "hourglass_1/lower_2/res/branch1/conv2_3x3/bn_scale"
  type: "Scale"
  bottom: "hourglass_1/lower_2/res/branch1/conv2_3x3tmp"
  top: "hourglass_1/lower_2/res/branch1/conv2_3x3/bn"
  scale_param {
    bias_term: true
  }
}
layer {
  name: "hourglass_1/lower_2/res/branch1/conv2_3x3/bn/relu"
  type: "PReLU"
  bottom: "hourglass_1/lower_2/res/branch1/conv2_3x3/bn"
  top: "hourglass_1/lower_2/res/branch1/conv2_3x3/bn"
  param {
    lr_mult: 0
    decay_mult: 0
  }
}
layer {
  name: "hourglass_1/lower_2/res/branch1/conv3_1x1"
  type: "Convolution"
  bottom: "hourglass_1/lower_2/res/branch1/conv2_3x3/bn"
  top: "hourglass_1/lower_2/res/branch1/conv3_1x1"
  param {
    lr_mult: 0
    decay_mult: 1
  }
  convolution_param {
    num_output: 256
    bias_term: false
    pad: 0
    kernel_size: 1
    stride: 1
    weight_filler {
      type: "constant"
    }
  }
}
layer {
  name: "hourglass_1/lower_2/res"
  type: "Eltwise"
  bottom: "hourglass_1/lower_2/res/branch1/conv3_1x1"
  bottom: "hourglass_1/pool2_2x2_s2"
  top: "hourglass_1/lower_2/res"
  eltwise_param {
    operation: SUM
  }
}
layer {
  name: "hourglass_1/pool3_2x2_s2"
  type: "Pooling"
  bottom: "hourglass_1/lower_2/res"
  top: "hourglass_1/pool3_2x2_s2"
  pooling_param {
    pool: MAX
    kernel_size: 2
    stride: 2
  }
}
layer {
  name: "hourglass_1/pool3_2x2_s2/bn_batchmorn"
  type: "BatchNorm"
  bottom: "hourglass_1/pool3_2x2_s2"
  top: "hourglass_1/pool3_2x2_s2tmp"
}
layer {
  name: "hourglass_1/pool3_2x2_s2/bn_scale"
  type: "Scale"
  bottom: "hourglass_1/pool3_2x2_s2tmp"
  top: "hourglass_1/pool3_2x2_s2/bn"
  scale_param {
    bias_term: true
  }
}
layer {
  name: "hourglass_1/pool3_2x2_s2/bn/relu"
  type: "PReLU"
  bottom: "hourglass_1/pool3_2x2_s2/bn"
  top: "hourglass_1/pool3_2x2_s2/bn"
  param {
    lr_mult: 0
    decay_mult: 0
  }
}
layer {
  name: "hourglass_1/lower_3/res/branch1/conv1_1x1"
  type: "Convolution"
  bottom: "hourglass_1/pool3_2x2_s2/bn"
  top: "hourglass_1/lower_3/res/branch1/conv1_1x1"
  param {
    lr_mult: 0
    decay_mult: 1
  }
  convolution_param {
    num_output: 64
    bias_term: false
    pad: 0
    kernel_size: 1
    stride: 1
    weight_filler {
      type: "constant"
    }
  }
}
layer {
  name: "hourglass_1/lower_3/res/branch1/conv1_1x1/bn_batchmorn"
  type: "BatchNorm"
  bottom: "hourglass_1/lower_3/res/branch1/conv1_1x1"
  top: "hourglass_1/lower_3/res/branch1/conv1_1x1tmp"
}
layer {
  name: "hourglass_1/lower_3/res/branch1/conv1_1x1/bn_scale"
  type: "Scale"
  bottom: "hourglass_1/lower_3/res/branch1/conv1_1x1tmp"
  top: "hourglass_1/lower_3/res/branch1/conv1_1x1/bn"
  scale_param {
    bias_term: true
  }
}
layer {
  name: "hourglass_1/lower_3/res/branch1/conv1_1x1/bn/relu"
  type: "PReLU"
  bottom: "hourglass_1/lower_3/res/branch1/conv1_1x1/bn"
  top: "hourglass_1/lower_3/res/branch1/conv1_1x1/bn"
  param {
    lr_mult: 0
    decay_mult: 0
  }
}
layer {
  name: "hourglass_1/lower_3/res/branch1/conv2_3x3"
  type: "Convolution"
  bottom: "hourglass_1/lower_3/res/branch1/conv1_1x1/bn"
  top: "hourglass_1/lower_3/res/branch1/conv2_3x3"
  param {
    lr_mult: 0
    decay_mult: 1
  }
  convolution_param {
    num_output: 64
    bias_term: false
    pad: 1
    kernel_size: 3
    stride: 1
    weight_filler {
      type: "constant"
    }
  }
}
layer {
  name: "hourglass_1/lower_3/res/branch1/conv2_3x3/bn_batchmorn"
  type: "BatchNorm"
  bottom: "hourglass_1/lower_3/res/branch1/conv2_3x3"
  top: "hourglass_1/lower_3/res/branch1/conv2_3x3tmp"
}
layer {
  name: "hourglass_1/lower_3/res/branch1/conv2_3x3/bn_scale"
  type: "Scale"
  bottom: "hourglass_1/lower_3/res/branch1/conv2_3x3tmp"
  top: "hourglass_1/lower_3/res/branch1/conv2_3x3/bn"
  scale_param {
    bias_term: true
  }
}
layer {
  name: "hourglass_1/lower_3/res/branch1/conv2_3x3/bn/relu"
  type: "PReLU"
  bottom: "hourglass_1/lower_3/res/branch1/conv2_3x3/bn"
  top: "hourglass_1/lower_3/res/branch1/conv2_3x3/bn"
  param {
    lr_mult: 0
    decay_mult: 0
  }
}
layer {
  name: "hourglass_1/lower_3/res/branch1/conv3_1x1"
  type: "Convolution"
  bottom: "hourglass_1/lower_3/res/branch1/conv2_3x3/bn"
  top: "hourglass_1/lower_3/res/branch1/conv3_1x1"
  param {
    lr_mult: 0
    decay_mult: 1
  }
  convolution_param {
    num_output: 256
    bias_term: false
    pad: 0
    kernel_size: 1
    stride: 1
    weight_filler {
      type: "constant"
    }
  }
}
layer {
  name: "hourglass_1/lower_3/res"
  type: "Eltwise"
  bottom: "hourglass_1/lower_3/res/branch1/conv3_1x1"
  bottom: "hourglass_1/pool3_2x2_s2"
  top: "hourglass_1/lower_3/res"
  eltwise_param {
    operation: SUM
  }
}
layer {
  name: "hourglass_1/pool4_2x2_s2"
  type: "Pooling"
  bottom: "hourglass_1/lower_3/res"
  top: "hourglass_1/pool4_2x2_s2"
  pooling_param {
    pool: MAX
    kernel_size: 2
    stride: 2
  }
}
layer {
  name: "hourglass_1/pool4_2x2_s2/bn_batchmorn"
  type: "BatchNorm"
  bottom: "hourglass_1/pool4_2x2_s2"
  top: "hourglass_1/pool4_2x2_s2tmp"
}
layer {
  name: "hourglass_1/pool4_2x2_s2/bn_scale"
  type: "Scale"
  bottom: "hourglass_1/pool4_2x2_s2tmp"
  top: "hourglass_1/pool4_2x2_s2/bn"
  scale_param {
    bias_term: true
  }
}
layer {
  name: "hourglass_1/pool4_2x2_s2/bn/relu"
  type: "PReLU"
  bottom: "hourglass_1/pool4_2x2_s2/bn"
  top: "hourglass_1/pool4_2x2_s2/bn"
  param {
    lr_mult: 0
    decay_mult: 0
  }
}
layer {
  name: "hourglass_1/lower_4_1/res/branch1/conv1_1x1"
  type: "Convolution"
  bottom: "hourglass_1/pool4_2x2_s2/bn"
  top: "hourglass_1/lower_4_1/res/branch1/conv1_1x1"
  param {
    lr_mult: 0
    decay_mult: 1
  }
  convolution_param {
    num_output: 64
    bias_term: false
    pad: 0
    kernel_size: 1
    stride: 1
    weight_filler {
      type: "constant"
    }
  }
}
layer {
  name: "hourglass_1/lower_4_1/res/branch1/conv1_1x1/bn_batchmorn"
  type: "BatchNorm"
  bottom: "hourglass_1/lower_4_1/res/branch1/conv1_1x1"
  top: "hourglass_1/lower_4_1/res/branch1/conv1_1x1tmp"
}
layer {
  name: "hourglass_1/lower_4_1/res/branch1/conv1_1x1/bn_scale"
  type: "Scale"
  bottom: "hourglass_1/lower_4_1/res/branch1/conv1_1x1tmp"
  top: "hourglass_1/lower_4_1/res/branch1/conv1_1x1/bn"
  scale_param {
    bias_term: true
  }
}
layer {
  name: "hourglass_1/lower_4_1/res/branch1/conv1_1x1/bn/relu"
  type: "PReLU"
  bottom: "hourglass_1/lower_4_1/res/branch1/conv1_1x1/bn"
  top: "hourglass_1/lower_4_1/res/branch1/conv1_1x1/bn"
  param {
    lr_mult: 0
    decay_mult: 0
  }
}
layer {
  name: "hourglass_1/lower_4_1/res/branch1/conv2_3x3"
  type: "Convolution"
  bottom: "hourglass_1/lower_4_1/res/branch1/conv1_1x1/bn"
  top: "hourglass_1/lower_4_1/res/branch1/conv2_3x3"
  param {
    lr_mult: 0
    decay_mult: 1
  }
  convolution_param {
    num_output: 64
    bias_term: false
    pad: 1
    kernel_size: 3
    stride: 1
    weight_filler {
      type: "constant"
    }
  }
}
layer {
  name: "hourglass_1/lower_4_1/res/branch1/conv2_3x3/bn_batchmorn"
  type: "BatchNorm"
  bottom: "hourglass_1/lower_4_1/res/branch1/conv2_3x3"
  top: "hourglass_1/lower_4_1/res/branch1/conv2_3x3tmp"
}
layer {
  name: "hourglass_1/lower_4_1/res/branch1/conv2_3x3/bn_scale"
  type: "Scale"
  bottom: "hourglass_1/lower_4_1/res/branch1/conv2_3x3tmp"
  top: "hourglass_1/lower_4_1/res/branch1/conv2_3x3/bn"
  scale_param {
    bias_term: true
  }
}
layer {
  name: "hourglass_1/lower_4_1/res/branch1/conv2_3x3/bn/relu"
  type: "PReLU"
  bottom: "hourglass_1/lower_4_1/res/branch1/conv2_3x3/bn"
  top: "hourglass_1/lower_4_1/res/branch1/conv2_3x3/bn"
  param {
    lr_mult: 0
    decay_mult: 0
  }
}
layer {
  name: "hourglass_1/lower_4_1/res/branch1/conv3_1x1"
  type: "Convolution"
  bottom: "hourglass_1/lower_4_1/res/branch1/conv2_3x3/bn"
  top: "hourglass_1/lower_4_1/res/branch1/conv3_1x1"
  param {
    lr_mult: 0
    decay_mult: 1
  }
  convolution_param {
    num_output: 256
    bias_term: false
    pad: 0
    kernel_size: 1
    stride: 1
    weight_filler {
      type: "constant"
    }
  }
}
layer {
  name: "hourglass_1/lower_4_1/res"
  type: "Eltwise"
  bottom: "hourglass_1/lower_4_1/res/branch1/conv3_1x1"
  bottom: "hourglass_1/pool4_2x2_s2"
  top: "hourglass_1/lower_4_1/res"
  eltwise_param {
    operation: SUM
  }
}
layer {
  name: "hourglass_1/lower_4_1/res/bn_batchmorn"
  type: "BatchNorm"
  bottom: "hourglass_1/lower_4_1/res"
  top: "hourglass_1/lower_4_1/restmp"
}
layer {
  name: "hourglass_1/lower_4_1/res/bn_scale"
  type: "Scale"
  bottom: "hourglass_1/lower_4_1/restmp"
  top: "hourglass_1/lower_4_1/res/bn"
  scale_param {
    bias_term: true
  }
}
layer {
  name: "hourglass_1/lower_4_1/res/bn/relu"
  type: "PReLU"
  bottom: "hourglass_1/lower_4_1/res/bn"
  top: "hourglass_1/lower_4_1/res/bn"
  param {
    lr_mult: 0
    decay_mult: 0
  }
}
layer {
  name: "hourglass_1/lower_4_2/res/branch1/conv1_1x1"
  type: "Convolution"
  bottom: "hourglass_1/lower_4_1/res/bn"
  top: "hourglass_1/lower_4_2/res/branch1/conv1_1x1"
  param {
    lr_mult: 0
    decay_mult: 1
  }
  convolution_param {
    num_output: 64
    bias_term: false
    pad: 0
    kernel_size: 1
    stride: 1
    weight_filler {
      type: "constant"
    }
  }
}
layer {
  name: "hourglass_1/lower_4_2/res/branch1/conv1_1x1/bn_batchmorn"
  type: "BatchNorm"
  bottom: "hourglass_1/lower_4_2/res/branch1/conv1_1x1"
  top: "hourglass_1/lower_4_2/res/branch1/conv1_1x1tmp"
}
layer {
  name: "hourglass_1/lower_4_2/res/branch1/conv1_1x1/bn_scale"
  type: "Scale"
  bottom: "hourglass_1/lower_4_2/res/branch1/conv1_1x1tmp"
  top: "hourglass_1/lower_4_2/res/branch1/conv1_1x1/bn"
  scale_param {
    bias_term: true
  }
}
layer {
  name: "hourglass_1/lower_4_2/res/branch1/conv1_1x1/bn/relu"
  type: "PReLU"
  bottom: "hourglass_1/lower_4_2/res/branch1/conv1_1x1/bn"
  top: "hourglass_1/lower_4_2/res/branch1/conv1_1x1/bn"
  param {
    lr_mult: 0
    decay_mult: 0
  }
}
layer {
  name: "hourglass_1/lower_4_2/res/branch1/conv2_3x3"
  type: "Convolution"
  bottom: "hourglass_1/lower_4_2/res/branch1/conv1_1x1/bn"
  top: "hourglass_1/lower_4_2/res/branch1/conv2_3x3"
  param {
    lr_mult: 0
    decay_mult: 1
  }
  convolution_param {
    num_output: 64
    bias_term: false
    pad: 1
    kernel_size: 3
    stride: 1
    weight_filler {
      type: "constant"
    }
  }
}
layer {
  name: "hourglass_1/lower_4_2/res/branch1/conv2_3x3/bn_batchmorn"
  type: "BatchNorm"
  bottom: "hourglass_1/lower_4_2/res/branch1/conv2_3x3"
  top: "hourglass_1/lower_4_2/res/branch1/conv2_3x3tmp"
}
layer {
  name: "hourglass_1/lower_4_2/res/branch1/conv2_3x3/bn_scale"
  type: "Scale"
  bottom: "hourglass_1/lower_4_2/res/branch1/conv2_3x3tmp"
  top: "hourglass_1/lower_4_2/res/branch1/conv2_3x3/bn"
  scale_param {
    bias_term: true
  }
}
layer {
  name: "hourglass_1/lower_4_2/res/branch1/conv2_3x3/bn/relu"
  type: "PReLU"
  bottom: "hourglass_1/lower_4_2/res/branch1/conv2_3x3/bn"
  top: "hourglass_1/lower_4_2/res/branch1/conv2_3x3/bn"
  param {
    lr_mult: 0
    decay_mult: 0
  }
}
layer {
  name: "hourglass_1/lower_4_2/res/branch1/conv3_1x1"
  type: "Convolution"
  bottom: "hourglass_1/lower_4_2/res/branch1/conv2_3x3/bn"
  top: "hourglass_1/lower_4_2/res/branch1/conv3_1x1"
  param {
    lr_mult: 0
    decay_mult: 1
  }
  convolution_param {
    num_output: 256
    bias_term: false
    pad: 0
    kernel_size: 1
    stride: 1
    weight_filler {
      type: "constant"
    }
  }
}
layer {
  name: "hourglass_1/lower_4_2/res"
  type: "Eltwise"
  bottom: "hourglass_1/lower_4_2/res/branch1/conv3_1x1"
  bottom: "hourglass_1/lower_4_1/res"
  top: "hourglass_1/lower_4_2/res"
  eltwise_param {
    operation: SUM
  }
}
layer {
  name: "hourglass_1/lower_4_2/res/bn_batchmorn"
  type: "BatchNorm"
  bottom: "hourglass_1/lower_4_2/res"
  top: "hourglass_1/lower_4_2/restmp"
}
layer {
  name: "hourglass_1/lower_4_2/res/bn_scale"
  type: "Scale"
  bottom: "hourglass_1/lower_4_2/restmp"
  top: "hourglass_1/lower_4_2/res/bn"
  scale_param {
    bias_term: true
  }
}
layer {
  name: "hourglass_1/lower_4_2/res/bn/relu"
  type: "PReLU"
  bottom: "hourglass_1/lower_4_2/res/bn"
  top: "hourglass_1/lower_4_2/res/bn"
  param {
    lr_mult: 0
    decay_mult: 0
  }
}
layer {
  name: "hourglass_1/lower_4_3/res/branch1/conv1_1x1"
  type: "Convolution"
  bottom: "hourglass_1/lower_4_2/res/bn"
  top: "hourglass_1/lower_4_3/res/branch1/conv1_1x1"
  param {
    lr_mult: 0
    decay_mult: 1
  }
  convolution_param {
    num_output: 64
    bias_term: false
    pad: 0
    kernel_size: 1
    stride: 1
    weight_filler {
      type: "constant"
    }
  }
}
layer {
  name: "hourglass_1/lower_4_3/res/branch1/conv1_1x1/bn_batchmorn"
  type: "BatchNorm"
  bottom: "hourglass_1/lower_4_3/res/branch1/conv1_1x1"
  top: "hourglass_1/lower_4_3/res/branch1/conv1_1x1tmp"
}
layer {
  name: "hourglass_1/lower_4_3/res/branch1/conv1_1x1/bn_scale"
  type: "Scale"
  bottom: "hourglass_1/lower_4_3/res/branch1/conv1_1x1tmp"
  top: "hourglass_1/lower_4_3/res/branch1/conv1_1x1/bn"
  scale_param {
    bias_term: true
  }
}
layer {
  name: "hourglass_1/lower_4_3/res/branch1/conv1_1x1/bn/relu"
  type: "PReLU"
  bottom: "hourglass_1/lower_4_3/res/branch1/conv1_1x1/bn"
  top: "hourglass_1/lower_4_3/res/branch1/conv1_1x1/bn"
  param {
    lr_mult: 0
    decay_mult: 0
  }
}
layer {
  name: "hourglass_1/lower_4_3/res/branch1/conv2_3x3"
  type: "Convolution"
  bottom: "hourglass_1/lower_4_3/res/branch1/conv1_1x1/bn"
  top: "hourglass_1/lower_4_3/res/branch1/conv2_3x3"
  param {
    lr_mult: 0
    decay_mult: 1
  }
  convolution_param {
    num_output: 64
    bias_term: false
    pad: 1
    kernel_size: 3
    stride: 1
    weight_filler {
      type: "constant"
    }
  }
}
layer {
  name: "hourglass_1/lower_4_3/res/branch1/conv2_3x3/bn_batchmorn"
  type: "BatchNorm"
  bottom: "hourglass_1/lower_4_3/res/branch1/conv2_3x3"
  top: "hourglass_1/lower_4_3/res/branch1/conv2_3x3tmp"
}
layer {
  name: "hourglass_1/lower_4_3/res/branch1/conv2_3x3/bn_scale"
  type: "Scale"
  bottom: "hourglass_1/lower_4_3/res/branch1/conv2_3x3tmp"
  top: "hourglass_1/lower_4_3/res/branch1/conv2_3x3/bn"
  scale_param {
    bias_term: true
  }
}
layer {
  name: "hourglass_1/lower_4_3/res/branch1/conv2_3x3/bn/relu"
  type: "PReLU"
  bottom: "hourglass_1/lower_4_3/res/branch1/conv2_3x3/bn"
  top: "hourglass_1/lower_4_3/res/branch1/conv2_3x3/bn"
  param {
    lr_mult: 0
    decay_mult: 0
  }
}
layer {
  name: "hourglass_1/lower_4_3/res/branch1/conv3_1x1"
  type: "Convolution"
  bottom: "hourglass_1/lower_4_3/res/branch1/conv2_3x3/bn"
  top: "hourglass_1/lower_4_3/res/branch1/conv3_1x1"
  param {
    lr_mult: 0
    decay_mult: 1
  }
  convolution_param {
    num_output: 256
    bias_term: false
    pad: 0
    kernel_size: 1
    stride: 1
    weight_filler {
      type: "constant"
    }
  }
}
layer {
  name: "hourglass_1/lower_4_3/res"
  type: "Eltwise"
  bottom: "hourglass_1/lower_4_3/res/branch1/conv3_1x1"
  bottom: "hourglass_1/lower_4_2/res"
  top: "hourglass_1/lower_4_3/res"
  eltwise_param {
    operation: SUM
  }
}
layer {
  name: "hourglass_1/upper_4/interp"
  type: "Interp"
  bottom: "hourglass_1/lower_4_3/res"
  bottom: "hourglass_1/lower_3/res"
  top: "hourglass_1/upper_4/interp"
}
layer {
  name: "hourglass_1/lower_3/res/bn_batchmorn"
  type: "BatchNorm"
  bottom: "hourglass_1/lower_3/res"
  top: "hourglass_1/lower_3/restmp"
}
layer {
  name: "hourglass_1/lower_3/res/bn_scale"
  type: "Scale"
  bottom: "hourglass_1/lower_3/restmp"
  top: "hourglass_1/lower_3/res/bn"
  scale_param {
    bias_term: true
  }
}
layer {
  name: "hourglass_1/lower_3/res/bn/relu"
  type: "PReLU"
  bottom: "hourglass_1/lower_3/res/bn"
  top: "hourglass_1/lower_3/res/bn"
  param {
    lr_mult: 0
    decay_mult: 0
  }
}
layer {
  name: "hourglass_1/upper_4/skip/res/branch1/conv1_1x1"
  type: "Convolution"
  bottom: "hourglass_1/lower_3/res/bn"
  top: "hourglass_1/upper_4/skip/res/branch1/conv1_1x1"
  param {
    lr_mult: 0
    decay_mult: 1
  }
  convolution_param {
    num_output: 64
    bias_term: false
    pad: 0
    kernel_size: 1
    stride: 1
    weight_filler {
      type: "constant"
    }
  }
}
layer {
  name: "hourglass_1/upper_4/skip/res/branch1/conv1_1x1/bn_batchmorn"
  type: "BatchNorm"
  bottom: "hourglass_1/upper_4/skip/res/branch1/conv1_1x1"
  top: "hourglass_1/upper_4/skip/res/branch1/conv1_1x1tmp"
}
layer {
  name: "hourglass_1/upper_4/skip/res/branch1/conv1_1x1/bn_scale"
  type: "Scale"
  bottom: "hourglass_1/upper_4/skip/res/branch1/conv1_1x1tmp"
  top: "hourglass_1/upper_4/skip/res/branch1/conv1_1x1/bn"
  scale_param {
    bias_term: true
  }
}
layer {
  name: "hourglass_1/upper_4/skip/res/branch1/conv1_1x1/bn/relu"
  type: "PReLU"
  bottom: "hourglass_1/upper_4/skip/res/branch1/conv1_1x1/bn"
  top: "hourglass_1/upper_4/skip/res/branch1/conv1_1x1/bn"
  param {
    lr_mult: 0
    decay_mult: 0
  }
}
layer {
  name: "hourglass_1/upper_4/skip/res/branch1/conv2_3x3"
  type: "Convolution"
  bottom: "hourglass_1/upper_4/skip/res/branch1/conv1_1x1/bn"
  top: "hourglass_1/upper_4/skip/res/branch1/conv2_3x3"
  param {
    lr_mult: 0
    decay_mult: 1
  }
  convolution_param {
    num_output: 64
    bias_term: false
    pad: 1
    kernel_size: 3
    stride: 1
    weight_filler {
      type: "constant"
    }
  }
}
layer {
  name: "hourglass_1/upper_4/skip/res/branch1/conv2_3x3/bn_batchmorn"
  type: "BatchNorm"
  bottom: "hourglass_1/upper_4/skip/res/branch1/conv2_3x3"
  top: "hourglass_1/upper_4/skip/res/branch1/conv2_3x3tmp"
}
layer {
  name: "hourglass_1/upper_4/skip/res/branch1/conv2_3x3/bn_scale"
  type: "Scale"
  bottom: "hourglass_1/upper_4/skip/res/branch1/conv2_3x3tmp"
  top: "hourglass_1/upper_4/skip/res/branch1/conv2_3x3/bn"
  scale_param {
    bias_term: true
  }
}
layer {
  name: "hourglass_1/upper_4/skip/res/branch1/conv2_3x3/bn/relu"
  type: "PReLU"
  bottom: "hourglass_1/upper_4/skip/res/branch1/conv2_3x3/bn"
  top: "hourglass_1/upper_4/skip/res/branch1/conv2_3x3/bn"
  param {
    lr_mult: 0
    decay_mult: 0
  }
}
layer {
  name: "hourglass_1/upper_4/skip/res/branch1/conv3_1x1"
  type: "Convolution"
  bottom: "hourglass_1/upper_4/skip/res/branch1/conv2_3x3/bn"
  top: "hourglass_1/upper_4/skip/res/branch1/conv3_1x1"
  param {
    lr_mult: 0
    decay_mult: 1
  }
  convolution_param {
    num_output: 256
    bias_term: false
    pad: 0
    kernel_size: 1
    stride: 1
    weight_filler {
      type: "constant"
    }
  }
}
layer {
  name: "hourglass_1/upper_4/skip/res"
  type: "Eltwise"
  bottom: "hourglass_1/upper_4/skip/res/branch1/conv3_1x1"
  bottom: "hourglass_1/lower_3/res"
  top: "hourglass_1/upper_4/skip/res"
  eltwise_param {
    operation: SUM
  }
}
layer {
  name: "hourglass_1/upper_4/output"
  type: "Eltwise"
  bottom: "hourglass_1/upper_4/skip/res"
  bottom: "hourglass_1/upper_4/interp"
  top: "hourglass_1/upper_4/output"
  eltwise_param {
    operation: SUM
  }
}
layer {
  name: "hourglass_1/upper_4/output/bn_batchmorn"
  type: "BatchNorm"
  bottom: "hourglass_1/upper_4/output"
  top: "hourglass_1/upper_4/outputtmp"
}
layer {
  name: "hourglass_1/upper_4/output/bn_scale"
  type: "Scale"
  bottom: "hourglass_1/upper_4/outputtmp"
  top: "hourglass_1/upper_4/output/bn"
  scale_param {
    bias_term: true
  }
}
layer {
  name: "hourglass_1/upper_4/output/bn/relu"
  type: "PReLU"
  bottom: "hourglass_1/upper_4/output/bn"
  top: "hourglass_1/upper_4/output/bn"
  param {
    lr_mult: 0
    decay_mult: 0
  }
}
layer {
  name: "hourglass_1/upper_3/res/branch1/conv1_1x1"
  type: "Convolution"
  bottom: "hourglass_1/upper_4/output/bn"
  top: "hourglass_1/upper_3/res/branch1/conv1_1x1"
  param {
    lr_mult: 0
    decay_mult: 1
  }
  convolution_param {
    num_output: 64
    bias_term: false
    pad: 0
    kernel_size: 1
    stride: 1
    weight_filler {
      type: "constant"
    }
  }
}
layer {
  name: "hourglass_1/upper_3/res/branch1/conv1_1x1/bn_batchmorn"
  type: "BatchNorm"
  bottom: "hourglass_1/upper_3/res/branch1/conv1_1x1"
  top: "hourglass_1/upper_3/res/branch1/conv1_1x1tmp"
}
layer {
  name: "hourglass_1/upper_3/res/branch1/conv1_1x1/bn_scale"
  type: "Scale"
  bottom: "hourglass_1/upper_3/res/branch1/conv1_1x1tmp"
  top: "hourglass_1/upper_3/res/branch1/conv1_1x1/bn"
  scale_param {
    bias_term: true
  }
}
layer {
  name: "hourglass_1/upper_3/res/branch1/conv1_1x1/bn/relu"
  type: "PReLU"
  bottom: "hourglass_1/upper_3/res/branch1/conv1_1x1/bn"
  top: "hourglass_1/upper_3/res/branch1/conv1_1x1/bn"
  param {
    lr_mult: 0
    decay_mult: 0
  }
}
layer {
  name: "hourglass_1/upper_3/res/branch1/conv2_3x3"
  type: "Convolution"
  bottom: "hourglass_1/upper_3/res/branch1/conv1_1x1/bn"
  top: "hourglass_1/upper_3/res/branch1/conv2_3x3"
  param {
    lr_mult: 0
    decay_mult: 1
  }
  convolution_param {
    num_output: 64
    bias_term: false
    pad: 1
    kernel_size: 3
    stride: 1
    weight_filler {
      type: "constant"
    }
  }
}
layer {
  name: "hourglass_1/upper_3/res/branch1/conv2_3x3/bn_batchmorn"
  type: "BatchNorm"
  bottom: "hourglass_1/upper_3/res/branch1/conv2_3x3"
  top: "hourglass_1/upper_3/res/branch1/conv2_3x3tmp"
}
layer {
  name: "hourglass_1/upper_3/res/branch1/conv2_3x3/bn_scale"
  type: "Scale"
  bottom: "hourglass_1/upper_3/res/branch1/conv2_3x3tmp"
  top: "hourglass_1/upper_3/res/branch1/conv2_3x3/bn"
  scale_param {
    bias_term: true
  }
}
layer {
  name: "hourglass_1/upper_3/res/branch1/conv2_3x3/bn/relu"
  type: "PReLU"
  bottom: "hourglass_1/upper_3/res/branch1/conv2_3x3/bn"
  top: "hourglass_1/upper_3/res/branch1/conv2_3x3/bn"
  param {
    lr_mult: 0
    decay_mult: 0
  }
}
layer {
  name: "hourglass_1/upper_3/res/branch1/conv3_1x1"
  type: "Convolution"
  bottom: "hourglass_1/upper_3/res/branch1/conv2_3x3/bn"
  top: "hourglass_1/upper_3/res/branch1/conv3_1x1"
  param {
    lr_mult: 0
    decay_mult: 1
  }
  convolution_param {
    num_output: 256
    bias_term: false
    pad: 0
    kernel_size: 1
    stride: 1
    weight_filler {
      type: "constant"
    }
  }
}
layer {
  name: "hourglass_1/upper_3/res"
  type: "Eltwise"
  bottom: "hourglass_1/upper_3/res/branch1/conv3_1x1"
  bottom: "hourglass_1/upper_4/output"
  top: "hourglass_1/upper_3/res"
  eltwise_param {
    operation: SUM
  }
}
layer {
  name: "hourglass_1/upper_3/interp"
  type: "Interp"
  bottom: "hourglass_1/upper_3/res"
  bottom: "hourglass_1/lower_2/res"
  top: "hourglass_1/upper_3/interp"
}
layer {
  name: "hourglass_1/lower_2/res/bn_batchmorn"
  type: "BatchNorm"
  bottom: "hourglass_1/lower_2/res"
  top: "hourglass_1/lower_2/restmp"
}
layer {
  name: "hourglass_1/lower_2/res/bn_scale"
  type: "Scale"
  bottom: "hourglass_1/lower_2/restmp"
  top: "hourglass_1/lower_2/res/bn"
  scale_param {
    bias_term: true
  }
}
layer {
  name: "hourglass_1/lower_2/res/bn/relu"
  type: "PReLU"
  bottom: "hourglass_1/lower_2/res/bn"
  top: "hourglass_1/lower_2/res/bn"
  param {
    lr_mult: 0
    decay_mult: 0
  }
}
layer {
  name: "hourglass_1/upper_3/skip/res/branch1/conv1_1x1"
  type: "Convolution"
  bottom: "hourglass_1/lower_2/res/bn"
  top: "hourglass_1/upper_3/skip/res/branch1/conv1_1x1"
  param {
    lr_mult: 0
    decay_mult: 1
  }
  convolution_param {
    num_output: 64
    bias_term: false
    pad: 0
    kernel_size: 1
    stride: 1
    weight_filler {
      type: "constant"
    }
  }
}
layer {
  name: "hourglass_1/upper_3/skip/res/branch1/conv1_1x1/bn_batchmorn"
  type: "BatchNorm"
  bottom: "hourglass_1/upper_3/skip/res/branch1/conv1_1x1"
  top: "hourglass_1/upper_3/skip/res/branch1/conv1_1x1tmp"
}
layer {
  name: "hourglass_1/upper_3/skip/res/branch1/conv1_1x1/bn_scale"
  type: "Scale"
  bottom: "hourglass_1/upper_3/skip/res/branch1/conv1_1x1tmp"
  top: "hourglass_1/upper_3/skip/res/branch1/conv1_1x1/bn"
  scale_param {
    bias_term: true
  }
}
layer {
  name: "hourglass_1/upper_3/skip/res/branch1/conv1_1x1/bn/relu"
  type: "PReLU"
  bottom: "hourglass_1/upper_3/skip/res/branch1/conv1_1x1/bn"
  top: "hourglass_1/upper_3/skip/res/branch1/conv1_1x1/bn"
  param {
    lr_mult: 0
    decay_mult: 0
  }
}
layer {
  name: "hourglass_1/upper_3/skip/res/branch1/conv2_3x3"
  type: "Convolution"
  bottom: "hourglass_1/upper_3/skip/res/branch1/conv1_1x1/bn"
  top: "hourglass_1/upper_3/skip/res/branch1/conv2_3x3"
  param {
    lr_mult: 0
    decay_mult: 1
  }
  convolution_param {
    num_output: 64
    bias_term: false
    pad: 1
    kernel_size: 3
    stride: 1
    weight_filler {
      type: "constant"
    }
  }
}
layer {
  name: "hourglass_1/upper_3/skip/res/branch1/conv2_3x3/bn_batchmorn"
  type: "BatchNorm"
  bottom: "hourglass_1/upper_3/skip/res/branch1/conv2_3x3"
  top: "hourglass_1/upper_3/skip/res/branch1/conv2_3x3tmp"
}
layer {
  name: "hourglass_1/upper_3/skip/res/branch1/conv2_3x3/bn_scale"
  type: "Scale"
  bottom: "hourglass_1/upper_3/skip/res/branch1/conv2_3x3tmp"
  top: "hourglass_1/upper_3/skip/res/branch1/conv2_3x3/bn"
  scale_param {
    bias_term: true
  }
}
layer {
  name: "hourglass_1/upper_3/skip/res/branch1/conv2_3x3/bn/relu"
  type: "PReLU"
  bottom: "hourglass_1/upper_3/skip/res/branch1/conv2_3x3/bn"
  top: "hourglass_1/upper_3/skip/res/branch1/conv2_3x3/bn"
  param {
    lr_mult: 0
    decay_mult: 0
  }
}
layer {
  name: "hourglass_1/upper_3/skip/res/branch1/conv3_1x1"
  type: "Convolution"
  bottom: "hourglass_1/upper_3/skip/res/branch1/conv2_3x3/bn"
  top: "hourglass_1/upper_3/skip/res/branch1/conv3_1x1"
  param {
    lr_mult: 0
    decay_mult: 1
  }
  convolution_param {
    num_output: 256
    bias_term: false
    pad: 0
    kernel_size: 1
    stride: 1
    weight_filler {
      type: "constant"
    }
  }
}
layer {
  name: "hourglass_1/upper_3/skip/res"
  type: "Eltwise"
  bottom: "hourglass_1/upper_3/skip/res/branch1/conv3_1x1"
  bottom: "hourglass_1/lower_2/res"
  top: "hourglass_1/upper_3/skip/res"
  eltwise_param {
    operation: SUM
  }
}
layer {
  name: "hourglass_1/upper_3/output"
  type: "Eltwise"
  bottom: "hourglass_1/upper_3/skip/res"
  bottom: "hourglass_1/upper_3/interp"
  top: "hourglass_1/upper_3/output"
  eltwise_param {
    operation: SUM
  }
}
layer {
  name: "hourglass_1/upper_3/output/bn_batchmorn"
  type: "BatchNorm"
  bottom: "hourglass_1/upper_3/output"
  top: "hourglass_1/upper_3/outputtmp"
}
layer {
  name: "hourglass_1/upper_3/output/bn_scale"
  type: "Scale"
  bottom: "hourglass_1/upper_3/outputtmp"
  top: "hourglass_1/upper_3/output/bn"
  scale_param {
    bias_term: true
  }
}
layer {
  name: "hourglass_1/upper_3/output/bn/relu"
  type: "PReLU"
  bottom: "hourglass_1/upper_3/output/bn"
  top: "hourglass_1/upper_3/output/bn"
  param {
    lr_mult: 0
    decay_mult: 0
  }
}
layer {
  name: "hourglass_1/upper_2/res/branch1/conv1_1x1"
  type: "Convolution"
  bottom: "hourglass_1/upper_3/output/bn"
  top: "hourglass_1/upper_2/res/branch1/conv1_1x1"
  param {
    lr_mult: 0
    decay_mult: 1
  }
  convolution_param {
    num_output: 64
    bias_term: false
    pad: 0
    kernel_size: 1
    stride: 1
    weight_filler {
      type: "constant"
    }
  }
}
layer {
  name: "hourglass_1/upper_2/res/branch1/conv1_1x1/bn_batchmorn"
  type: "BatchNorm"
  bottom: "hourglass_1/upper_2/res/branch1/conv1_1x1"
  top: "hourglass_1/upper_2/res/branch1/conv1_1x1tmp"
}
layer {
  name: "hourglass_1/upper_2/res/branch1/conv1_1x1/bn_scale"
  type: "Scale"
  bottom: "hourglass_1/upper_2/res/branch1/conv1_1x1tmp"
  top: "hourglass_1/upper_2/res/branch1/conv1_1x1/bn"
  scale_param {
    bias_term: true
  }
}
layer {
  name: "hourglass_1/upper_2/res/branch1/conv1_1x1/bn/relu"
  type: "PReLU"
  bottom: "hourglass_1/upper_2/res/branch1/conv1_1x1/bn"
  top: "hourglass_1/upper_2/res/branch1/conv1_1x1/bn"
  param {
    lr_mult: 0
    decay_mult: 0
  }
}
layer {
  name: "hourglass_1/upper_2/res/branch1/conv2_3x3"
  type: "Convolution"
  bottom: "hourglass_1/upper_2/res/branch1/conv1_1x1/bn"
  top: "hourglass_1/upper_2/res/branch1/conv2_3x3"
  param {
    lr_mult: 0
    decay_mult: 1
  }
  convolution_param {
    num_output: 64
    bias_term: false
    pad: 1
    kernel_size: 3
    stride: 1
    weight_filler {
      type: "constant"
    }
  }
}
layer {
  name: "hourglass_1/upper_2/res/branch1/conv2_3x3/bn_batchmorn"
  type: "BatchNorm"
  bottom: "hourglass_1/upper_2/res/branch1/conv2_3x3"
  top: "hourglass_1/upper_2/res/branch1/conv2_3x3tmp"
}
layer {
  name: "hourglass_1/upper_2/res/branch1/conv2_3x3/bn_scale"
  type: "Scale"
  bottom: "hourglass_1/upper_2/res/branch1/conv2_3x3tmp"
  top: "hourglass_1/upper_2/res/branch1/conv2_3x3/bn"
  scale_param {
    bias_term: true
  }
}
layer {
  name: "hourglass_1/upper_2/res/branch1/conv2_3x3/bn/relu"
  type: "PReLU"
  bottom: "hourglass_1/upper_2/res/branch1/conv2_3x3/bn"
  top: "hourglass_1/upper_2/res/branch1/conv2_3x3/bn"
  param {
    lr_mult: 0
    decay_mult: 0
  }
}
layer {
  name: "hourglass_1/upper_2/res/branch1/conv3_1x1"
  type: "Convolution"
  bottom: "hourglass_1/upper_2/res/branch1/conv2_3x3/bn"
  top: "hourglass_1/upper_2/res/branch1/conv3_1x1"
  param {
    lr_mult: 0
    decay_mult: 1
  }
  convolution_param {
    num_output: 256
    bias_term: false
    pad: 0
    kernel_size: 1
    stride: 1
    weight_filler {
      type: "constant"
    }
  }
}
layer {
  name: "hourglass_1/upper_2/res"
  type: "Eltwise"
  bottom: "hourglass_1/upper_2/res/branch1/conv3_1x1"
  bottom: "hourglass_1/upper_3/output"
  top: "hourglass_1/upper_2/res"
  eltwise_param {
    operation: SUM
  }
}
layer {
  name: "hourglass_1/upper_2/interp"
  type: "Interp"
  bottom: "hourglass_1/upper_2/res"
  bottom: "hourglass_1/lower_1/res"
  top: "hourglass_1/upper_2/interp"
}
layer {
  name: "hourglass_1/lower_1/res/bn_batchmorn"
  type: "BatchNorm"
  bottom: "hourglass_1/lower_1/res"
  top: "hourglass_1/lower_1/restmp"
}
layer {
  name: "hourglass_1/lower_1/res/bn_scale"
  type: "Scale"
  bottom: "hourglass_1/lower_1/restmp"
  top: "hourglass_1/lower_1/res/bn"
  scale_param {
    bias_term: true
  }
}
layer {
  name: "hourglass_1/lower_1/res/bn/relu"
  type: "PReLU"
  bottom: "hourglass_1/lower_1/res/bn"
  top: "hourglass_1/lower_1/res/bn"
  param {
    lr_mult: 0
    decay_mult: 0
  }
}
layer {
  name: "hourglass_1/upper_2/skip/res/branch1/conv1_1x1"
  type: "Convolution"
  bottom: "hourglass_1/lower_1/res/bn"
  top: "hourglass_1/upper_2/skip/res/branch1/conv1_1x1"
  param {
    lr_mult: 0
    decay_mult: 1
  }
  convolution_param {
    num_output: 64
    bias_term: false
    pad: 0
    kernel_size: 1
    stride: 1
    weight_filler {
      type: "constant"
    }
  }
}
layer {
  name: "hourglass_1/upper_2/skip/res/branch1/conv1_1x1/bn_batchmorn"
  type: "BatchNorm"
  bottom: "hourglass_1/upper_2/skip/res/branch1/conv1_1x1"
  top: "hourglass_1/upper_2/skip/res/branch1/conv1_1x1tmp"
}
layer {
  name: "hourglass_1/upper_2/skip/res/branch1/conv1_1x1/bn_scale"
  type: "Scale"
  bottom: "hourglass_1/upper_2/skip/res/branch1/conv1_1x1tmp"
  top: "hourglass_1/upper_2/skip/res/branch1/conv1_1x1/bn"
  scale_param {
    bias_term: true
  }
}
layer {
  name: "hourglass_1/upper_2/skip/res/branch1/conv1_1x1/bn/relu"
  type: "PReLU"
  bottom: "hourglass_1/upper_2/skip/res/branch1/conv1_1x1/bn"
  top: "hourglass_1/upper_2/skip/res/branch1/conv1_1x1/bn"
  param {
    lr_mult: 0
    decay_mult: 0
  }
}
layer {
  name: "hourglass_1/upper_2/skip/res/branch1/conv2_3x3"
  type: "Convolution"
  bottom: "hourglass_1/upper_2/skip/res/branch1/conv1_1x1/bn"
  top: "hourglass_1/upper_2/skip/res/branch1/conv2_3x3"
  param {
    lr_mult: 0
    decay_mult: 1
  }
  convolution_param {
    num_output: 64
    bias_term: false
    pad: 1
    kernel_size: 3
    stride: 1
    weight_filler {
      type: "constant"
    }
  }
}
layer {
  name: "hourglass_1/upper_2/skip/res/branch1/conv2_3x3/bn_batchmorn"
  type: "BatchNorm"
  bottom: "hourglass_1/upper_2/skip/res/branch1/conv2_3x3"
  top: "hourglass_1/upper_2/skip/res/branch1/conv2_3x3tmp"
}
layer {
  name: "hourglass_1/upper_2/skip/res/branch1/conv2_3x3/bn_scale"
  type: "Scale"
  bottom: "hourglass_1/upper_2/skip/res/branch1/conv2_3x3tmp"
  top: "hourglass_1/upper_2/skip/res/branch1/conv2_3x3/bn"
  scale_param {
    bias_term: true
  }
}
layer {
  name: "hourglass_1/upper_2/skip/res/branch1/conv2_3x3/bn/relu"
  type: "PReLU"
  bottom: "hourglass_1/upper_2/skip/res/branch1/conv2_3x3/bn"
  top: "hourglass_1/upper_2/skip/res/branch1/conv2_3x3/bn"
  param {
    lr_mult: 0
    decay_mult: 0
  }
}
layer {
  name: "hourglass_1/upper_2/skip/res/branch1/conv3_1x1"
  type: "Convolution"
  bottom: "hourglass_1/upper_2/skip/res/branch1/conv2_3x3/bn"
  top: "hourglass_1/upper_2/skip/res/branch1/conv3_1x1"
  param {
    lr_mult: 0
    decay_mult: 1
  }
  convolution_param {
    num_output: 256
    bias_term: false
    pad: 0
    kernel_size: 1
    stride: 1
    weight_filler {
      type: "constant"
    }
  }
}
layer {
  name: "hourglass_1/upper_2/skip/res"
  type: "Eltwise"
  bottom: "hourglass_1/upper_2/skip/res/branch1/conv3_1x1"
  bottom: "hourglass_1/lower_1/res"
  top: "hourglass_1/upper_2/skip/res"
  eltwise_param {
    operation: SUM
  }
}
layer {
  name: "hourglass_1/upper_2/output"
  type: "Eltwise"
  bottom: "hourglass_1/upper_2/skip/res"
  bottom: "hourglass_1/upper_2/interp"
  top: "hourglass_1/upper_2/output"
  eltwise_param {
    operation: SUM
  }
}
layer {
  name: "hourglass_1/upper_2/output/bn_batchmorn"
  type: "BatchNorm"
  bottom: "hourglass_1/upper_2/output"
  top: "hourglass_1/upper_2/outputtmp"
}
layer {
  name: "hourglass_1/upper_2/output/bn_scale"
  type: "Scale"
  bottom: "hourglass_1/upper_2/outputtmp"
  top: "hourglass_1/upper_2/output/bn"
  scale_param {
    bias_term: true
  }
}
layer {
  name: "hourglass_1/upper_2/output/bn/relu"
  type: "PReLU"
  bottom: "hourglass_1/upper_2/output/bn"
  top: "hourglass_1/upper_2/output/bn"
  param {
    lr_mult: 0
    decay_mult: 0
  }
}
layer {
  name: "hourglass_1/upper_1/res/branch1/conv1_1x1"
  type: "Convolution"
  bottom: "hourglass_1/upper_2/output/bn"
  top: "hourglass_1/upper_1/res/branch1/conv1_1x1"
  param {
    lr_mult: 0
    decay_mult: 1
  }
  convolution_param {
    num_output: 64
    bias_term: false
    pad: 0
    kernel_size: 1
    stride: 1
    weight_filler {
      type: "constant"
    }
  }
}
layer {
  name: "hourglass_1/upper_1/res/branch1/conv1_1x1/bn_batchmorn"
  type: "BatchNorm"
  bottom: "hourglass_1/upper_1/res/branch1/conv1_1x1"
  top: "hourglass_1/upper_1/res/branch1/conv1_1x1tmp"
}
layer {
  name: "hourglass_1/upper_1/res/branch1/conv1_1x1/bn_scale"
  type: "Scale"
  bottom: "hourglass_1/upper_1/res/branch1/conv1_1x1tmp"
  top: "hourglass_1/upper_1/res/branch1/conv1_1x1/bn"
  scale_param {
    bias_term: true
  }
}
layer {
  name: "hourglass_1/upper_1/res/branch1/conv1_1x1/bn/relu"
  type: "PReLU"
  bottom: "hourglass_1/upper_1/res/branch1/conv1_1x1/bn"
  top: "hourglass_1/upper_1/res/branch1/conv1_1x1/bn"
  param {
    lr_mult: 0
    decay_mult: 0
  }
}
layer {
  name: "hourglass_1/upper_1/res/branch1/conv2_3x3"
  type: "Convolution"
  bottom: "hourglass_1/upper_1/res/branch1/conv1_1x1/bn"
  top: "hourglass_1/upper_1/res/branch1/conv2_3x3"
  param {
    lr_mult: 0
    decay_mult: 1
  }
  convolution_param {
    num_output: 64
    bias_term: false
    pad: 1
    kernel_size: 3
    stride: 1
    weight_filler {
      type: "constant"
    }
  }
}
layer {
  name: "hourglass_1/upper_1/res/branch1/conv2_3x3/bn_batchmorn"
  type: "BatchNorm"
  bottom: "hourglass_1/upper_1/res/branch1/conv2_3x3"
  top: "hourglass_1/upper_1/res/branch1/conv2_3x3tmp"
}
layer {
  name: "hourglass_1/upper_1/res/branch1/conv2_3x3/bn_scale"
  type: "Scale"
  bottom: "hourglass_1/upper_1/res/branch1/conv2_3x3tmp"
  top: "hourglass_1/upper_1/res/branch1/conv2_3x3/bn"
  scale_param {
    bias_term: true
  }
}
layer {
  name: "hourglass_1/upper_1/res/branch1/conv2_3x3/bn/relu"
  type: "PReLU"
  bottom: "hourglass_1/upper_1/res/branch1/conv2_3x3/bn"
  top: "hourglass_1/upper_1/res/branch1/conv2_3x3/bn"
  param {
    lr_mult: 0
    decay_mult: 0
  }
}
layer {
  name: "hourglass_1/upper_1/res/branch1/conv3_1x1"
  type: "Convolution"
  bottom: "hourglass_1/upper_1/res/branch1/conv2_3x3/bn"
  top: "hourglass_1/upper_1/res/branch1/conv3_1x1"
  param {
    lr_mult: 0
    decay_mult: 1
  }
  convolution_param {
    num_output: 256
    bias_term: false
    pad: 0
    kernel_size: 1
    stride: 1
    weight_filler {
      type: "constant"
    }
  }
}
layer {
  name: "hourglass_1/upper_1/res"
  type: "Eltwise"
  bottom: "hourglass_1/upper_1/res/branch1/conv3_1x1"
  bottom: "hourglass_1/upper_2/output"
  top: "hourglass_1/upper_1/res"
  eltwise_param {
    operation: SUM
  }
}
layer {
  name: "hourglass_1/upper_1/interp"
  type: "Interp"
  bottom: "hourglass_1/upper_1/res"
  bottom: "hourglass_0/output"
  top: "hourglass_1/upper_1/interp"
}
layer {
  name: "hourglass_0/output/bn_batchmorn"
  type: "BatchNorm"
  bottom: "hourglass_0/output"
  top: "hourglass_0/outputtmp"
}
layer {
  name: "hourglass_0/output/bn_scale"
  type: "Scale"
  bottom: "hourglass_0/outputtmp"
  top: "hourglass_0/output/bn"
  scale_param {
    bias_term: true
  }
}
layer {
  name: "hourglass_0/output/bn/relu"
  type: "PReLU"
  bottom: "hourglass_0/output/bn"
  top: "hourglass_0/output/bn"
  param {
    lr_mult: 0
    decay_mult: 0
  }
}
layer {
  name: "hourglass_1/upper_1/skip/res/branch1/conv1_1x1"
  type: "Convolution"
  bottom: "hourglass_0/output/bn"
  top: "hourglass_1/upper_1/skip/res/branch1/conv1_1x1"
  param {
    lr_mult: 0
    decay_mult: 1
  }
  convolution_param {
    num_output: 64
    bias_term: false
    pad: 0
    kernel_size: 1
    stride: 1
    weight_filler {
      type: "constant"
    }
  }
}
layer {
  name: "hourglass_1/upper_1/skip/res/branch1/conv1_1x1/bn_batchmorn"
  type: "BatchNorm"
  bottom: "hourglass_1/upper_1/skip/res/branch1/conv1_1x1"
  top: "hourglass_1/upper_1/skip/res/branch1/conv1_1x1tmp"
}
layer {
  name: "hourglass_1/upper_1/skip/res/branch1/conv1_1x1/bn_scale"
  type: "Scale"
  bottom: "hourglass_1/upper_1/skip/res/branch1/conv1_1x1tmp"
  top: "hourglass_1/upper_1/skip/res/branch1/conv1_1x1/bn"
  scale_param {
    bias_term: true
  }
}
layer {
  name: "hourglass_1/upper_1/skip/res/branch1/conv1_1x1/bn/relu"
  type: "PReLU"
  bottom: "hourglass_1/upper_1/skip/res/branch1/conv1_1x1/bn"
  top: "hourglass_1/upper_1/skip/res/branch1/conv1_1x1/bn"
  param {
    lr_mult: 0
    decay_mult: 0
  }
}
layer {
  name: "hourglass_1/upper_1/skip/res/branch1/conv2_3x3"
  type: "Convolution"
  bottom: "hourglass_1/upper_1/skip/res/branch1/conv1_1x1/bn"
  top: "hourglass_1/upper_1/skip/res/branch1/conv2_3x3"
  param {
    lr_mult: 0
    decay_mult: 1
  }
  convolution_param {
    num_output: 64
    bias_term: false
    pad: 1
    kernel_size: 3
    stride: 1
    weight_filler {
      type: "constant"
    }
  }
}
layer {
  name: "hourglass_1/upper_1/skip/res/branch1/conv2_3x3/bn_batchmorn"
  type: "BatchNorm"
  bottom: "hourglass_1/upper_1/skip/res/branch1/conv2_3x3"
  top: "hourglass_1/upper_1/skip/res/branch1/conv2_3x3tmp"
}
layer {
  name: "hourglass_1/upper_1/skip/res/branch1/conv2_3x3/bn_scale"
  type: "Scale"
  bottom: "hourglass_1/upper_1/skip/res/branch1/conv2_3x3tmp"
  top: "hourglass_1/upper_1/skip/res/branch1/conv2_3x3/bn"
  scale_param {
    bias_term: true
  }
}
layer {
  name: "hourglass_1/upper_1/skip/res/branch1/conv2_3x3/bn/relu"
  type: "PReLU"
  bottom: "hourglass_1/upper_1/skip/res/branch1/conv2_3x3/bn"
  top: "hourglass_1/upper_1/skip/res/branch1/conv2_3x3/bn"
  param {
    lr_mult: 0
    decay_mult: 0
  }
}
layer {
  name: "hourglass_1/upper_1/skip/res/branch1/conv3_1x1"
  type: "Convolution"
  bottom: "hourglass_1/upper_1/skip/res/branch1/conv2_3x3/bn"
  top: "hourglass_1/upper_1/skip/res/branch1/conv3_1x1"
  param {
    lr_mult: 0
    decay_mult: 1
  }
  convolution_param {
    num_output: 256
    bias_term: false
    pad: 0
    kernel_size: 1
    stride: 1
    weight_filler {
      type: "constant"
    }
  }
}
layer {
  name: "hourglass_1/upper_1/skip/res"
  type: "Eltwise"
  bottom: "hourglass_1/upper_1/skip/res/branch1/conv3_1x1"
  bottom: "hourglass_0/output"
  top: "hourglass_1/upper_1/skip/res"
  eltwise_param {
    operation: SUM
  }
}
layer {
  name: "hourglass_1"
  type: "Eltwise"
  bottom: "hourglass_1/upper_1/skip/res"
  bottom: "hourglass_1/upper_1/interp"
  top: "hourglass_1"
  eltwise_param {
    operation: SUM
  }
}
layer {
  name: "hourglass_1/bn_batchmorn"
  type: "BatchNorm"
  bottom: "hourglass_1"
  top: "hourglass_1tmp"
}
layer {
  name: "hourglass_1/bn_scale"
  type: "Scale"
  bottom: "hourglass_1tmp"
  top: "hourglass_1/bn"
  scale_param {
    bias_term: true
  }
}
layer {
  name: "hourglass_1/bn/relu"
  type: "PReLU"
  bottom: "hourglass_1/bn"
  top: "hourglass_1/bn"
  param {
    lr_mult: 0
    decay_mult: 0
  }
}
layer {
  name: "hourglass_1/post/branch1/conv1_1x1"
  type: "Convolution"
  bottom: "hourglass_1/bn"
  top: "hourglass_1/post/branch1/conv1_1x1"
  param {
    lr_mult: 0
    decay_mult: 1
  }
  convolution_param {
    num_output: 64
    bias_term: false
    pad: 0
    kernel_size: 1
    stride: 1
    weight_filler {
      type: "constant"
    }
  }
}
layer {
  name: "hourglass_1/post/branch1/conv1_1x1/bn_batchmorn"
  type: "BatchNorm"
  bottom: "hourglass_1/post/branch1/conv1_1x1"
  top: "hourglass_1/post/branch1/conv1_1x1tmp"
}
layer {
  name: "hourglass_1/post/branch1/conv1_1x1/bn_scale"
  type: "Scale"
  bottom: "hourglass_1/post/branch1/conv1_1x1tmp"
  top: "hourglass_1/post/branch1/conv1_1x1/bn"
  scale_param {
    bias_term: true
  }
}
layer {
  name: "hourglass_1/post/branch1/conv1_1x1/bn/relu"
  type: "PReLU"
  bottom: "hourglass_1/post/branch1/conv1_1x1/bn"
  top: "hourglass_1/post/branch1/conv1_1x1/bn"
  param {
    lr_mult: 0
    decay_mult: 0
  }
}
layer {
  name: "hourglass_1/post/branch1/conv2_3x3"
  type: "Convolution"
  bottom: "hourglass_1/post/branch1/conv1_1x1/bn"
  top: "hourglass_1/post/branch1/conv2_3x3"
  param {
    lr_mult: 0
    decay_mult: 1
  }
  convolution_param {
    num_output: 64
    bias_term: false
    pad: 1
    kernel_size: 3
    stride: 1
    weight_filler {
      type: "constant"
    }
  }
}
layer {
  name: "hourglass_1/post/branch1/conv2_3x3/bn_batchmorn"
  type: "BatchNorm"
  bottom: "hourglass_1/post/branch1/conv2_3x3"
  top: "hourglass_1/post/branch1/conv2_3x3tmp"
}
layer {
  name: "hourglass_1/post/branch1/conv2_3x3/bn_scale"
  type: "Scale"
  bottom: "hourglass_1/post/branch1/conv2_3x3tmp"
  top: "hourglass_1/post/branch1/conv2_3x3/bn"
  scale_param {
    bias_term: true
  }
}
layer {
  name: "hourglass_1/post/branch1/conv2_3x3/bn/relu"
  type: "PReLU"
  bottom: "hourglass_1/post/branch1/conv2_3x3/bn"
  top: "hourglass_1/post/branch1/conv2_3x3/bn"
  param {
    lr_mult: 0
    decay_mult: 0
  }
}
layer {
  name: "hourglass_1/post/branch1/conv3_1x1"
  type: "Convolution"
  bottom: "hourglass_1/post/branch1/conv2_3x3/bn"
  top: "hourglass_1/post/branch1/conv3_1x1"
  param {
    lr_mult: 0
    decay_mult: 1
  }
  convolution_param {
    num_output: 256
    bias_term: false
    pad: 0
    kernel_size: 1
    stride: 1
    weight_filler {
      type: "constant"
    }
  }
}
layer {
  name: "hourglass_1/post"
  type: "Eltwise"
  bottom: "hourglass_1/post/branch1/conv3_1x1"
  bottom: "hourglass_1"
  top: "hourglass_1/post"
  eltwise_param {
    operation: SUM
  }
}
layer {
  name: "hourglass_1/post/bn_batchmorn"
  type: "BatchNorm"
  bottom: "hourglass_1/post"
  top: "hourglass_1/posttmp"
}
layer {
  name: "hourglass_1/post/bn_scale"
  type: "Scale"
  bottom: "hourglass_1/posttmp"
  top: "hourglass_1/post/bn"
  scale_param {
    bias_term: true
  }
}
layer {
  name: "hourglass_1/post/bn/relu"
  type: "PReLU"
  bottom: "hourglass_1/post/bn"
  top: "hourglass_1/post/bn"
  param {
    lr_mult: 0
    decay_mult: 0
  }
}
layer {
  name: "hourglass_1/post/linear_1"
  type: "Convolution"
  bottom: "hourglass_1/post/bn"
  top: "hourglass_1/post/linear_1"
  param {
    lr_mult: 0
    decay_mult: 1
  }
  convolution_param {
    num_output: 256
    bias_term: false
    pad: 0
    kernel_size: 1
    stride: 1
    weight_filler {
      type: "constant"
    }
  }
}
layer {
  name: "hourglass_1/fconv_A_1"
  type: "Convolution"
  bottom: "hourglass_1/post/linear_1"
  top: "hourglass_1/fconv_A_1"
  param {
    lr_mult: 0
    decay_mult: 1
  }
  convolution_param {
    num_output: 16
    bias_term: false
    pad: 0
    kernel_size: 1
    stride: 1
    weight_filler {
      type: "constant"
    }
  }
}
layer {
  name: "hourglass_1/fconv_A_1+/bn_batchmorn"
  type: "BatchNorm"
  bottom: "hourglass_1/fconv_A_1"
  top: "hourglass_1/fconv_A_1tmp"
}
layer {
  name: "hourglass_1/fconv_A_1+/bn_scale"
  type: "Scale"
  bottom: "hourglass_1/fconv_A_1tmp"
  top: "hourglass_1/fconv_A_1+/bn"
  scale_param {
    bias_term: true
  }
}
layer {
  name: "hourglass_1/relu_A_1"
  type: "PReLU"
  bottom: "hourglass_1/fconv_A_1+/bn"
  top: "hourglass_1/fconv_A_1+/bn"
  param {
    lr_mult: 0
    decay_mult: 0
  }
}
layer {
  name: "hourglass_1/fconv_A_1to13_step1"
  type: "Convolution"
  bottom: "hourglass_1/fconv_A_1+/bn"
  top: "hourglass_1/fconv_A_1to13_step1"
  param {
    lr_mult: 0
    decay_mult: 1
  }
  convolution_param {
    num_output: 8
    bias_term: false
    pad: 3
    kernel_size: 7
    stride: 1
    weight_filler {
      type: "constant"
    }
  }
}
layer {
  name: "hourglass_1/fconv_A_1to13_step1/bn_batchmorn"
  type: "BatchNorm"
  bottom: "hourglass_1/fconv_A_1to13_step1"
  top: "hourglass_1/fconv_A_1to13_step1tmp"
}
layer {
  name: "hourglass_1/fconv_A_1to13_step1/bn_scale"
  type: "Scale"
  bottom: "hourglass_1/fconv_A_1to13_step1tmp"
  top: "hourglass_1/fconv_A_1to13_step1/bn"
  scale_param {
    bias_term: true
  }
}
layer {
  name: "hourglass_1/fconv_A_1to13_step1/bn/relu"
  type: "PReLU"
  bottom: "hourglass_1/fconv_A_1to13_step1/bn"
  top: "hourglass_1/fconv_A_1to13_step1/bn"
  param {
    lr_mult: 0
    decay_mult: 0
  }
}
layer {
  name: "hourglass_1/fconv_A_1to13_step2"
  type: "Convolution"
  bottom: "hourglass_1/fconv_A_1to13_step1/bn"
  top: "hourglass_1/fconv_A_1to13_step2"
  param {
    lr_mult: 0
    decay_mult: 1
  }
  convolution_param {
    num_output: 16
    bias_term: false
    pad: 3
    kernel_size: 7
    stride: 1
    weight_filler {
      type: "constant"
    }
  }
}
layer {
  name: "hourglass_1/fconv_A_1to7_step1"
  type: "Convolution"
  bottom: "hourglass_1/fconv_A_1+/bn"
  top: "hourglass_1/fconv_A_1to7_step1"
  param {
    lr_mult: 0
    decay_mult: 1
  }
  convolution_param {
    num_output: 8
    bias_term: false
    pad: 3
    kernel_size: 7
    stride: 1
    weight_filler {
      type: "constant"
    }
  }
}
layer {
  name: "hourglass_1/fconv_A_1to7_step1/bn_batchmorn"
  type: "BatchNorm"
  bottom: "hourglass_1/fconv_A_1to7_step1"
  top: "hourglass_1/fconv_A_1to7_step1tmp"
}
layer {
  name: "hourglass_1/fconv_A_1to7_step1/bn_scale"
  type: "Scale"
  bottom: "hourglass_1/fconv_A_1to7_step1tmp"
  top: "hourglass_1/fconv_A_1to7_step1/bn"
  scale_param {
    bias_term: true
  }
}
layer {
  name: "hourglass_1/fconv_A_1to7_step1/bn/relu"
  type: "PReLU"
  bottom: "hourglass_1/fconv_A_1to7_step1/bn"
  top: "hourglass_1/fconv_A_1to7_step1/bn"
  param {
    lr_mult: 0
    decay_mult: 0
  }
}
layer {
  name: "hourglass_1/fconv_A_1to7_step2"
  type: "Convolution"
  bottom: "hourglass_1/fconv_A_1to7_step1/bn"
  top: "hourglass_1/fconv_A_1to7_step2"
  param {
    lr_mult: 0
    decay_mult: 1
  }
  convolution_param {
    num_output: 16
    bias_term: false
    pad: 3
    kernel_size: 7
    stride: 1
    weight_filler {
      type: "constant"
    }
  }
}
layer {
  name: "hourglass_1/fconv_A_1to9_step1"
  type: "Convolution"
  bottom: "hourglass_1/fconv_A_1+/bn"
  top: "hourglass_1/fconv_A_1to9_step1"
  param {
    lr_mult: 0
    decay_mult: 1
  }
  convolution_param {
    num_output: 8
    bias_term: false
    pad: 3
    kernel_size: 7
    stride: 1
    weight_filler {
      type: "constant"
    }
  }
}
layer {
  name: "hourglass_1/fconv_A_1to9_step1/bn_batchmorn"
  type: "BatchNorm"
  bottom: "hourglass_1/fconv_A_1to9_step1"
  top: "hourglass_1/fconv_A_1to9_step1tmp"
}
layer {
  name: "hourglass_1/fconv_A_1to9_step1/bn_scale"
  type: "Scale"
  bottom: "hourglass_1/fconv_A_1to9_step1tmp"
  top: "hourglass_1/fconv_A_1to9_step1/bn"
  scale_param {
    bias_term: true
  }
}
layer {
  name: "hourglass_1/fconv_A_1to9_step1/bn/relu"
  type: "PReLU"
  bottom: "hourglass_1/fconv_A_1to9_step1/bn"
  top: "hourglass_1/fconv_A_1to9_step1/bn"
  param {
    lr_mult: 0
    decay_mult: 0
  }
}
layer {
  name: "hourglass_1/fconv_A_1to9_step2"
  type: "Convolution"
  bottom: "hourglass_1/fconv_A_1to9_step1/bn"
  top: "hourglass_1/fconv_A_1to9_step2"
  param {
    lr_mult: 0
    decay_mult: 1
  }
  convolution_param {
    num_output: 16
    bias_term: false
    pad: 3
    kernel_size: 7
    stride: 1
    weight_filler {
      type: "constant"
    }
  }
}
layer {
  name: "hourglass_1/fconv_A_1to2_step1"
  type: "Convolution"
  bottom: "hourglass_1/fconv_A_1+/bn"
  top: "hourglass_1/fconv_A_1to2_step1"
  param {
    lr_mult: 0
    decay_mult: 1
  }
  convolution_param {
    num_output: 8
    bias_term: false
    pad: 3
    kernel_size: 7
    stride: 1
    weight_filler {
      type: "constant"
    }
  }
}
layer {
  name: "hourglass_1/fconv_A_1to2_step1/bn_batchmorn"
  type: "BatchNorm"
  bottom: "hourglass_1/fconv_A_1to2_step1"
  top: "hourglass_1/fconv_A_1to2_step1tmp"
}
layer {
  name: "hourglass_1/fconv_A_1to2_step1/bn_scale"
  type: "Scale"
  bottom: "hourglass_1/fconv_A_1to2_step1tmp"
  top: "hourglass_1/fconv_A_1to2_step1/bn"
  scale_param {
    bias_term: true
  }
}
layer {
  name: "hourglass_1/fconv_A_1to2_step1/bn/relu"
  type: "PReLU"
  bottom: "hourglass_1/fconv_A_1to2_step1/bn"
  top: "hourglass_1/fconv_A_1to2_step1/bn"
  param {
    lr_mult: 0
    decay_mult: 0
  }
}
layer {
  name: "hourglass_1/fconv_A_1to2_step2"
  type: "Convolution"
  bottom: "hourglass_1/fconv_A_1to2_step1/bn"
  top: "hourglass_1/fconv_A_1to2_step2"
  param {
    lr_mult: 0
    decay_mult: 1
  }
  convolution_param {
    num_output: 16
    bias_term: false
    pad: 3
    kernel_size: 7
    stride: 1
    weight_filler {
      type: "constant"
    }
  }
}
layer {
  name: "hourglass_1/fconv_A_1to3_step1"
  type: "Convolution"
  bottom: "hourglass_1/fconv_A_1+/bn"
  top: "hourglass_1/fconv_A_1to3_step1"
  param {
    lr_mult: 0
    decay_mult: 1
  }
  convolution_param {
    num_output: 8
    bias_term: false
    pad: 3
    kernel_size: 7
    stride: 1
    weight_filler {
      type: "constant"
    }
  }
}
layer {
  name: "hourglass_1/fconv_A_1to3_step1/bn_batchmorn"
  type: "BatchNorm"
  bottom: "hourglass_1/fconv_A_1to3_step1"
  top: "hourglass_1/fconv_A_1to3_step1tmp"
}
layer {
  name: "hourglass_1/fconv_A_1to3_step1/bn_scale"
  type: "Scale"
  bottom: "hourglass_1/fconv_A_1to3_step1tmp"
  top: "hourglass_1/fconv_A_1to3_step1/bn"
  scale_param {
    bias_term: true
  }
}
layer {
  name: "hourglass_1/fconv_A_1to3_step1/bn/relu"
  type: "PReLU"
  bottom: "hourglass_1/fconv_A_1to3_step1/bn"
  top: "hourglass_1/fconv_A_1to3_step1/bn"
  param {
    lr_mult: 0
    decay_mult: 0
  }
}
layer {
  name: "hourglass_1/fconv_A_1to3_step2"
  type: "Convolution"
  bottom: "hourglass_1/fconv_A_1to3_step1/bn"
  top: "hourglass_1/fconv_A_1to3_step2"
  param {
    lr_mult: 0
    decay_mult: 1
  }
  convolution_param {
    num_output: 16
    bias_term: false
    pad: 3
    kernel_size: 7
    stride: 1
    weight_filler {
      type: "constant"
    }
  }
}
layer {
  name: "hourglass_1/fconv_A_hg1_1tohg2_1_step1"
  type: "Convolution"
  bottom: "hourglass_1/fconv_A_1+/bn"
  top: "hourglass_1/fconv_A_hg1_1tohg2_1_step1"
  param {
    lr_mult: 0
    decay_mult: 1
  }
  convolution_param {
    num_output: 8
    bias_term: false
    pad: 3
    kernel_size: 7
    stride: 1
    weight_filler {
      type: "constant"
    }
  }
}
layer {
  name: "hourglass_1/fconv_A_hg1_1tohg2_1_step1/bn_batchmorn"
  type: "BatchNorm"
  bottom: "hourglass_1/fconv_A_hg1_1tohg2_1_step1"
  top: "hourglass_1/fconv_A_hg1_1tohg2_1_step1tmp"
}
layer {
  name: "hourglass_1/fconv_A_hg1_1tohg2_1_step1/bn_scale"
  type: "Scale"
  bottom: "hourglass_1/fconv_A_hg1_1tohg2_1_step1tmp"
  top: "hourglass_1/fconv_A_hg1_1tohg2_1_step1/bn"
  scale_param {
    bias_term: true
  }
}
layer {
  name: "hourglass_1/fconv_A_hg1_1tohg2_1_step1/bn/relu"
  type: "PReLU"
  bottom: "hourglass_1/fconv_A_hg1_1tohg2_1_step1/bn"
  top: "hourglass_1/fconv_A_hg1_1tohg2_1_step1/bn"
  param {
    lr_mult: 0
    decay_mult: 0
  }
}
layer {
  name: "hourglass_1/fconv_A_hg1_1tohg2_1_step2"
  type: "Convolution"
  bottom: "hourglass_1/fconv_A_hg1_1tohg2_1_step1/bn"
  top: "hourglass_1/fconv_A_hg1_1tohg2_1_step2"
  param {
    lr_mult: 0
    decay_mult: 1
  }
  convolution_param {
    num_output: 16
    bias_term: false
    pad: 3
    kernel_size: 7
    stride: 1
    weight_filler {
      type: "constant"
    }
  }
}
layer {
  name: "hourglass_1/fconv_A_13"
  type: "Convolution"
  bottom: "hourglass_1/post/linear_1"
  top: "hourglass_1/fconv_A_13"
  param {
    lr_mult: 0
    decay_mult: 1
  }
  convolution_param {
    num_output: 16
    bias_term: false
    pad: 0
    kernel_size: 1
    stride: 1
    weight_filler {
      type: "constant"
    }
  }
}
layer {
  name: "hourglass_1/Pass_1to13"
  type: "Eltwise"
  bottom: "hourglass_1/fconv_A_1to13_step2"
  bottom: "hourglass_1/fconv_A_13"
  top: "hourglass_1/fconv_A_13+"
}
layer {
  name: "hourglass_1/fconv_A_13+/bn_batchmorn"
  type: "BatchNorm"
  bottom: "hourglass_1/fconv_A_13+"
  top: "hourglass_1/fconv_A_13+tmp"
}
layer {
  name: "hourglass_1/fconv_A_13+/bn_scale"
  type: "Scale"
  bottom: "hourglass_1/fconv_A_13+tmp"
  top: "hourglass_1/fconv_A_13+/bn"
  scale_param {
    bias_term: true
  }
}
layer {
  name: "hourglass_1/relu_A_13"
  type: "PReLU"
  bottom: "hourglass_1/fconv_A_13+/bn"
  top: "hourglass_1/fconv_A_13+/bn"
  param {
    lr_mult: 0
    decay_mult: 0
  }
}
layer {
  name: "hourglass_1/fconv_A_13to12_step1"
  type: "Convolution"
  bottom: "hourglass_1/fconv_A_13+/bn"
  top: "hourglass_1/fconv_A_13to12_step1"
  param {
    lr_mult: 0
    decay_mult: 1
  }
  convolution_param {
    num_output: 8
    bias_term: false
    pad: 3
    kernel_size: 7
    stride: 1
    weight_filler {
      type: "constant"
    }
  }
}
layer {
  name: "hourglass_1/fconv_A_13to12_step1/bn_batchmorn"
  type: "BatchNorm"
  bottom: "hourglass_1/fconv_A_13to12_step1"
  top: "hourglass_1/fconv_A_13to12_step1tmp"
}
layer {
  name: "hourglass_1/fconv_A_13to12_step1/bn_scale"
  type: "Scale"
  bottom: "hourglass_1/fconv_A_13to12_step1tmp"
  top: "hourglass_1/fconv_A_13to12_step1/bn"
  scale_param {
    bias_term: true
  }
}
layer {
  name: "hourglass_1/fconv_A_13to12_step1/bn/relu"
  type: "PReLU"
  bottom: "hourglass_1/fconv_A_13to12_step1/bn"
  top: "hourglass_1/fconv_A_13to12_step1/bn"
  param {
    lr_mult: 0
    decay_mult: 0
  }
}
layer {
  name: "hourglass_1/fconv_A_13to12_step2"
  type: "Convolution"
  bottom: "hourglass_1/fconv_A_13to12_step1/bn"
  top: "hourglass_1/fconv_A_13to12_step2"
  param {
    lr_mult: 0
    decay_mult: 1
  }
  convolution_param {
    num_output: 16
    bias_term: false
    pad: 3
    kernel_size: 7
    stride: 1
    weight_filler {
      type: "constant"
    }
  }
}
layer {
  name: "hourglass_1/fconv_A_hg1_13tohg2_13_step1"
  type: "Convolution"
  bottom: "hourglass_1/fconv_A_13+/bn"
  top: "hourglass_1/fconv_A_hg1_13tohg2_13_step1"
  param {
    lr_mult: 0
    decay_mult: 1
  }
  convolution_param {
    num_output: 8
    bias_term: false
    pad: 3
    kernel_size: 7
    stride: 1
    weight_filler {
      type: "constant"
    }
  }
}
layer {
  name: "hourglass_1/fconv_A_hg1_13tohg2_13_step1/bn_batchmorn"
  type: "BatchNorm"
  bottom: "hourglass_1/fconv_A_hg1_13tohg2_13_step1"
  top: "hourglass_1/fconv_A_hg1_13tohg2_13_step1tmp"
}
layer {
  name: "hourglass_1/fconv_A_hg1_13tohg2_13_step1/bn_scale"
  type: "Scale"
  bottom: "hourglass_1/fconv_A_hg1_13tohg2_13_step1tmp"
  top: "hourglass_1/fconv_A_hg1_13tohg2_13_step1/bn"
  scale_param {
    bias_term: true
  }
}
layer {
  name: "hourglass_1/fconv_A_hg1_13tohg2_13_step1/bn/relu"
  type: "PReLU"
  bottom: "hourglass_1/fconv_A_hg1_13tohg2_13_step1/bn"
  top: "hourglass_1/fconv_A_hg1_13tohg2_13_step1/bn"
  param {
    lr_mult: 0
    decay_mult: 0
  }
}
layer {
  name: "hourglass_1/fconv_A_hg1_13tohg2_13_step2"
  type: "Convolution"
  bottom: "hourglass_1/fconv_A_hg1_13tohg2_13_step1/bn"
  top: "hourglass_1/fconv_A_hg1_13tohg2_13_step2"
  param {
    lr_mult: 0
    decay_mult: 1
  }
  convolution_param {
    num_output: 16
    bias_term: false
    pad: 3
    kernel_size: 7
    stride: 1
    weight_filler {
      type: "constant"
    }
  }
}
layer {
  name: "hourglass_1/fconv_A_12"
  type: "Convolution"
  bottom: "hourglass_1/post/linear_1"
  top: "hourglass_1/fconv_A_12"
  param {
    lr_mult: 0
    decay_mult: 1
  }
  convolution_param {
    num_output: 16
    bias_term: false
    pad: 0
    kernel_size: 1
    stride: 1
    weight_filler {
      type: "constant"
    }
  }
}
layer {
  name: "hourglass_1/Pass_13to12"
  type: "Eltwise"
  bottom: "hourglass_1/fconv_A_13to12_step2"
  bottom: "hourglass_1/fconv_A_12"
  top: "hourglass_1/fconv_A_12+"
}
layer {
  name: "hourglass_1/fconv_A_12+/bn_batchmorn"
  type: "BatchNorm"
  bottom: "hourglass_1/fconv_A_12+"
  top: "hourglass_1/fconv_A_12+tmp"
}
layer {
  name: "hourglass_1/fconv_A_12+/bn_scale"
  type: "Scale"
  bottom: "hourglass_1/fconv_A_12+tmp"
  top: "hourglass_1/fconv_A_12+/bn"
  scale_param {
    bias_term: true
  }
}
layer {
  name: "hourglass_1/relu_A_12"
  type: "PReLU"
  bottom: "hourglass_1/fconv_A_12+/bn"
  top: "hourglass_1/fconv_A_12+/bn"
  param {
    lr_mult: 0
    decay_mult: 0
  }
}
layer {
  name: "hourglass_1/fconv_A_12to11_step1"
  type: "Convolution"
  bottom: "hourglass_1/fconv_A_12+/bn"
  top: "hourglass_1/fconv_A_12to11_step1"
  param {
    lr_mult: 0
    decay_mult: 1
  }
  convolution_param {
    num_output: 8
    bias_term: false
    pad: 3
    kernel_size: 7
    stride: 1
    weight_filler {
      type: "constant"
    }
  }
}
layer {
  name: "hourglass_1/fconv_A_12to11_step1/bn_batchmorn"
  type: "BatchNorm"
  bottom: "hourglass_1/fconv_A_12to11_step1"
  top: "hourglass_1/fconv_A_12to11_step1tmp"
}
layer {
  name: "hourglass_1/fconv_A_12to11_step1/bn_scale"
  type: "Scale"
  bottom: "hourglass_1/fconv_A_12to11_step1tmp"
  top: "hourglass_1/fconv_A_12to11_step1/bn"
  scale_param {
    bias_term: true
  }
}
layer {
  name: "hourglass_1/fconv_A_12to11_step1/bn/relu"
  type: "PReLU"
  bottom: "hourglass_1/fconv_A_12to11_step1/bn"
  top: "hourglass_1/fconv_A_12to11_step1/bn"
  param {
    lr_mult: 0
    decay_mult: 0
  }
}
layer {
  name: "hourglass_1/fconv_A_12to11_step2"
  type: "Convolution"
  bottom: "hourglass_1/fconv_A_12to11_step1/bn"
  top: "hourglass_1/fconv_A_12to11_step2"
  param {
    lr_mult: 0
    decay_mult: 1
  }
  convolution_param {
    num_output: 16
    bias_term: false
    pad: 3
    kernel_size: 7
    stride: 1
    weight_filler {
      type: "constant"
    }
  }
}
layer {
  name: "hourglass_1/fconv_A_hg1_12tohg2_12_step1"
  type: "Convolution"
  bottom: "hourglass_1/fconv_A_12+/bn"
  top: "hourglass_1/fconv_A_hg1_12tohg2_12_step1"
  param {
    lr_mult: 0
    decay_mult: 1
  }
  convolution_param {
    num_output: 8
    bias_term: false
    pad: 3
    kernel_size: 7
    stride: 1
    weight_filler {
      type: "constant"
    }
  }
}
layer {
  name: "hourglass_1/fconv_A_hg1_12tohg2_12_step1/bn_batchmorn"
  type: "BatchNorm"
  bottom: "hourglass_1/fconv_A_hg1_12tohg2_12_step1"
  top: "hourglass_1/fconv_A_hg1_12tohg2_12_step1tmp"
}
layer {
  name: "hourglass_1/fconv_A_hg1_12tohg2_12_step1/bn_scale"
  type: "Scale"
  bottom: "hourglass_1/fconv_A_hg1_12tohg2_12_step1tmp"
  top: "hourglass_1/fconv_A_hg1_12tohg2_12_step1/bn"
  scale_param {
    bias_term: true
  }
}
layer {
  name: "hourglass_1/fconv_A_hg1_12tohg2_12_step1/bn/relu"
  type: "PReLU"
  bottom: "hourglass_1/fconv_A_hg1_12tohg2_12_step1/bn"
  top: "hourglass_1/fconv_A_hg1_12tohg2_12_step1/bn"
  param {
    lr_mult: 0
    decay_mult: 0
  }
}
layer {
  name: "hourglass_1/fconv_A_hg1_12tohg2_12_step2"
  type: "Convolution"
  bottom: "hourglass_1/fconv_A_hg1_12tohg2_12_step1/bn"
  top: "hourglass_1/fconv_A_hg1_12tohg2_12_step2"
  param {
    lr_mult: 0
    decay_mult: 1
  }
  convolution_param {
    num_output: 16
    bias_term: false
    pad: 3
    kernel_size: 7
    stride: 1
    weight_filler {
      type: "constant"
    }
  }
}
layer {
  name: "hourglass_1/fconv_A_11"
  type: "Convolution"
  bottom: "hourglass_1/post/linear_1"
  top: "hourglass_1/fconv_A_11"
  param {
    lr_mult: 0
    decay_mult: 1
  }
  convolution_param {
    num_output: 16
    bias_term: false
    pad: 0
    kernel_size: 1
    stride: 1
    weight_filler {
      type: "constant"
    }
  }
}
layer {
  name: "hourglass_1/Pass_12to11"
  type: "Eltwise"
  bottom: "hourglass_1/fconv_A_12to11_step2"
  bottom: "hourglass_1/fconv_A_11"
  top: "hourglass_1/fconv_A_11+"
}
layer {
  name: "hourglass_1/fconv_A_11+/bn_batchmorn"
  type: "BatchNorm"
  bottom: "hourglass_1/fconv_A_11+"
  top: "hourglass_1/fconv_A_11+tmp"
}
layer {
  name: "hourglass_1/fconv_A_11+/bn_scale"
  type: "Scale"
  bottom: "hourglass_1/fconv_A_11+tmp"
  top: "hourglass_1/fconv_A_11+/bn"
  scale_param {
    bias_term: true
  }
}
layer {
  name: "hourglass_1/relu_A_11"
  type: "PReLU"
  bottom: "hourglass_1/fconv_A_11+/bn"
  top: "hourglass_1/fconv_A_11+/bn"
  param {
    lr_mult: 0
    decay_mult: 0
  }
}
layer {
  name: "hourglass_1/fconv_A_11to10_step1"
  type: "Convolution"
  bottom: "hourglass_1/fconv_A_11+/bn"
  top: "hourglass_1/fconv_A_11to10_step1"
  param {
    lr_mult: 0
    decay_mult: 1
  }
  convolution_param {
    num_output: 8
    bias_term: false
    pad: 3
    kernel_size: 7
    stride: 1
    weight_filler {
      type: "constant"
    }
  }
}
layer {
  name: "hourglass_1/fconv_A_11to10_step1/bn_batchmorn"
  type: "BatchNorm"
  bottom: "hourglass_1/fconv_A_11to10_step1"
  top: "hourglass_1/fconv_A_11to10_step1tmp"
}
layer {
  name: "hourglass_1/fconv_A_11to10_step1/bn_scale"
  type: "Scale"
  bottom: "hourglass_1/fconv_A_11to10_step1tmp"
  top: "hourglass_1/fconv_A_11to10_step1/bn"
  scale_param {
    bias_term: true
  }
}
layer {
  name: "hourglass_1/fconv_A_11to10_step1/bn/relu"
  type: "PReLU"
  bottom: "hourglass_1/fconv_A_11to10_step1/bn"
  top: "hourglass_1/fconv_A_11to10_step1/bn"
  param {
    lr_mult: 0
    decay_mult: 0
  }
}
layer {
  name: "hourglass_1/fconv_A_11to10_step2"
  type: "Convolution"
  bottom: "hourglass_1/fconv_A_11to10_step1/bn"
  top: "hourglass_1/fconv_A_11to10_step2"
  param {
    lr_mult: 0
    decay_mult: 1
  }
  convolution_param {
    num_output: 16
    bias_term: false
    pad: 3
    kernel_size: 7
    stride: 1
    weight_filler {
      type: "constant"
    }
  }
}
layer {
  name: "hourglass_1/fconv_A_hg1_11tohg2_11_step1"
  type: "Convolution"
  bottom: "hourglass_1/fconv_A_11+/bn"
  top: "hourglass_1/fconv_A_hg1_11tohg2_11_step1"
  param {
    lr_mult: 0
    decay_mult: 1
  }
  convolution_param {
    num_output: 8
    bias_term: false
    pad: 3
    kernel_size: 7
    stride: 1
    weight_filler {
      type: "constant"
    }
  }
}
layer {
  name: "hourglass_1/fconv_A_hg1_11tohg2_11_step1/bn_batchmorn"
  type: "BatchNorm"
  bottom: "hourglass_1/fconv_A_hg1_11tohg2_11_step1"
  top: "hourglass_1/fconv_A_hg1_11tohg2_11_step1tmp"
}
layer {
  name: "hourglass_1/fconv_A_hg1_11tohg2_11_step1/bn_scale"
  type: "Scale"
  bottom: "hourglass_1/fconv_A_hg1_11tohg2_11_step1tmp"
  top: "hourglass_1/fconv_A_hg1_11tohg2_11_step1/bn"
  scale_param {
    bias_term: true
  }
}
layer {
  name: "hourglass_1/fconv_A_hg1_11tohg2_11_step1/bn/relu"
  type: "PReLU"
  bottom: "hourglass_1/fconv_A_hg1_11tohg2_11_step1/bn"
  top: "hourglass_1/fconv_A_hg1_11tohg2_11_step1/bn"
  param {
    lr_mult: 0
    decay_mult: 0
  }
}
layer {
  name: "hourglass_1/fconv_A_hg1_11tohg2_11_step2"
  type: "Convolution"
  bottom: "hourglass_1/fconv_A_hg1_11tohg2_11_step1/bn"
  top: "hourglass_1/fconv_A_hg1_11tohg2_11_step2"
  param {
    lr_mult: 0
    decay_mult: 1
  }
  convolution_param {
    num_output: 16
    bias_term: false
    pad: 3
    kernel_size: 7
    stride: 1
    weight_filler {
      type: "constant"
    }
  }
}
layer {
  name: "hourglass_1/fconv_A_10"
  type: "Convolution"
  bottom: "hourglass_1/post/linear_1"
  top: "hourglass_1/fconv_A_10"
  param {
    lr_mult: 0
    decay_mult: 1
  }
  convolution_param {
    num_output: 16
    bias_term: false
    pad: 0
    kernel_size: 1
    stride: 1
    weight_filler {
      type: "constant"
    }
  }
}
layer {
  name: "hourglass_1/Pass_11to10"
  type: "Eltwise"
  bottom: "hourglass_1/fconv_A_11to10_step2"
  bottom: "hourglass_1/fconv_A_10"
  top: "hourglass_1/fconv_A_10+"
}
layer {
  name: "hourglass_1/fconv_A_10+/bn_batchmorn"
  type: "BatchNorm"
  bottom: "hourglass_1/fconv_A_10+"
  top: "hourglass_1/fconv_A_10+tmp"
}
layer {
  name: "hourglass_1/fconv_A_10+/bn_scale"
  type: "Scale"
  bottom: "hourglass_1/fconv_A_10+tmp"
  top: "hourglass_1/fconv_A_10+/bn"
  scale_param {
    bias_term: true
  }
}
layer {
  name: "hourglass_1/relu_A_10"
  type: "PReLU"
  bottom: "hourglass_1/fconv_A_10+/bn"
  top: "hourglass_1/fconv_A_10+/bn"
  param {
    lr_mult: 0
    decay_mult: 0
  }
}
layer {
  name: "hourglass_1/fconv_A_10to5_step1"
  type: "Convolution"
  bottom: "hourglass_1/fconv_A_10+/bn"
  top: "hourglass_1/fconv_A_10to5_step1"
  param {
    lr_mult: 0
    decay_mult: 1
  }
  convolution_param {
    num_output: 8
    bias_term: false
    pad: 3
    kernel_size: 7
    stride: 1
    weight_filler {
      type: "constant"
    }
  }
}
layer {
  name: "hourglass_1/fconv_A_10to5_step1/bn_batchmorn"
  type: "BatchNorm"
  bottom: "hourglass_1/fconv_A_10to5_step1"
  top: "hourglass_1/fconv_A_10to5_step1tmp"
}
layer {
  name: "hourglass_1/fconv_A_10to5_step1/bn_scale"
  type: "Scale"
  bottom: "hourglass_1/fconv_A_10to5_step1tmp"
  top: "hourglass_1/fconv_A_10to5_step1/bn"
  scale_param {
    bias_term: true
  }
}
layer {
  name: "hourglass_1/fconv_A_10to5_step1/bn/relu"
  type: "PReLU"
  bottom: "hourglass_1/fconv_A_10to5_step1/bn"
  top: "hourglass_1/fconv_A_10to5_step1/bn"
  param {
    lr_mult: 0
    decay_mult: 0
  }
}
layer {
  name: "hourglass_1/fconv_A_10to5_step2"
  type: "Convolution"
  bottom: "hourglass_1/fconv_A_10to5_step1/bn"
  top: "hourglass_1/fconv_A_10to5_step2"
  param {
    lr_mult: 0
    decay_mult: 1
  }
  convolution_param {
    num_output: 16
    bias_term: false
    pad: 3
    kernel_size: 7
    stride: 1
    weight_filler {
      type: "constant"
    }
  }
}
layer {
  name: "hourglass_1/fconv_A_hg1_10tohg2_10_step1"
  type: "Convolution"
  bottom: "hourglass_1/fconv_A_10+/bn"
  top: "hourglass_1/fconv_A_hg1_10tohg2_10_step1"
  param {
    lr_mult: 0
    decay_mult: 1
  }
  convolution_param {
    num_output: 8
    bias_term: false
    pad: 3
    kernel_size: 7
    stride: 1
    weight_filler {
      type: "constant"
    }
  }
}
layer {
  name: "hourglass_1/fconv_A_hg1_10tohg2_10_step1/bn_batchmorn"
  type: "BatchNorm"
  bottom: "hourglass_1/fconv_A_hg1_10tohg2_10_step1"
  top: "hourglass_1/fconv_A_hg1_10tohg2_10_step1tmp"
}
layer {
  name: "hourglass_1/fconv_A_hg1_10tohg2_10_step1/bn_scale"
  type: "Scale"
  bottom: "hourglass_1/fconv_A_hg1_10tohg2_10_step1tmp"
  top: "hourglass_1/fconv_A_hg1_10tohg2_10_step1/bn"
  scale_param {
    bias_term: true
  }
}
layer {
  name: "hourglass_1/fconv_A_hg1_10tohg2_10_step1/bn/relu"
  type: "PReLU"
  bottom: "hourglass_1/fconv_A_hg1_10tohg2_10_step1/bn"
  top: "hourglass_1/fconv_A_hg1_10tohg2_10_step1/bn"
  param {
    lr_mult: 0
    decay_mult: 0
  }
}
layer {
  name: "hourglass_1/fconv_A_hg1_10tohg2_10_step2"
  type: "Convolution"
  bottom: "hourglass_1/fconv_A_hg1_10tohg2_10_step1/bn"
  top: "hourglass_1/fconv_A_hg1_10tohg2_10_step2"
  param {
    lr_mult: 0
    decay_mult: 1
  }
  convolution_param {
    num_output: 16
    bias_term: false
    pad: 3
    kernel_size: 7
    stride: 1
    weight_filler {
      type: "constant"
    }
  }
}
layer {
  name: "hourglass_1/fconv_A_5"
  type: "Convolution"
  bottom: "hourglass_1/post/linear_1"
  top: "hourglass_1/fconv_A_5"
  param {
    lr_mult: 0
    decay_mult: 1
  }
  convolution_param {
    num_output: 16
    bias_term: false
    pad: 0
    kernel_size: 1
    stride: 1
    weight_filler {
      type: "constant"
    }
  }
}
layer {
  name: "hourglass_1/Pass_10to5"
  type: "Eltwise"
  bottom: "hourglass_1/fconv_A_10to5_step2"
  bottom: "hourglass_1/fconv_A_5"
  top: "hourglass_1/fconv_A_5+"
}
layer {
  name: "hourglass_1/fconv_A_5+/bn_batchmorn"
  type: "BatchNorm"
  bottom: "hourglass_1/fconv_A_5+"
  top: "hourglass_1/fconv_A_5+tmp"
}
layer {
  name: "hourglass_1/fconv_A_5+/bn_scale"
  type: "Scale"
  bottom: "hourglass_1/fconv_A_5+tmp"
  top: "hourglass_1/fconv_A_5+/bn"
  scale_param {
    bias_term: true
  }
}
layer {
  name: "hourglass_1/relu_A_5"
  type: "PReLU"
  bottom: "hourglass_1/fconv_A_5+/bn"
  top: "hourglass_1/fconv_A_5+/bn"
  param {
    lr_mult: 0
    decay_mult: 0
  }
}
layer {
  name: "hourglass_1/fconv_A_5to4_step1"
  type: "Convolution"
  bottom: "hourglass_1/fconv_A_5+/bn"
  top: "hourglass_1/fconv_A_5to4_step1"
  param {
    lr_mult: 0
    decay_mult: 1
  }
  convolution_param {
    num_output: 8
    bias_term: false
    pad: 3
    kernel_size: 7
    stride: 1
    weight_filler {
      type: "constant"
    }
  }
}
layer {
  name: "hourglass_1/fconv_A_5to4_step1/bn_batchmorn"
  type: "BatchNorm"
  bottom: "hourglass_1/fconv_A_5to4_step1"
  top: "hourglass_1/fconv_A_5to4_step1tmp"
}
layer {
  name: "hourglass_1/fconv_A_5to4_step1/bn_scale"
  type: "Scale"
  bottom: "hourglass_1/fconv_A_5to4_step1tmp"
  top: "hourglass_1/fconv_A_5to4_step1/bn"
  scale_param {
    bias_term: true
  }
}
layer {
  name: "hourglass_1/fconv_A_5to4_step1/bn/relu"
  type: "PReLU"
  bottom: "hourglass_1/fconv_A_5to4_step1/bn"
  top: "hourglass_1/fconv_A_5to4_step1/bn"
  param {
    lr_mult: 0
    decay_mult: 0
  }
}
layer {
  name: "hourglass_1/fconv_A_5to4_step2"
  type: "Convolution"
  bottom: "hourglass_1/fconv_A_5to4_step1/bn"
  top: "hourglass_1/fconv_A_5to4_step2"
  param {
    lr_mult: 0
    decay_mult: 1
  }
  convolution_param {
    num_output: 16
    bias_term: false
    pad: 3
    kernel_size: 7
    stride: 1
    weight_filler {
      type: "constant"
    }
  }
}
layer {
  name: "hourglass_1/fconv_A_hg1_5tohg2_5_step1"
  type: "Convolution"
  bottom: "hourglass_1/fconv_A_5+/bn"
  top: "hourglass_1/fconv_A_hg1_5tohg2_5_step1"
  param {
    lr_mult: 0
    decay_mult: 1
  }
  convolution_param {
    num_output: 8
    bias_term: false
    pad: 3
    kernel_size: 7
    stride: 1
    weight_filler {
      type: "constant"
    }
  }
}
layer {
  name: "hourglass_1/fconv_A_hg1_5tohg2_5_step1/bn_batchmorn"
  type: "BatchNorm"
  bottom: "hourglass_1/fconv_A_hg1_5tohg2_5_step1"
  top: "hourglass_1/fconv_A_hg1_5tohg2_5_step1tmp"
}
layer {
  name: "hourglass_1/fconv_A_hg1_5tohg2_5_step1/bn_scale"
  type: "Scale"
  bottom: "hourglass_1/fconv_A_hg1_5tohg2_5_step1tmp"
  top: "hourglass_1/fconv_A_hg1_5tohg2_5_step1/bn"
  scale_param {
    bias_term: true
  }
}
layer {
  name: "hourglass_1/fconv_A_hg1_5tohg2_5_step1/bn/relu"
  type: "PReLU"
  bottom: "hourglass_1/fconv_A_hg1_5tohg2_5_step1/bn"
  top: "hourglass_1/fconv_A_hg1_5tohg2_5_step1/bn"
  param {
    lr_mult: 0
    decay_mult: 0
  }
}
layer {
  name: "hourglass_1/fconv_A_hg1_5tohg2_5_step2"
  type: "Convolution"
  bottom: "hourglass_1/fconv_A_hg1_5tohg2_5_step1/bn"
  top: "hourglass_1/fconv_A_hg1_5tohg2_5_step2"
  param {
    lr_mult: 0
    decay_mult: 1
  }
  convolution_param {
    num_output: 16
    bias_term: false
    pad: 3
    kernel_size: 7
    stride: 1
    weight_filler {
      type: "constant"
    }
  }
}
layer {
  name: "hourglass_1/fconv_A_4"
  type: "Convolution"
  bottom: "hourglass_1/post/linear_1"
  top: "hourglass_1/fconv_A_4"
  param {
    lr_mult: 0
    decay_mult: 1
  }
  convolution_param {
    num_output: 16
    bias_term: false
    pad: 0
    kernel_size: 1
    stride: 1
    weight_filler {
      type: "constant"
    }
  }
}
layer {
  name: "hourglass_1/Pass_5to4"
  type: "Eltwise"
  bottom: "hourglass_1/fconv_A_5to4_step2"
  bottom: "hourglass_1/fconv_A_4"
  top: "hourglass_1/fconv_A_4+"
}
layer {
  name: "hourglass_1/fconv_A_4+/bn_batchmorn"
  type: "BatchNorm"
  bottom: "hourglass_1/fconv_A_4+"
  top: "hourglass_1/fconv_A_4+tmp"
}
layer {
  name: "hourglass_1/fconv_A_4+/bn_scale"
  type: "Scale"
  bottom: "hourglass_1/fconv_A_4+tmp"
  top: "hourglass_1/fconv_A_4+/bn"
  scale_param {
    bias_term: true
  }
}
layer {
  name: "hourglass_1/relu_A_4"
  type: "PReLU"
  bottom: "hourglass_1/fconv_A_4+/bn"
  top: "hourglass_1/fconv_A_4+/bn"
  param {
    lr_mult: 0
    decay_mult: 0
  }
}
layer {
  name: "hourglass_1/fconv_A_4to7_step1"
  type: "Convolution"
  bottom: "hourglass_1/fconv_A_4+/bn"
  top: "hourglass_1/fconv_A_4to7_step1"
  param {
    lr_mult: 0
    decay_mult: 1
  }
  convolution_param {
    num_output: 8
    bias_term: false
    pad: 3
    kernel_size: 7
    stride: 1
    weight_filler {
      type: "constant"
    }
  }
}
layer {
  name: "hourglass_1/fconv_A_4to7_step1/bn_batchmorn"
  type: "BatchNorm"
  bottom: "hourglass_1/fconv_A_4to7_step1"
  top: "hourglass_1/fconv_A_4to7_step1tmp"
}
layer {
  name: "hourglass_1/fconv_A_4to7_step1/bn_scale"
  type: "Scale"
  bottom: "hourglass_1/fconv_A_4to7_step1tmp"
  top: "hourglass_1/fconv_A_4to7_step1/bn"
  scale_param {
    bias_term: true
  }
}
layer {
  name: "hourglass_1/fconv_A_4to7_step1/bn/relu"
  type: "PReLU"
  bottom: "hourglass_1/fconv_A_4to7_step1/bn"
  top: "hourglass_1/fconv_A_4to7_step1/bn"
  param {
    lr_mult: 0
    decay_mult: 0
  }
}
layer {
  name: "hourglass_1/fconv_A_4to7_step2"
  type: "Convolution"
  bottom: "hourglass_1/fconv_A_4to7_step1/bn"
  top: "hourglass_1/fconv_A_4to7_step2"
  param {
    lr_mult: 0
    decay_mult: 1
  }
  convolution_param {
    num_output: 16
    bias_term: false
    pad: 3
    kernel_size: 7
    stride: 1
    weight_filler {
      type: "constant"
    }
  }
}
layer {
  name: "hourglass_1/fconv_A_4to9_step1"
  type: "Convolution"
  bottom: "hourglass_1/fconv_A_4+/bn"
  top: "hourglass_1/fconv_A_4to9_step1"
  param {
    lr_mult: 0
    decay_mult: 1
  }
  convolution_param {
    num_output: 8
    bias_term: false
    pad: 3
    kernel_size: 7
    stride: 1
    weight_filler {
      type: "constant"
    }
  }
}
layer {
  name: "hourglass_1/fconv_A_4to9_step1/bn_batchmorn"
  type: "BatchNorm"
  bottom: "hourglass_1/fconv_A_4to9_step1"
  top: "hourglass_1/fconv_A_4to9_step1tmp"
}
layer {
  name: "hourglass_1/fconv_A_4to9_step1/bn_scale"
  type: "Scale"
  bottom: "hourglass_1/fconv_A_4to9_step1tmp"
  top: "hourglass_1/fconv_A_4to9_step1/bn"
  scale_param {
    bias_term: true
  }
}
layer {
  name: "hourglass_1/fconv_A_4to9_step1/bn/relu"
  type: "PReLU"
  bottom: "hourglass_1/fconv_A_4to9_step1/bn"
  top: "hourglass_1/fconv_A_4to9_step1/bn"
  param {
    lr_mult: 0
    decay_mult: 0
  }
}
layer {
  name: "hourglass_1/fconv_A_4to9_step2"
  type: "Convolution"
  bottom: "hourglass_1/fconv_A_4to9_step1/bn"
  top: "hourglass_1/fconv_A_4to9_step2"
  param {
    lr_mult: 0
    decay_mult: 1
  }
  convolution_param {
    num_output: 16
    bias_term: false
    pad: 3
    kernel_size: 7
    stride: 1
    weight_filler {
      type: "constant"
    }
  }
}
layer {
  name: "hourglass_1/fconv_A_hg1_4tohg2_4_step1"
  type: "Convolution"
  bottom: "hourglass_1/fconv_A_4+/bn"
  top: "hourglass_1/fconv_A_hg1_4tohg2_4_step1"
  param {
    lr_mult: 0
    decay_mult: 1
  }
  convolution_param {
    num_output: 8
    bias_term: false
    pad: 3
    kernel_size: 7
    stride: 1
    weight_filler {
      type: "constant"
    }
  }
}
layer {
  name: "hourglass_1/fconv_A_hg1_4tohg2_4_step1/bn_batchmorn"
  type: "BatchNorm"
  bottom: "hourglass_1/fconv_A_hg1_4tohg2_4_step1"
  top: "hourglass_1/fconv_A_hg1_4tohg2_4_step1tmp"
}
layer {
  name: "hourglass_1/fconv_A_hg1_4tohg2_4_step1/bn_scale"
  type: "Scale"
  bottom: "hourglass_1/fconv_A_hg1_4tohg2_4_step1tmp"
  top: "hourglass_1/fconv_A_hg1_4tohg2_4_step1/bn"
  scale_param {
    bias_term: true
  }
}
layer {
  name: "hourglass_1/fconv_A_hg1_4tohg2_4_step1/bn/relu"
  type: "PReLU"
  bottom: "hourglass_1/fconv_A_hg1_4tohg2_4_step1/bn"
  top: "hourglass_1/fconv_A_hg1_4tohg2_4_step1/bn"
  param {
    lr_mult: 0
    decay_mult: 0
  }
}
layer {
  name: "hourglass_1/fconv_A_hg1_4tohg2_4_step2"
  type: "Convolution"
  bottom: "hourglass_1/fconv_A_hg1_4tohg2_4_step1/bn"
  top: "hourglass_1/fconv_A_hg1_4tohg2_4_step2"
  param {
    lr_mult: 0
    decay_mult: 1
  }
  convolution_param {
    num_output: 16
    bias_term: false
    pad: 3
    kernel_size: 7
    stride: 1
    weight_filler {
      type: "constant"
    }
  }
}
layer {
  name: "hourglass_1/fconv_A_7"
  type: "Convolution"
  bottom: "hourglass_1/post/linear_1"
  top: "hourglass_1/fconv_A_7"
  param {
    lr_mult: 0
    decay_mult: 1
  }
  convolution_param {
    num_output: 16
    bias_term: false
    pad: 0
    kernel_size: 1
    stride: 1
    weight_filler {
      type: "constant"
    }
  }
}
layer {
  name: "hourglass_1/Pass_1+4to7"
  type: "Eltwise"
  bottom: "hourglass_1/fconv_A_1to7_step2"
  bottom: "hourglass_1/fconv_A_4to7_step2"
  bottom: "hourglass_1/fconv_A_7"
  top: "hourglass_1/fconv_A_7+"
}
layer {
  name: "hourglass_1/fconv_A_7+/bn_batchmorn"
  type: "BatchNorm"
  bottom: "hourglass_1/fconv_A_7+"
  top: "hourglass_1/fconv_A_7+tmp"
}
layer {
  name: "hourglass_1/fconv_A_7+/bn_scale"
  type: "Scale"
  bottom: "hourglass_1/fconv_A_7+tmp"
  top: "hourglass_1/fconv_A_7+/bn"
  scale_param {
    bias_term: true
  }
}
layer {
  name: "hourglass_1/relu_A_7"
  type: "PReLU"
  bottom: "hourglass_1/fconv_A_7+/bn"
  top: "hourglass_1/fconv_A_7+/bn"
  param {
    lr_mult: 0
    decay_mult: 0
  }
}
layer {
  name: "hourglass_1/fconv_A_7to6_step1"
  type: "Convolution"
  bottom: "hourglass_1/fconv_A_7+/bn"
  top: "hourglass_1/fconv_A_7to6_step1"
  param {
    lr_mult: 0
    decay_mult: 1
  }
  convolution_param {
    num_output: 8
    bias_term: false
    pad: 3
    kernel_size: 7
    stride: 1
    weight_filler {
      type: "constant"
    }
  }
}
layer {
  name: "hourglass_1/fconv_A_7to6_step1/bn_batchmorn"
  type: "BatchNorm"
  bottom: "hourglass_1/fconv_A_7to6_step1"
  top: "hourglass_1/fconv_A_7to6_step1tmp"
}
layer {
  name: "hourglass_1/fconv_A_7to6_step1/bn_scale"
  type: "Scale"
  bottom: "hourglass_1/fconv_A_7to6_step1tmp"
  top: "hourglass_1/fconv_A_7to6_step1/bn"
  scale_param {
    bias_term: true
  }
}
layer {
  name: "hourglass_1/fconv_A_7to6_step1/bn/relu"
  type: "PReLU"
  bottom: "hourglass_1/fconv_A_7to6_step1/bn"
  top: "hourglass_1/fconv_A_7to6_step1/bn"
  param {
    lr_mult: 0
    decay_mult: 0
  }
}
layer {
  name: "hourglass_1/fconv_A_7to6_step2"
  type: "Convolution"
  bottom: "hourglass_1/fconv_A_7to6_step1/bn"
  top: "hourglass_1/fconv_A_7to6_step2"
  param {
    lr_mult: 0
    decay_mult: 1
  }
  convolution_param {
    num_output: 16
    bias_term: false
    pad: 3
    kernel_size: 7
    stride: 1
    weight_filler {
      type: "constant"
    }
  }
}
layer {
  name: "hourglass_1/fconv_A_hg1_7tohg2_7_step1"
  type: "Convolution"
  bottom: "hourglass_1/fconv_A_7+/bn"
  top: "hourglass_1/fconv_A_hg1_7tohg2_7_step1"
  param {
    lr_mult: 0
    decay_mult: 1
  }
  convolution_param {
    num_output: 8
    bias_term: false
    pad: 3
    kernel_size: 7
    stride: 1
    weight_filler {
      type: "constant"
    }
  }
}
layer {
  name: "hourglass_1/fconv_A_hg1_7tohg2_7_step1/bn_batchmorn"
  type: "BatchNorm"
  bottom: "hourglass_1/fconv_A_hg1_7tohg2_7_step1"
  top: "hourglass_1/fconv_A_hg1_7tohg2_7_step1tmp"
}
layer {
  name: "hourglass_1/fconv_A_hg1_7tohg2_7_step1/bn_scale"
  type: "Scale"
  bottom: "hourglass_1/fconv_A_hg1_7tohg2_7_step1tmp"
  top: "hourglass_1/fconv_A_hg1_7tohg2_7_step1/bn"
  scale_param {
    bias_term: true
  }
}
layer {
  name: "hourglass_1/fconv_A_hg1_7tohg2_7_step1/bn/relu"
  type: "PReLU"
  bottom: "hourglass_1/fconv_A_hg1_7tohg2_7_step1/bn"
  top: "hourglass_1/fconv_A_hg1_7tohg2_7_step1/bn"
  param {
    lr_mult: 0
    decay_mult: 0
  }
}
layer {
  name: "hourglass_1/fconv_A_hg1_7tohg2_7_step2"
  type: "Convolution"
  bottom: "hourglass_1/fconv_A_hg1_7tohg2_7_step1/bn"
  top: "hourglass_1/fconv_A_hg1_7tohg2_7_step2"
  param {
    lr_mult: 0
    decay_mult: 1
  }
  convolution_param {
    num_output: 16
    bias_term: false
    pad: 3
    kernel_size: 7
    stride: 1
    weight_filler {
      type: "constant"
    }
  }
}
layer {
  name: "hourglass_1/fconv_A_9"
  type: "Convolution"
  bottom: "hourglass_1/post/linear_1"
  top: "hourglass_1/fconv_A_9"
  param {
    lr_mult: 0
    decay_mult: 1
  }
  convolution_param {
    num_output: 16
    bias_term: false
    pad: 0
    kernel_size: 1
    stride: 1
    weight_filler {
      type: "constant"
    }
  }
}
layer {
  name: "hourglass_1/Pass_1+4to9"
  type: "Eltwise"
  bottom: "hourglass_1/fconv_A_1to9_step2"
  bottom: "hourglass_1/fconv_A_4to9_step2"
  bottom: "hourglass_1/fconv_A_9"
  top: "hourglass_1/fconv_A_9+"
}
layer {
  name: "hourglass_1/fconv_A_9+/bn_batchmorn"
  type: "BatchNorm"
  bottom: "hourglass_1/fconv_A_9+"
  top: "hourglass_1/fconv_A_9+tmp"
}
layer {
  name: "hourglass_1/fconv_A_9+/bn_scale"
  type: "Scale"
  bottom: "hourglass_1/fconv_A_9+tmp"
  top: "hourglass_1/fconv_A_9+/bn"
  scale_param {
    bias_term: true
  }
}
layer {
  name: "hourglass_1/relu_A_9"
  type: "PReLU"
  bottom: "hourglass_1/fconv_A_9+/bn"
  top: "hourglass_1/fconv_A_9+/bn"
  param {
    lr_mult: 0
    decay_mult: 0
  }
}
layer {
  name: "hourglass_1/fconv_A_9to8_step1"
  type: "Convolution"
  bottom: "hourglass_1/fconv_A_9+/bn"
  top: "hourglass_1/fconv_A_9to8_step1"
  param {
    lr_mult: 0
    decay_mult: 1
  }
  convolution_param {
    num_output: 8
    bias_term: false
    pad: 3
    kernel_size: 7
    stride: 1
    weight_filler {
      type: "constant"
    }
  }
}
layer {
  name: "hourglass_1/fconv_A_9to8_step1/bn_batchmorn"
  type: "BatchNorm"
  bottom: "hourglass_1/fconv_A_9to8_step1"
  top: "hourglass_1/fconv_A_9to8_step1tmp"
}
layer {
  name: "hourglass_1/fconv_A_9to8_step1/bn_scale"
  type: "Scale"
  bottom: "hourglass_1/fconv_A_9to8_step1tmp"
  top: "hourglass_1/fconv_A_9to8_step1/bn"
  scale_param {
    bias_term: true
  }
}
layer {
  name: "hourglass_1/fconv_A_9to8_step1/bn/relu"
  type: "PReLU"
  bottom: "hourglass_1/fconv_A_9to8_step1/bn"
  top: "hourglass_1/fconv_A_9to8_step1/bn"
  param {
    lr_mult: 0
    decay_mult: 0
  }
}
layer {
  name: "hourglass_1/fconv_A_9to8_step2"
  type: "Convolution"
  bottom: "hourglass_1/fconv_A_9to8_step1/bn"
  top: "hourglass_1/fconv_A_9to8_step2"
  param {
    lr_mult: 0
    decay_mult: 1
  }
  convolution_param {
    num_output: 16
    bias_term: false
    pad: 3
    kernel_size: 7
    stride: 1
    weight_filler {
      type: "constant"
    }
  }
}
layer {
  name: "hourglass_1/fconv_A_hg1_9tohg2_9_step1"
  type: "Convolution"
  bottom: "hourglass_1/fconv_A_9+/bn"
  top: "hourglass_1/fconv_A_hg1_9tohg2_9_step1"
  param {
    lr_mult: 0
    decay_mult: 1
  }
  convolution_param {
    num_output: 8
    bias_term: false
    pad: 3
    kernel_size: 7
    stride: 1
    weight_filler {
      type: "constant"
    }
  }
}
layer {
  name: "hourglass_1/fconv_A_hg1_9tohg2_9_step1/bn_batchmorn"
  type: "BatchNorm"
  bottom: "hourglass_1/fconv_A_hg1_9tohg2_9_step1"
  top: "hourglass_1/fconv_A_hg1_9tohg2_9_step1tmp"
}
layer {
  name: "hourglass_1/fconv_A_hg1_9tohg2_9_step1/bn_scale"
  type: "Scale"
  bottom: "hourglass_1/fconv_A_hg1_9tohg2_9_step1tmp"
  top: "hourglass_1/fconv_A_hg1_9tohg2_9_step1/bn"
  scale_param {
    bias_term: true
  }
}
layer {
  name: "hourglass_1/fconv_A_hg1_9tohg2_9_step1/bn/relu"
  type: "PReLU"
  bottom: "hourglass_1/fconv_A_hg1_9tohg2_9_step1/bn"
  top: "hourglass_1/fconv_A_hg1_9tohg2_9_step1/bn"
  param {
    lr_mult: 0
    decay_mult: 0
  }
}
layer {
  name: "hourglass_1/fconv_A_hg1_9tohg2_9_step2"
  type: "Convolution"
  bottom: "hourglass_1/fconv_A_hg1_9tohg2_9_step1/bn"
  top: "hourglass_1/fconv_A_hg1_9tohg2_9_step2"
  param {
    lr_mult: 0
    decay_mult: 1
  }
  convolution_param {
    num_output: 16
    bias_term: false
    pad: 3
    kernel_size: 7
    stride: 1
    weight_filler {
      type: "constant"
    }
  }
}
layer {
  name: "hourglass_1/fconv_A_6"
  type: "Convolution"
  bottom: "hourglass_1/post/linear_1"
  top: "hourglass_1/fconv_A_6"
  param {
    lr_mult: 0
    decay_mult: 1
  }
  convolution_param {
    num_output: 16
    bias_term: false
    pad: 0
    kernel_size: 1
    stride: 1
    weight_filler {
      type: "constant"
    }
  }
}
layer {
  name: "hourglass_1/Pass_7to6"
  type: "Eltwise"
  bottom: "hourglass_1/fconv_A_7to6_step2"
  bottom: "hourglass_1/fconv_A_6"
  top: "hourglass_1/fconv_A_6+"
}
layer {
  name: "hourglass_1/fconv_A_6+/bn_batchmorn"
  type: "BatchNorm"
  bottom: "hourglass_1/fconv_A_6+"
  top: "hourglass_1/fconv_A_6+tmp"
}
layer {
  name: "hourglass_1/fconv_A_6+/bn_scale"
  type: "Scale"
  bottom: "hourglass_1/fconv_A_6+tmp"
  top: "hourglass_1/fconv_A_6+/bn"
  scale_param {
    bias_term: true
  }
}
layer {
  name: "hourglass_1/relu_A_6"
  type: "PReLU"
  bottom: "hourglass_1/fconv_A_6+/bn"
  top: "hourglass_1/fconv_A_6+/bn"
  param {
    lr_mult: 0
    decay_mult: 0
  }
}
layer {
  name: "hourglass_1/fconv_A_6to2_step1"
  type: "Convolution"
  bottom: "hourglass_1/fconv_A_6+/bn"
  top: "hourglass_1/fconv_A_6to2_step1"
  param {
    lr_mult: 0
    decay_mult: 1
  }
  convolution_param {
    num_output: 8
    bias_term: false
    pad: 3
    kernel_size: 7
    stride: 1
    weight_filler {
      type: "constant"
    }
  }
}
layer {
  name: "hourglass_1/fconv_A_6to2_step1/bn_batchmorn"
  type: "BatchNorm"
  bottom: "hourglass_1/fconv_A_6to2_step1"
  top: "hourglass_1/fconv_A_6to2_step1tmp"
}
layer {
  name: "hourglass_1/fconv_A_6to2_step1/bn_scale"
  type: "Scale"
  bottom: "hourglass_1/fconv_A_6to2_step1tmp"
  top: "hourglass_1/fconv_A_6to2_step1/bn"
  scale_param {
    bias_term: true
  }
}
layer {
  name: "hourglass_1/fconv_A_6to2_step1/bn/relu"
  type: "PReLU"
  bottom: "hourglass_1/fconv_A_6to2_step1/bn"
  top: "hourglass_1/fconv_A_6to2_step1/bn"
  param {
    lr_mult: 0
    decay_mult: 0
  }
}
layer {
  name: "hourglass_1/fconv_A_6to2_step2"
  type: "Convolution"
  bottom: "hourglass_1/fconv_A_6to2_step1/bn"
  top: "hourglass_1/fconv_A_6to2_step2"
  param {
    lr_mult: 0
    decay_mult: 1
  }
  convolution_param {
    num_output: 16
    bias_term: false
    pad: 3
    kernel_size: 7
    stride: 1
    weight_filler {
      type: "constant"
    }
  }
}
layer {
  name: "hourglass_1/fconv_A_hg1_6tohg2_6_step1"
  type: "Convolution"
  bottom: "hourglass_1/fconv_A_6+/bn"
  top: "hourglass_1/fconv_A_hg1_6tohg2_6_step1"
  param {
    lr_mult: 0
    decay_mult: 1
  }
  convolution_param {
    num_output: 8
    bias_term: false
    pad: 3
    kernel_size: 7
    stride: 1
    weight_filler {
      type: "constant"
    }
  }
}
layer {
  name: "hourglass_1/fconv_A_hg1_6tohg2_6_step1/bn_batchmorn"
  type: "BatchNorm"
  bottom: "hourglass_1/fconv_A_hg1_6tohg2_6_step1"
  top: "hourglass_1/fconv_A_hg1_6tohg2_6_step1tmp"
}
layer {
  name: "hourglass_1/fconv_A_hg1_6tohg2_6_step1/bn_scale"
  type: "Scale"
  bottom: "hourglass_1/fconv_A_hg1_6tohg2_6_step1tmp"
  top: "hourglass_1/fconv_A_hg1_6tohg2_6_step1/bn"
  scale_param {
    bias_term: true
  }
}
layer {
  name: "hourglass_1/fconv_A_hg1_6tohg2_6_step1/bn/relu"
  type: "PReLU"
  bottom: "hourglass_1/fconv_A_hg1_6tohg2_6_step1/bn"
  top: "hourglass_1/fconv_A_hg1_6tohg2_6_step1/bn"
  param {
    lr_mult: 0
    decay_mult: 0
  }
}
layer {
  name: "hourglass_1/fconv_A_hg1_6tohg2_6_step2"
  type: "Convolution"
  bottom: "hourglass_1/fconv_A_hg1_6tohg2_6_step1/bn"
  top: "hourglass_1/fconv_A_hg1_6tohg2_6_step2"
  param {
    lr_mult: 0
    decay_mult: 1
  }
  convolution_param {
    num_output: 16
    bias_term: false
    pad: 3
    kernel_size: 7
    stride: 1
    weight_filler {
      type: "constant"
    }
  }
}
layer {
  name: "hourglass_1/fconv_A_8"
  type: "Convolution"
  bottom: "hourglass_1/post/linear_1"
  top: "hourglass_1/fconv_A_8"
  param {
    lr_mult: 0
    decay_mult: 1
  }
  convolution_param {
    num_output: 16
    bias_term: false
    pad: 0
    kernel_size: 1
    stride: 1
    weight_filler {
      type: "constant"
    }
  }
}
layer {
  name: "hourglass_1/Pass_9to8"
  type: "Eltwise"
  bottom: "hourglass_1/fconv_A_9to8_step2"
  bottom: "hourglass_1/fconv_A_8"
  top: "hourglass_1/fconv_A_8+"
}
layer {
  name: "hourglass_1/fconv_A_8+/bn_batchmorn"
  type: "BatchNorm"
  bottom: "hourglass_1/fconv_A_8+"
  top: "hourglass_1/fconv_A_8+tmp"
}
layer {
  name: "hourglass_1/fconv_A_8+/bn_scale"
  type: "Scale"
  bottom: "hourglass_1/fconv_A_8+tmp"
  top: "hourglass_1/fconv_A_8+/bn"
  scale_param {
    bias_term: true
  }
}
layer {
  name: "hourglass_1/relu_A_8"
  type: "PReLU"
  bottom: "hourglass_1/fconv_A_8+/bn"
  top: "hourglass_1/fconv_A_8+/bn"
  param {
    lr_mult: 0
    decay_mult: 0
  }
}
layer {
  name: "hourglass_1/fconv_A_8to3_step1"
  type: "Convolution"
  bottom: "hourglass_1/fconv_A_8+/bn"
  top: "hourglass_1/fconv_A_8to3_step1"
  param {
    lr_mult: 0
    decay_mult: 1
  }
  convolution_param {
    num_output: 8
    bias_term: false
    pad: 3
    kernel_size: 7
    stride: 1
    weight_filler {
      type: "constant"
    }
  }
}
layer {
  name: "hourglass_1/fconv_A_8to3_step1/bn_batchmorn"
  type: "BatchNorm"
  bottom: "hourglass_1/fconv_A_8to3_step1"
  top: "hourglass_1/fconv_A_8to3_step1tmp"
}
layer {
  name: "hourglass_1/fconv_A_8to3_step1/bn_scale"
  type: "Scale"
  bottom: "hourglass_1/fconv_A_8to3_step1tmp"
  top: "hourglass_1/fconv_A_8to3_step1/bn"
  scale_param {
    bias_term: true
  }
}
layer {
  name: "hourglass_1/fconv_A_8to3_step1/bn/relu"
  type: "PReLU"
  bottom: "hourglass_1/fconv_A_8to3_step1/bn"
  top: "hourglass_1/fconv_A_8to3_step1/bn"
  param {
    lr_mult: 0
    decay_mult: 0
  }
}
layer {
  name: "hourglass_1/fconv_A_8to3_step2"
  type: "Convolution"
  bottom: "hourglass_1/fconv_A_8to3_step1/bn"
  top: "hourglass_1/fconv_A_8to3_step2"
  param {
    lr_mult: 0
    decay_mult: 1
  }
  convolution_param {
    num_output: 16
    bias_term: false
    pad: 3
    kernel_size: 7
    stride: 1
    weight_filler {
      type: "constant"
    }
  }
}
layer {
  name: "hourglass_1/fconv_A_hg1_8tohg2_8_step1"
  type: "Convolution"
  bottom: "hourglass_1/fconv_A_8+/bn"
  top: "hourglass_1/fconv_A_hg1_8tohg2_8_step1"
  param {
    lr_mult: 0
    decay_mult: 1
  }
  convolution_param {
    num_output: 8
    bias_term: false
    pad: 3
    kernel_size: 7
    stride: 1
    weight_filler {
      type: "constant"
    }
  }
}
layer {
  name: "hourglass_1/fconv_A_hg1_8tohg2_8_step1/bn_batchmorn"
  type: "BatchNorm"
  bottom: "hourglass_1/fconv_A_hg1_8tohg2_8_step1"
  top: "hourglass_1/fconv_A_hg1_8tohg2_8_step1tmp"
}
layer {
  name: "hourglass_1/fconv_A_hg1_8tohg2_8_step1/bn_scale"
  type: "Scale"
  bottom: "hourglass_1/fconv_A_hg1_8tohg2_8_step1tmp"
  top: "hourglass_1/fconv_A_hg1_8tohg2_8_step1/bn"
  scale_param {
    bias_term: true
  }
}
layer {
  name: "hourglass_1/fconv_A_hg1_8tohg2_8_step1/bn/relu"
  type: "PReLU"
  bottom: "hourglass_1/fconv_A_hg1_8tohg2_8_step1/bn"
  top: "hourglass_1/fconv_A_hg1_8tohg2_8_step1/bn"
  param {
    lr_mult: 0
    decay_mult: 0
  }
}
layer {
  name: "hourglass_1/fconv_A_hg1_8tohg2_8_step2"
  type: "Convolution"
  bottom: "hourglass_1/fconv_A_hg1_8tohg2_8_step1/bn"
  top: "hourglass_1/fconv_A_hg1_8tohg2_8_step2"
  param {
    lr_mult: 0
    decay_mult: 1
  }
  convolution_param {
    num_output: 16
    bias_term: false
    pad: 3
    kernel_size: 7
    stride: 1
    weight_filler {
      type: "constant"
    }
  }
}
layer {
  name: "hourglass_1/fconv_A_2"
  type: "Convolution"
  bottom: "hourglass_1/post/linear_1"
  top: "hourglass_1/fconv_A_2"
  param {
    lr_mult: 0
    decay_mult: 1
  }
  convolution_param {
    num_output: 16
    bias_term: false
    pad: 0
    kernel_size: 1
    stride: 1
    weight_filler {
      type: "constant"
    }
  }
}
layer {
  name: "hourglass_1/Pass_1+6to2"
  type: "Eltwise"
  bottom: "hourglass_1/fconv_A_1to2_step2"
  bottom: "hourglass_1/fconv_A_6to2_step2"
  bottom: "hourglass_1/fconv_A_2"
  top: "hourglass_1/fconv_A_2+"
}
layer {
  name: "hourglass_1/fconv_A_2+/bn_batchmorn"
  type: "BatchNorm"
  bottom: "hourglass_1/fconv_A_2+"
  top: "hourglass_1/fconv_A_2+tmp"
}
layer {
  name: "hourglass_1/fconv_A_2+/bn_scale"
  type: "Scale"
  bottom: "hourglass_1/fconv_A_2+tmp"
  top: "hourglass_1/fconv_A_2+/bn"
  scale_param {
    bias_term: true
  }
}
layer {
  name: "hourglass_1/relu_A_2"
  type: "PReLU"
  bottom: "hourglass_1/fconv_A_2+/bn"
  top: "hourglass_1/fconv_A_2+/bn"
  param {
    lr_mult: 0
    decay_mult: 0
  }
}
layer {
  name: "hourglass_1/fconv_A_hg1_2tohg2_2_step1"
  type: "Convolution"
  bottom: "hourglass_1/fconv_A_2+/bn"
  top: "hourglass_1/fconv_A_hg1_2tohg2_2_step1"
  param {
    lr_mult: 0
    decay_mult: 1
  }
  convolution_param {
    num_output: 8
    bias_term: false
    pad: 3
    kernel_size: 7
    stride: 1
    weight_filler {
      type: "constant"
    }
  }
}
layer {
  name: "hourglass_1/fconv_A_hg1_2tohg2_2_step1/bn_batchmorn"
  type: "BatchNorm"
  bottom: "hourglass_1/fconv_A_hg1_2tohg2_2_step1"
  top: "hourglass_1/fconv_A_hg1_2tohg2_2_step1tmp"
}
layer {
  name: "hourglass_1/fconv_A_hg1_2tohg2_2_step1/bn_scale"
  type: "Scale"
  bottom: "hourglass_1/fconv_A_hg1_2tohg2_2_step1tmp"
  top: "hourglass_1/fconv_A_hg1_2tohg2_2_step1/bn"
  scale_param {
    bias_term: true
  }
}
layer {
  name: "hourglass_1/fconv_A_hg1_2tohg2_2_step1/bn/relu"
  type: "PReLU"
  bottom: "hourglass_1/fconv_A_hg1_2tohg2_2_step1/bn"
  top: "hourglass_1/fconv_A_hg1_2tohg2_2_step1/bn"
  param {
    lr_mult: 0
    decay_mult: 0
  }
}
layer {
  name: "hourglass_1/fconv_A_hg1_2tohg2_2_step2"
  type: "Convolution"
  bottom: "hourglass_1/fconv_A_hg1_2tohg2_2_step1/bn"
  top: "hourglass_1/fconv_A_hg1_2tohg2_2_step2"
  param {
    lr_mult: 0
    decay_mult: 1
  }
  convolution_param {
    num_output: 16
    bias_term: false
    pad: 3
    kernel_size: 7
    stride: 1
    weight_filler {
      type: "constant"
    }
  }
}
layer {
  name: "hourglass_1/fconv_A_3"
  type: "Convolution"
  bottom: "hourglass_1/post/linear_1"
  top: "hourglass_1/fconv_A_3"
  param {
    lr_mult: 0
    decay_mult: 1
  }
  convolution_param {
    num_output: 16
    bias_term: false
    pad: 0
    kernel_size: 1
    stride: 1
    weight_filler {
      type: "constant"
    }
  }
}
layer {
  name: "hourglass_1/Pass_1+8to3"
  type: "Eltwise"
  bottom: "hourglass_1/fconv_A_1to3_step2"
  bottom: "hourglass_1/fconv_A_8to3_step2"
  bottom: "hourglass_1/fconv_A_3"
  top: "hourglass_1/fconv_A_3+"
}
layer {
  name: "hourglass_1/fconv_A_3+/bn_batchmorn"
  type: "BatchNorm"
  bottom: "hourglass_1/fconv_A_3+"
  top: "hourglass_1/fconv_A_3+tmp"
}
layer {
  name: "hourglass_1/fconv_A_3+/bn_scale"
  type: "Scale"
  bottom: "hourglass_1/fconv_A_3+tmp"
  top: "hourglass_1/fconv_A_3+/bn"
  scale_param {
    bias_term: true
  }
}
layer {
  name: "hourglass_1/relu_A_3"
  type: "PReLU"
  bottom: "hourglass_1/fconv_A_3+/bn"
  top: "hourglass_1/fconv_A_3+/bn"
  param {
    lr_mult: 0
    decay_mult: 0
  }
}
layer {
  name: "hourglass_1/fconv_A_hg1_3tohg2_3_step1"
  type: "Convolution"
  bottom: "hourglass_1/fconv_A_3+/bn"
  top: "hourglass_1/fconv_A_hg1_3tohg2_3_step1"
  param {
    lr_mult: 0
    decay_mult: 1
  }
  convolution_param {
    num_output: 8
    bias_term: false
    pad: 3
    kernel_size: 7
    stride: 1
    weight_filler {
      type: "constant"
    }
  }
}
layer {
  name: "hourglass_1/fconv_A_hg1_3tohg2_3_step1/bn_batchmorn"
  type: "BatchNorm"
  bottom: "hourglass_1/fconv_A_hg1_3tohg2_3_step1"
  top: "hourglass_1/fconv_A_hg1_3tohg2_3_step1tmp"
}
layer {
  name: "hourglass_1/fconv_A_hg1_3tohg2_3_step1/bn_scale"
  type: "Scale"
  bottom: "hourglass_1/fconv_A_hg1_3tohg2_3_step1tmp"
  top: "hourglass_1/fconv_A_hg1_3tohg2_3_step1/bn"
  scale_param {
    bias_term: true
  }
}
layer {
  name: "hourglass_1/fconv_A_hg1_3tohg2_3_step1/bn/relu"
  type: "PReLU"
  bottom: "hourglass_1/fconv_A_hg1_3tohg2_3_step1/bn"
  top: "hourglass_1/fconv_A_hg1_3tohg2_3_step1/bn"
  param {
    lr_mult: 0
    decay_mult: 0
  }
}
layer {
  name: "hourglass_1/fconv_A_hg1_3tohg2_3_step2"
  type: "Convolution"
  bottom: "hourglass_1/fconv_A_hg1_3tohg2_3_step1/bn"
  top: "hourglass_1/fconv_A_hg1_3tohg2_3_step2"
  param {
    lr_mult: 0
    decay_mult: 1
  }
  convolution_param {
    num_output: 16
    bias_term: false
    pad: 3
    kernel_size: 7
    stride: 1
    weight_filler {
      type: "constant"
    }
  }
}
layer {
  name: "hourglass_1/fconv_B_2"
  type: "Convolution"
  bottom: "hourglass_1/post/linear_1"
  top: "hourglass_1/fconv_B_2"
  param {
    lr_mult: 0
    decay_mult: 1
  }
  convolution_param {
    num_output: 16
    bias_term: false
    pad: 0
    kernel_size: 1
    stride: 1
    weight_filler {
      type: "constant"
    }
  }
}
layer {
  name: "hourglass_1/fconv_B_2+/bn_batchmorn"
  type: "BatchNorm"
  bottom: "hourglass_1/fconv_B_2"
  top: "hourglass_1/fconv_B_2tmp"
}
layer {
  name: "hourglass_1/fconv_B_2+/bn_scale"
  type: "Scale"
  bottom: "hourglass_1/fconv_B_2tmp"
  top: "hourglass_1/fconv_B_2+/bn"
  scale_param {
    bias_term: true
  }
}
layer {
  name: "hourglass_1/relu_B_2"
  type: "PReLU"
  bottom: "hourglass_1/fconv_B_2+/bn"
  top: "hourglass_1/fconv_B_2+/bn"
  param {
    lr_mult: 0
    decay_mult: 0
  }
}
layer {
  name: "hourglass_1/fconv_B_2to1_step1"
  type: "Convolution"
  bottom: "hourglass_1/fconv_B_2+/bn"
  top: "hourglass_1/fconv_B_2to1_step1"
  param {
    lr_mult: 0
    decay_mult: 1
  }
  convolution_param {
    num_output: 8
    bias_term: false
    pad: 3
    kernel_size: 7
    stride: 1
    weight_filler {
      type: "constant"
    }
  }
}
layer {
  name: "hourglass_1/fconv_B_2to1_step1/bn_batchmorn"
  type: "BatchNorm"
  bottom: "hourglass_1/fconv_B_2to1_step1"
  top: "hourglass_1/fconv_B_2to1_step1tmp"
}
layer {
  name: "hourglass_1/fconv_B_2to1_step1/bn_scale"
  type: "Scale"
  bottom: "hourglass_1/fconv_B_2to1_step1tmp"
  top: "hourglass_1/fconv_B_2to1_step1/bn"
  scale_param {
    bias_term: true
  }
}
layer {
  name: "hourglass_1/fconv_B_2to1_step1/bn/relu"
  type: "PReLU"
  bottom: "hourglass_1/fconv_B_2to1_step1/bn"
  top: "hourglass_1/fconv_B_2to1_step1/bn"
  param {
    lr_mult: 0
    decay_mult: 0
  }
}
layer {
  name: "hourglass_1/fconv_B_2to1_step2"
  type: "Convolution"
  bottom: "hourglass_1/fconv_B_2to1_step1/bn"
  top: "hourglass_1/fconv_B_2to1_step2"
  param {
    lr_mult: 0
    decay_mult: 1
  }
  convolution_param {
    num_output: 16
    bias_term: false
    pad: 3
    kernel_size: 7
    stride: 1
    weight_filler {
      type: "constant"
    }
  }
}
layer {
  name: "hourglass_1/fconv_B_2to6_step1"
  type: "Convolution"
  bottom: "hourglass_1/fconv_B_2+/bn"
  top: "hourglass_1/fconv_B_2to6_step1"
  param {
    lr_mult: 0
    decay_mult: 1
  }
  convolution_param {
    num_output: 8
    bias_term: false
    pad: 3
    kernel_size: 7
    stride: 1
    weight_filler {
      type: "constant"
    }
  }
}
layer {
  name: "hourglass_1/fconv_B_2to6_step1/bn_batchmorn"
  type: "BatchNorm"
  bottom: "hourglass_1/fconv_B_2to6_step1"
  top: "hourglass_1/fconv_B_2to6_step1tmp"
}
layer {
  name: "hourglass_1/fconv_B_2to6_step1/bn_scale"
  type: "Scale"
  bottom: "hourglass_1/fconv_B_2to6_step1tmp"
  top: "hourglass_1/fconv_B_2to6_step1/bn"
  scale_param {
    bias_term: true
  }
}
layer {
  name: "hourglass_1/fconv_B_2to6_step1/bn/relu"
  type: "PReLU"
  bottom: "hourglass_1/fconv_B_2to6_step1/bn"
  top: "hourglass_1/fconv_B_2to6_step1/bn"
  param {
    lr_mult: 0
    decay_mult: 0
  }
}
layer {
  name: "hourglass_1/fconv_B_2to6_step2"
  type: "Convolution"
  bottom: "hourglass_1/fconv_B_2to6_step1/bn"
  top: "hourglass_1/fconv_B_2to6_step2"
  param {
    lr_mult: 0
    decay_mult: 1
  }
  convolution_param {
    num_output: 16
    bias_term: false
    pad: 3
    kernel_size: 7
    stride: 1
    weight_filler {
      type: "constant"
    }
  }
}
layer {
  name: "hourglass_1/fconv_B_hg1_2tohg2_2_step1"
  type: "Convolution"
  bottom: "hourglass_1/fconv_B_2+/bn"
  top: "hourglass_1/fconv_B_hg1_2tohg2_2_step1"
  param {
    lr_mult: 0
    decay_mult: 1
  }
  convolution_param {
    num_output: 8
    bias_term: false
    pad: 3
    kernel_size: 7
    stride: 1
    weight_filler {
      type: "constant"
    }
  }
}
layer {
  name: "hourglass_1/fconv_B_hg1_2tohg2_2_step1/bn_batchmorn"
  type: "BatchNorm"
  bottom: "hourglass_1/fconv_B_hg1_2tohg2_2_step1"
  top: "hourglass_1/fconv_B_hg1_2tohg2_2_step1tmp"
}
layer {
  name: "hourglass_1/fconv_B_hg1_2tohg2_2_step1/bn_scale"
  type: "Scale"
  bottom: "hourglass_1/fconv_B_hg1_2tohg2_2_step1tmp"
  top: "hourglass_1/fconv_B_hg1_2tohg2_2_step1/bn"
  scale_param {
    bias_term: true
  }
}
layer {
  name: "hourglass_1/fconv_B_hg1_2tohg2_2_step1/bn/relu"
  type: "PReLU"
  bottom: "hourglass_1/fconv_B_hg1_2tohg2_2_step1/bn"
  top: "hourglass_1/fconv_B_hg1_2tohg2_2_step1/bn"
  param {
    lr_mult: 0
    decay_mult: 0
  }
}
layer {
  name: "hourglass_1/fconv_B_hg1_2tohg2_2_step2"
  type: "Convolution"
  bottom: "hourglass_1/fconv_B_hg1_2tohg2_2_step1/bn"
  top: "hourglass_1/fconv_B_hg1_2tohg2_2_step2"
  param {
    lr_mult: 0
    decay_mult: 1
  }
  convolution_param {
    num_output: 16
    bias_term: false
    pad: 3
    kernel_size: 7
    stride: 1
    weight_filler {
      type: "constant"
    }
  }
}
layer {
  name: "hourglass_1/fconv_B_3"
  type: "Convolution"
  bottom: "hourglass_1/post/linear_1"
  top: "hourglass_1/fconv_B_3"
  param {
    lr_mult: 0
    decay_mult: 1
  }
  convolution_param {
    num_output: 16
    bias_term: false
    pad: 0
    kernel_size: 1
    stride: 1
    weight_filler {
      type: "constant"
    }
  }
}
layer {
  name: "hourglass_1/fconv_B_3+/bn_batchmorn"
  type: "BatchNorm"
  bottom: "hourglass_1/fconv_B_3"
  top: "hourglass_1/fconv_B_3tmp"
}
layer {
  name: "hourglass_1/fconv_B_3+/bn_scale"
  type: "Scale"
  bottom: "hourglass_1/fconv_B_3tmp"
  top: "hourglass_1/fconv_B_3+/bn"
  scale_param {
    bias_term: true
  }
}
layer {
  name: "hourglass_1/relu_B_3"
  type: "PReLU"
  bottom: "hourglass_1/fconv_B_3+/bn"
  top: "hourglass_1/fconv_B_3+/bn"
  param {
    lr_mult: 0
    decay_mult: 0
  }
}
layer {
  name: "hourglass_1/fconv_B_3to1_step1"
  type: "Convolution"
  bottom: "hourglass_1/fconv_B_3+/bn"
  top: "hourglass_1/fconv_B_3to1_step1"
  param {
    lr_mult: 0
    decay_mult: 1
  }
  convolution_param {
    num_output: 8
    bias_term: false
    pad: 3
    kernel_size: 7
    stride: 1
    weight_filler {
      type: "constant"
    }
  }
}
layer {
  name: "hourglass_1/fconv_B_3to1_step1/bn_batchmorn"
  type: "BatchNorm"
  bottom: "hourglass_1/fconv_B_3to1_step1"
  top: "hourglass_1/fconv_B_3to1_step1tmp"
}
layer {
  name: "hourglass_1/fconv_B_3to1_step1/bn_scale"
  type: "Scale"
  bottom: "hourglass_1/fconv_B_3to1_step1tmp"
  top: "hourglass_1/fconv_B_3to1_step1/bn"
  scale_param {
    bias_term: true
  }
}
layer {
  name: "hourglass_1/fconv_B_3to1_step1/bn/relu"
  type: "PReLU"
  bottom: "hourglass_1/fconv_B_3to1_step1/bn"
  top: "hourglass_1/fconv_B_3to1_step1/bn"
  param {
    lr_mult: 0
    decay_mult: 0
  }
}
layer {
  name: "hourglass_1/fconv_B_3to1_step2"
  type: "Convolution"
  bottom: "hourglass_1/fconv_B_3to1_step1/bn"
  top: "hourglass_1/fconv_B_3to1_step2"
  param {
    lr_mult: 0
    decay_mult: 1
  }
  convolution_param {
    num_output: 16
    bias_term: false
    pad: 3
    kernel_size: 7
    stride: 1
    weight_filler {
      type: "constant"
    }
  }
}
layer {
  name: "hourglass_1/fconv_B_3to8_step1"
  type: "Convolution"
  bottom: "hourglass_1/fconv_B_3+/bn"
  top: "hourglass_1/fconv_B_3to8_step1"
  param {
    lr_mult: 0
    decay_mult: 1
  }
  convolution_param {
    num_output: 8
    bias_term: false
    pad: 3
    kernel_size: 7
    stride: 1
    weight_filler {
      type: "constant"
    }
  }
}
layer {
  name: "hourglass_1/fconv_B_3to8_step1/bn_batchmorn"
  type: "BatchNorm"
  bottom: "hourglass_1/fconv_B_3to8_step1"
  top: "hourglass_1/fconv_B_3to8_step1tmp"
}
layer {
  name: "hourglass_1/fconv_B_3to8_step1/bn_scale"
  type: "Scale"
  bottom: "hourglass_1/fconv_B_3to8_step1tmp"
  top: "hourglass_1/fconv_B_3to8_step1/bn"
  scale_param {
    bias_term: true
  }
}
layer {
  name: "hourglass_1/fconv_B_3to8_step1/bn/relu"
  type: "PReLU"
  bottom: "hourglass_1/fconv_B_3to8_step1/bn"
  top: "hourglass_1/fconv_B_3to8_step1/bn"
  param {
    lr_mult: 0
    decay_mult: 0
  }
}
layer {
  name: "hourglass_1/fconv_B_3to8_step2"
  type: "Convolution"
  bottom: "hourglass_1/fconv_B_3to8_step1/bn"
  top: "hourglass_1/fconv_B_3to8_step2"
  param {
    lr_mult: 0
    decay_mult: 1
  }
  convolution_param {
    num_output: 16
    bias_term: false
    pad: 3
    kernel_size: 7
    stride: 1
    weight_filler {
      type: "constant"
    }
  }
}
layer {
  name: "hourglass_1/fconv_B_hg1_3tohg2_3_step1"
  type: "Convolution"
  bottom: "hourglass_1/fconv_B_3+/bn"
  top: "hourglass_1/fconv_B_hg1_3tohg2_3_step1"
  param {
    lr_mult: 0
    decay_mult: 1
  }
  convolution_param {
    num_output: 8
    bias_term: false
    pad: 3
    kernel_size: 7
    stride: 1
    weight_filler {
      type: "constant"
    }
  }
}
layer {
  name: "hourglass_1/fconv_B_hg1_3tohg2_3_step1/bn_batchmorn"
  type: "BatchNorm"
  bottom: "hourglass_1/fconv_B_hg1_3tohg2_3_step1"
  top: "hourglass_1/fconv_B_hg1_3tohg2_3_step1tmp"
}
layer {
  name: "hourglass_1/fconv_B_hg1_3tohg2_3_step1/bn_scale"
  type: "Scale"
  bottom: "hourglass_1/fconv_B_hg1_3tohg2_3_step1tmp"
  top: "hourglass_1/fconv_B_hg1_3tohg2_3_step1/bn"
  scale_param {
    bias_term: true
  }
}
layer {
  name: "hourglass_1/fconv_B_hg1_3tohg2_3_step1/bn/relu"
  type: "PReLU"
  bottom: "hourglass_1/fconv_B_hg1_3tohg2_3_step1/bn"
  top: "hourglass_1/fconv_B_hg1_3tohg2_3_step1/bn"
  param {
    lr_mult: 0
    decay_mult: 0
  }
}
layer {
  name: "hourglass_1/fconv_B_hg1_3tohg2_3_step2"
  type: "Convolution"
  bottom: "hourglass_1/fconv_B_hg1_3tohg2_3_step1/bn"
  top: "hourglass_1/fconv_B_hg1_3tohg2_3_step2"
  param {
    lr_mult: 0
    decay_mult: 1
  }
  convolution_param {
    num_output: 16
    bias_term: false
    pad: 3
    kernel_size: 7
    stride: 1
    weight_filler {
      type: "constant"
    }
  }
}
layer {
  name: "hourglass_1/fconv_B_6"
  type: "Convolution"
  bottom: "hourglass_1/post/linear_1"
  top: "hourglass_1/fconv_B_6"
  param {
    lr_mult: 0
    decay_mult: 1
  }
  convolution_param {
    num_output: 16
    bias_term: false
    pad: 0
    kernel_size: 1
    stride: 1
    weight_filler {
      type: "constant"
    }
  }
}
layer {
  name: "hourglass_1/Pass_2to6"
  type: "Eltwise"
  bottom: "hourglass_1/fconv_B_2to6_step2"
  bottom: "hourglass_1/fconv_B_6"
  top: "hourglass_1/fconv_B_6+"
}
layer {
  name: "hourglass_1/fconv_B_6+/bn_batchmorn"
  type: "BatchNorm"
  bottom: "hourglass_1/fconv_B_6+"
  top: "hourglass_1/fconv_B_6+tmp"
}
layer {
  name: "hourglass_1/fconv_B_6+/bn_scale"
  type: "Scale"
  bottom: "hourglass_1/fconv_B_6+tmp"
  top: "hourglass_1/fconv_B_6+/bn"
  scale_param {
    bias_term: true
  }
}
layer {
  name: "hourglass_1/relu_B_6"
  type: "PReLU"
  bottom: "hourglass_1/fconv_B_6+/bn"
  top: "hourglass_1/fconv_B_6+/bn"
  param {
    lr_mult: 0
    decay_mult: 0
  }
}
layer {
  name: "hourglass_1/fconv_B_6to7_step1"
  type: "Convolution"
  bottom: "hourglass_1/fconv_B_6+/bn"
  top: "hourglass_1/fconv_B_6to7_step1"
  param {
    lr_mult: 0
    decay_mult: 1
  }
  convolution_param {
    num_output: 8
    bias_term: false
    pad: 3
    kernel_size: 7
    stride: 1
    weight_filler {
      type: "constant"
    }
  }
}
layer {
  name: "hourglass_1/fconv_B_6to7_step1/bn_batchmorn"
  type: "BatchNorm"
  bottom: "hourglass_1/fconv_B_6to7_step1"
  top: "hourglass_1/fconv_B_6to7_step1tmp"
}
layer {
  name: "hourglass_1/fconv_B_6to7_step1/bn_scale"
  type: "Scale"
  bottom: "hourglass_1/fconv_B_6to7_step1tmp"
  top: "hourglass_1/fconv_B_6to7_step1/bn"
  scale_param {
    bias_term: true
  }
}
layer {
  name: "hourglass_1/fconv_B_6to7_step1/bn/relu"
  type: "PReLU"
  bottom: "hourglass_1/fconv_B_6to7_step1/bn"
  top: "hourglass_1/fconv_B_6to7_step1/bn"
  param {
    lr_mult: 0
    decay_mult: 0
  }
}
layer {
  name: "hourglass_1/fconv_B_6to7_step2"
  type: "Convolution"
  bottom: "hourglass_1/fconv_B_6to7_step1/bn"
  top: "hourglass_1/fconv_B_6to7_step2"
  param {
    lr_mult: 0
    decay_mult: 1
  }
  convolution_param {
    num_output: 16
    bias_term: false
    pad: 3
    kernel_size: 7
    stride: 1
    weight_filler {
      type: "constant"
    }
  }
}
layer {
  name: "hourglass_1/fconv_B_hg1_6tohg2_6_step1"
  type: "Convolution"
  bottom: "hourglass_1/fconv_B_6+/bn"
  top: "hourglass_1/fconv_B_hg1_6tohg2_6_step1"
  param {
    lr_mult: 0
    decay_mult: 1
  }
  convolution_param {
    num_output: 8
    bias_term: false
    pad: 3
    kernel_size: 7
    stride: 1
    weight_filler {
      type: "constant"
    }
  }
}
layer {
  name: "hourglass_1/fconv_B_hg1_6tohg2_6_step1/bn_batchmorn"
  type: "BatchNorm"
  bottom: "hourglass_1/fconv_B_hg1_6tohg2_6_step1"
  top: "hourglass_1/fconv_B_hg1_6tohg2_6_step1tmp"
}
layer {
  name: "hourglass_1/fconv_B_hg1_6tohg2_6_step1/bn_scale"
  type: "Scale"
  bottom: "hourglass_1/fconv_B_hg1_6tohg2_6_step1tmp"
  top: "hourglass_1/fconv_B_hg1_6tohg2_6_step1/bn"
  scale_param {
    bias_term: true
  }
}
layer {
  name: "hourglass_1/fconv_B_hg1_6tohg2_6_step1/bn/relu"
  type: "PReLU"
  bottom: "hourglass_1/fconv_B_hg1_6tohg2_6_step1/bn"
  top: "hourglass_1/fconv_B_hg1_6tohg2_6_step1/bn"
  param {
    lr_mult: 0
    decay_mult: 0
  }
}
layer {
  name: "hourglass_1/fconv_B_hg1_6tohg2_6_step2"
  type: "Convolution"
  bottom: "hourglass_1/fconv_B_hg1_6tohg2_6_step1/bn"
  top: "hourglass_1/fconv_B_hg1_6tohg2_6_step2"
  param {
    lr_mult: 0
    decay_mult: 1
  }
  convolution_param {
    num_output: 16
    bias_term: false
    pad: 3
    kernel_size: 7
    stride: 1
    weight_filler {
      type: "constant"
    }
  }
}
layer {
  name: "hourglass_1/fconv_B_8"
  type: "Convolution"
  bottom: "hourglass_1/post/linear_1"
  top: "hourglass_1/fconv_B_8"
  param {
    lr_mult: 0
    decay_mult: 1
  }
  convolution_param {
    num_output: 16
    bias_term: false
    pad: 0
    kernel_size: 1
    stride: 1
    weight_filler {
      type: "constant"
    }
  }
}
layer {
  name: "hourglass_1/Pass_3to8"
  type: "Eltwise"
  bottom: "hourglass_1/fconv_B_3to8_step2"
  bottom: "hourglass_1/fconv_B_8"
  top: "hourglass_1/fconv_B_8+"
}
layer {
  name: "hourglass_1/fconv_B_8+/bn_batchmorn"
  type: "BatchNorm"
  bottom: "hourglass_1/fconv_B_8+"
  top: "hourglass_1/fconv_B_8+tmp"
}
layer {
  name: "hourglass_1/fconv_B_8+/bn_scale"
  type: "Scale"
  bottom: "hourglass_1/fconv_B_8+tmp"
  top: "hourglass_1/fconv_B_8+/bn"
  scale_param {
    bias_term: true
  }
}
layer {
  name: "hourglass_1/relu_B_8"
  type: "PReLU"
  bottom: "hourglass_1/fconv_B_8+/bn"
  top: "hourglass_1/fconv_B_8+/bn"
  param {
    lr_mult: 0
    decay_mult: 0
  }
}
layer {
  name: "hourglass_1/fconv_B_8to9_step1"
  type: "Convolution"
  bottom: "hourglass_1/fconv_B_8+/bn"
  top: "hourglass_1/fconv_B_8to9_step1"
  param {
    lr_mult: 0
    decay_mult: 1
  }
  convolution_param {
    num_output: 8
    bias_term: false
    pad: 3
    kernel_size: 7
    stride: 1
    weight_filler {
      type: "constant"
    }
  }
}
layer {
  name: "hourglass_1/fconv_B_8to9_step1/bn_batchmorn"
  type: "BatchNorm"
  bottom: "hourglass_1/fconv_B_8to9_step1"
  top: "hourglass_1/fconv_B_8to9_step1tmp"
}
layer {
  name: "hourglass_1/fconv_B_8to9_step1/bn_scale"
  type: "Scale"
  bottom: "hourglass_1/fconv_B_8to9_step1tmp"
  top: "hourglass_1/fconv_B_8to9_step1/bn"
  scale_param {
    bias_term: true
  }
}
layer {
  name: "hourglass_1/fconv_B_8to9_step1/bn/relu"
  type: "PReLU"
  bottom: "hourglass_1/fconv_B_8to9_step1/bn"
  top: "hourglass_1/fconv_B_8to9_step1/bn"
  param {
    lr_mult: 0
    decay_mult: 0
  }
}
layer {
  name: "hourglass_1/fconv_B_8to9_step2"
  type: "Convolution"
  bottom: "hourglass_1/fconv_B_8to9_step1/bn"
  top: "hourglass_1/fconv_B_8to9_step2"
  param {
    lr_mult: 0
    decay_mult: 1
  }
  convolution_param {
    num_output: 16
    bias_term: false
    pad: 3
    kernel_size: 7
    stride: 1
    weight_filler {
      type: "constant"
    }
  }
}
layer {
  name: "hourglass_1/fconv_B_hg1_8tohg2_8_step1"
  type: "Convolution"
  bottom: "hourglass_1/fconv_B_8+/bn"
  top: "hourglass_1/fconv_B_hg1_8tohg2_8_step1"
  param {
    lr_mult: 0
    decay_mult: 1
  }
  convolution_param {
    num_output: 8
    bias_term: false
    pad: 3
    kernel_size: 7
    stride: 1
    weight_filler {
      type: "constant"
    }
  }
}
layer {
  name: "hourglass_1/fconv_B_hg1_8tohg2_8_step1/bn_batchmorn"
  type: "BatchNorm"
  bottom: "hourglass_1/fconv_B_hg1_8tohg2_8_step1"
  top: "hourglass_1/fconv_B_hg1_8tohg2_8_step1tmp"
}
layer {
  name: "hourglass_1/fconv_B_hg1_8tohg2_8_step1/bn_scale"
  type: "Scale"
  bottom: "hourglass_1/fconv_B_hg1_8tohg2_8_step1tmp"
  top: "hourglass_1/fconv_B_hg1_8tohg2_8_step1/bn"
  scale_param {
    bias_term: true
  }
}
layer {
  name: "hourglass_1/fconv_B_hg1_8tohg2_8_step1/bn/relu"
  type: "PReLU"
  bottom: "hourglass_1/fconv_B_hg1_8tohg2_8_step1/bn"
  top: "hourglass_1/fconv_B_hg1_8tohg2_8_step1/bn"
  param {
    lr_mult: 0
    decay_mult: 0
  }
}
layer {
  name: "hourglass_1/fconv_B_hg1_8tohg2_8_step2"
  type: "Convolution"
  bottom: "hourglass_1/fconv_B_hg1_8tohg2_8_step1/bn"
  top: "hourglass_1/fconv_B_hg1_8tohg2_8_step2"
  param {
    lr_mult: 0
    decay_mult: 1
  }
  convolution_param {
    num_output: 16
    bias_term: false
    pad: 3
    kernel_size: 7
    stride: 1
    weight_filler {
      type: "constant"
    }
  }
}
layer {
  name: "hourglass_1/fconv_B_7"
  type: "Convolution"
  bottom: "hourglass_1/post/linear_1"
  top: "hourglass_1/fconv_B_7"
  param {
    lr_mult: 0
    decay_mult: 1
  }
  convolution_param {
    num_output: 16
    bias_term: false
    pad: 0
    kernel_size: 1
    stride: 1
    weight_filler {
      type: "constant"
    }
  }
}
layer {
  name: "hourglass_1/Pass_6to7"
  type: "Eltwise"
  bottom: "hourglass_1/fconv_B_6to7_step2"
  bottom: "hourglass_1/fconv_B_7"
  top: "hourglass_1/fconv_B_7+"
}
layer {
  name: "hourglass_1/fconv_B_7+/bn_batchmorn"
  type: "BatchNorm"
  bottom: "hourglass_1/fconv_B_7+"
  top: "hourglass_1/fconv_B_7+tmp"
}
layer {
  name: "hourglass_1/fconv_B_7+/bn_scale"
  type: "Scale"
  bottom: "hourglass_1/fconv_B_7+tmp"
  top: "hourglass_1/fconv_B_7+/bn"
  scale_param {
    bias_term: true
  }
}
layer {
  name: "hourglass_1/relu_B_7"
  type: "PReLU"
  bottom: "hourglass_1/fconv_B_7+/bn"
  top: "hourglass_1/fconv_B_7+/bn"
  param {
    lr_mult: 0
    decay_mult: 0
  }
}
layer {
  name: "hourglass_1/fconv_B_7to4_step1"
  type: "Convolution"
  bottom: "hourglass_1/fconv_B_7+/bn"
  top: "hourglass_1/fconv_B_7to4_step1"
  param {
    lr_mult: 0
    decay_mult: 1
  }
  convolution_param {
    num_output: 8
    bias_term: false
    pad: 3
    kernel_size: 7
    stride: 1
    weight_filler {
      type: "constant"
    }
  }
}
layer {
  name: "hourglass_1/fconv_B_7to4_step1/bn_batchmorn"
  type: "BatchNorm"
  bottom: "hourglass_1/fconv_B_7to4_step1"
  top: "hourglass_1/fconv_B_7to4_step1tmp"
}
layer {
  name: "hourglass_1/fconv_B_7to4_step1/bn_scale"
  type: "Scale"
  bottom: "hourglass_1/fconv_B_7to4_step1tmp"
  top: "hourglass_1/fconv_B_7to4_step1/bn"
  scale_param {
    bias_term: true
  }
}
layer {
  name: "hourglass_1/fconv_B_7to4_step1/bn/relu"
  type: "PReLU"
  bottom: "hourglass_1/fconv_B_7to4_step1/bn"
  top: "hourglass_1/fconv_B_7to4_step1/bn"
  param {
    lr_mult: 0
    decay_mult: 0
  }
}
layer {
  name: "hourglass_1/fconv_B_7to4_step2"
  type: "Convolution"
  bottom: "hourglass_1/fconv_B_7to4_step1/bn"
  top: "hourglass_1/fconv_B_7to4_step2"
  param {
    lr_mult: 0
    decay_mult: 1
  }
  convolution_param {
    num_output: 16
    bias_term: false
    pad: 3
    kernel_size: 7
    stride: 1
    weight_filler {
      type: "constant"
    }
  }
}
layer {
  name: "hourglass_1/fconv_B_7to1_step1"
  type: "Convolution"
  bottom: "hourglass_1/fconv_B_7+/bn"
  top: "hourglass_1/fconv_B_7to1_step1"
  param {
    lr_mult: 0
    decay_mult: 1
  }
  convolution_param {
    num_output: 8
    bias_term: false
    pad: 3
    kernel_size: 7
    stride: 1
    weight_filler {
      type: "constant"
    }
  }
}
layer {
  name: "hourglass_1/fconv_B_7to1_step1/bn_batchmorn"
  type: "BatchNorm"
  bottom: "hourglass_1/fconv_B_7to1_step1"
  top: "hourglass_1/fconv_B_7to1_step1tmp"
}
layer {
  name: "hourglass_1/fconv_B_7to1_step1/bn_scale"
  type: "Scale"
  bottom: "hourglass_1/fconv_B_7to1_step1tmp"
  top: "hourglass_1/fconv_B_7to1_step1/bn"
  scale_param {
    bias_term: true
  }
}
layer {
  name: "hourglass_1/fconv_B_7to1_step1/bn/relu"
  type: "PReLU"
  bottom: "hourglass_1/fconv_B_7to1_step1/bn"
  top: "hourglass_1/fconv_B_7to1_step1/bn"
  param {
    lr_mult: 0
    decay_mult: 0
  }
}
layer {
  name: "hourglass_1/fconv_B_7to1_step2"
  type: "Convolution"
  bottom: "hourglass_1/fconv_B_7to1_step1/bn"
  top: "hourglass_1/fconv_B_7to1_step2"
  param {
    lr_mult: 0
    decay_mult: 1
  }
  convolution_param {
    num_output: 16
    bias_term: false
    pad: 3
    kernel_size: 7
    stride: 1
    weight_filler {
      type: "constant"
    }
  }
}
layer {
  name: "hourglass_1/fconv_B_hg1_7tohg2_7_step1"
  type: "Convolution"
  bottom: "hourglass_1/fconv_B_7+/bn"
  top: "hourglass_1/fconv_B_hg1_7tohg2_7_step1"
  param {
    lr_mult: 0
    decay_mult: 1
  }
  convolution_param {
    num_output: 8
    bias_term: false
    pad: 3
    kernel_size: 7
    stride: 1
    weight_filler {
      type: "constant"
    }
  }
}
layer {
  name: "hourglass_1/fconv_B_hg1_7tohg2_7_step1/bn_batchmorn"
  type: "BatchNorm"
  bottom: "hourglass_1/fconv_B_hg1_7tohg2_7_step1"
  top: "hourglass_1/fconv_B_hg1_7tohg2_7_step1tmp"
}
layer {
  name: "hourglass_1/fconv_B_hg1_7tohg2_7_step1/bn_scale"
  type: "Scale"
  bottom: "hourglass_1/fconv_B_hg1_7tohg2_7_step1tmp"
  top: "hourglass_1/fconv_B_hg1_7tohg2_7_step1/bn"
  scale_param {
    bias_term: true
  }
}
layer {
  name: "hourglass_1/fconv_B_hg1_7tohg2_7_step1/bn/relu"
  type: "PReLU"
  bottom: "hourglass_1/fconv_B_hg1_7tohg2_7_step1/bn"
  top: "hourglass_1/fconv_B_hg1_7tohg2_7_step1/bn"
  param {
    lr_mult: 0
    decay_mult: 0
  }
}
layer {
  name: "hourglass_1/fconv_B_hg1_7tohg2_7_step2"
  type: "Convolution"
  bottom: "hourglass_1/fconv_B_hg1_7tohg2_7_step1/bn"
  top: "hourglass_1/fconv_B_hg1_7tohg2_7_step2"
  param {
    lr_mult: 0
    decay_mult: 1
  }
  convolution_param {
    num_output: 16
    bias_term: false
    pad: 3
    kernel_size: 7
    stride: 1
    weight_filler {
      type: "constant"
    }
  }
}
layer {
  name: "hourglass_1/fconv_B_9"
  type: "Convolution"
  bottom: "hourglass_1/post/linear_1"
  top: "hourglass_1/fconv_B_9"
  param {
    lr_mult: 0
    decay_mult: 1
  }
  convolution_param {
    num_output: 16
    bias_term: false
    pad: 0
    kernel_size: 1
    stride: 1
    weight_filler {
      type: "constant"
    }
  }
}
layer {
  name: "hourglass_1/Pass_8to9"
  type: "Eltwise"
  bottom: "hourglass_1/fconv_B_8to9_step2"
  bottom: "hourglass_1/fconv_B_9"
  top: "hourglass_1/fconv_B_9+"
}
layer {
  name: "hourglass_1/fconv_B_9+/bn_batchmorn"
  type: "BatchNorm"
  bottom: "hourglass_1/fconv_B_9+"
  top: "hourglass_1/fconv_B_9+tmp"
}
layer {
  name: "hourglass_1/fconv_B_9+/bn_scale"
  type: "Scale"
  bottom: "hourglass_1/fconv_B_9+tmp"
  top: "hourglass_1/fconv_B_9+/bn"
  scale_param {
    bias_term: true
  }
}
layer {
  name: "hourglass_1/relu_B_9"
  type: "PReLU"
  bottom: "hourglass_1/fconv_B_9+/bn"
  top: "hourglass_1/fconv_B_9+/bn"
  param {
    lr_mult: 0
    decay_mult: 0
  }
}
layer {
  name: "hourglass_1/fconv_B_9to4_step1"
  type: "Convolution"
  bottom: "hourglass_1/fconv_B_9+/bn"
  top: "hourglass_1/fconv_B_9to4_step1"
  param {
    lr_mult: 0
    decay_mult: 1
  }
  convolution_param {
    num_output: 8
    bias_term: false
    pad: 3
    kernel_size: 7
    stride: 1
    weight_filler {
      type: "constant"
    }
  }
}
layer {
  name: "hourglass_1/fconv_B_9to4_step1/bn_batchmorn"
  type: "BatchNorm"
  bottom: "hourglass_1/fconv_B_9to4_step1"
  top: "hourglass_1/fconv_B_9to4_step1tmp"
}
layer {
  name: "hourglass_1/fconv_B_9to4_step1/bn_scale"
  type: "Scale"
  bottom: "hourglass_1/fconv_B_9to4_step1tmp"
  top: "hourglass_1/fconv_B_9to4_step1/bn"
  scale_param {
    bias_term: true
  }
}
layer {
  name: "hourglass_1/fconv_B_9to4_step1/bn/relu"
  type: "PReLU"
  bottom: "hourglass_1/fconv_B_9to4_step1/bn"
  top: "hourglass_1/fconv_B_9to4_step1/bn"
  param {
    lr_mult: 0
    decay_mult: 0
  }
}
layer {
  name: "hourglass_1/fconv_B_9to4_step2"
  type: "Convolution"
  bottom: "hourglass_1/fconv_B_9to4_step1/bn"
  top: "hourglass_1/fconv_B_9to4_step2"
  param {
    lr_mult: 0
    decay_mult: 1
  }
  convolution_param {
    num_output: 16
    bias_term: false
    pad: 3
    kernel_size: 7
    stride: 1
    weight_filler {
      type: "constant"
    }
  }
}
layer {
  name: "hourglass_1/fconv_B_9to1_step1"
  type: "Convolution"
  bottom: "hourglass_1/fconv_B_9+/bn"
  top: "hourglass_1/fconv_B_9to1_step1"
  param {
    lr_mult: 0
    decay_mult: 1
  }
  convolution_param {
    num_output: 8
    bias_term: false
    pad: 3
    kernel_size: 7
    stride: 1
    weight_filler {
      type: "constant"
    }
  }
}
layer {
  name: "hourglass_1/fconv_B_9to1_step1/bn_batchmorn"
  type: "BatchNorm"
  bottom: "hourglass_1/fconv_B_9to1_step1"
  top: "hourglass_1/fconv_B_9to1_step1tmp"
}
layer {
  name: "hourglass_1/fconv_B_9to1_step1/bn_scale"
  type: "Scale"
  bottom: "hourglass_1/fconv_B_9to1_step1tmp"
  top: "hourglass_1/fconv_B_9to1_step1/bn"
  scale_param {
    bias_term: true
  }
}
layer {
  name: "hourglass_1/fconv_B_9to1_step1/bn/relu"
  type: "PReLU"
  bottom: "hourglass_1/fconv_B_9to1_step1/bn"
  top: "hourglass_1/fconv_B_9to1_step1/bn"
  param {
    lr_mult: 0
    decay_mult: 0
  }
}
layer {
  name: "hourglass_1/fconv_B_9to1_step2"
  type: "Convolution"
  bottom: "hourglass_1/fconv_B_9to1_step1/bn"
  top: "hourglass_1/fconv_B_9to1_step2"
  param {
    lr_mult: 0
    decay_mult: 1
  }
  convolution_param {
    num_output: 16
    bias_term: false
    pad: 3
    kernel_size: 7
    stride: 1
    weight_filler {
      type: "constant"
    }
  }
}
layer {
  name: "hourglass_1/fconv_B_hg1_9tohg2_9_step1"
  type: "Convolution"
  bottom: "hourglass_1/fconv_B_9+/bn"
  top: "hourglass_1/fconv_B_hg1_9tohg2_9_step1"
  param {
    lr_mult: 0
    decay_mult: 1
  }
  convolution_param {
    num_output: 8
    bias_term: false
    pad: 3
    kernel_size: 7
    stride: 1
    weight_filler {
      type: "constant"
    }
  }
}
layer {
  name: "hourglass_1/fconv_B_hg1_9tohg2_9_step1/bn_batchmorn"
  type: "BatchNorm"
  bottom: "hourglass_1/fconv_B_hg1_9tohg2_9_step1"
  top: "hourglass_1/fconv_B_hg1_9tohg2_9_step1tmp"
}
layer {
  name: "hourglass_1/fconv_B_hg1_9tohg2_9_step1/bn_scale"
  type: "Scale"
  bottom: "hourglass_1/fconv_B_hg1_9tohg2_9_step1tmp"
  top: "hourglass_1/fconv_B_hg1_9tohg2_9_step1/bn"
  scale_param {
    bias_term: true
  }
}
layer {
  name: "hourglass_1/fconv_B_hg1_9tohg2_9_step1/bn/relu"
  type: "PReLU"
  bottom: "hourglass_1/fconv_B_hg1_9tohg2_9_step1/bn"
  top: "hourglass_1/fconv_B_hg1_9tohg2_9_step1/bn"
  param {
    lr_mult: 0
    decay_mult: 0
  }
}
layer {
  name: "hourglass_1/fconv_B_hg1_9tohg2_9_step2"
  type: "Convolution"
  bottom: "hourglass_1/fconv_B_hg1_9tohg2_9_step1/bn"
  top: "hourglass_1/fconv_B_hg1_9tohg2_9_step2"
  param {
    lr_mult: 0
    decay_mult: 1
  }
  convolution_param {
    num_output: 16
    bias_term: false
    pad: 3
    kernel_size: 7
    stride: 1
    weight_filler {
      type: "constant"
    }
  }
}
layer {
  name: "hourglass_1/fconv_B_4"
  type: "Convolution"
  bottom: "hourglass_1/post/linear_1"
  top: "hourglass_1/fconv_B_4"
  param {
    lr_mult: 0
    decay_mult: 1
  }
  convolution_param {
    num_output: 16
    bias_term: false
    pad: 0
    kernel_size: 1
    stride: 1
    weight_filler {
      type: "constant"
    }
  }
}
layer {
  name: "hourglass_1/Pass_7+9to4"
  type: "Eltwise"
  bottom: "hourglass_1/fconv_B_7to4_step2"
  bottom: "hourglass_1/fconv_B_9to4_step2"
  bottom: "hourglass_1/fconv_B_4"
  top: "hourglass_1/fconv_B_4+"
}
layer {
  name: "hourglass_1/fconv_B_4+/bn_batchmorn"
  type: "BatchNorm"
  bottom: "hourglass_1/fconv_B_4+"
  top: "hourglass_1/fconv_B_4+tmp"
}
layer {
  name: "hourglass_1/fconv_B_4+/bn_scale"
  type: "Scale"
  bottom: "hourglass_1/fconv_B_4+tmp"
  top: "hourglass_1/fconv_B_4+/bn"
  scale_param {
    bias_term: true
  }
}
layer {
  name: "hourglass_1/relu_B_4"
  type: "PReLU"
  bottom: "hourglass_1/fconv_B_4+/bn"
  top: "hourglass_1/fconv_B_4+/bn"
  param {
    lr_mult: 0
    decay_mult: 0
  }
}
layer {
  name: "hourglass_1/fconv_B_4to5_step1"
  type: "Convolution"
  bottom: "hourglass_1/fconv_B_4+/bn"
  top: "hourglass_1/fconv_B_4to5_step1"
  param {
    lr_mult: 0
    decay_mult: 1
  }
  convolution_param {
    num_output: 8
    bias_term: false
    pad: 3
    kernel_size: 7
    stride: 1
    weight_filler {
      type: "constant"
    }
  }
}
layer {
  name: "hourglass_1/fconv_B_4to5_step1/bn_batchmorn"
  type: "BatchNorm"
  bottom: "hourglass_1/fconv_B_4to5_step1"
  top: "hourglass_1/fconv_B_4to5_step1tmp"
}
layer {
  name: "hourglass_1/fconv_B_4to5_step1/bn_scale"
  type: "Scale"
  bottom: "hourglass_1/fconv_B_4to5_step1tmp"
  top: "hourglass_1/fconv_B_4to5_step1/bn"
  scale_param {
    bias_term: true
  }
}
layer {
  name: "hourglass_1/fconv_B_4to5_step1/bn/relu"
  type: "PReLU"
  bottom: "hourglass_1/fconv_B_4to5_step1/bn"
  top: "hourglass_1/fconv_B_4to5_step1/bn"
  param {
    lr_mult: 0
    decay_mult: 0
  }
}
layer {
  name: "hourglass_1/fconv_B_4to5_step2"
  type: "Convolution"
  bottom: "hourglass_1/fconv_B_4to5_step1/bn"
  top: "hourglass_1/fconv_B_4to5_step2"
  param {
    lr_mult: 0
    decay_mult: 1
  }
  convolution_param {
    num_output: 16
    bias_term: false
    pad: 3
    kernel_size: 7
    stride: 1
    weight_filler {
      type: "constant"
    }
  }
}
layer {
  name: "hourglass_1/fconv_B_hg1_4tohg2_4_step1"
  type: "Convolution"
  bottom: "hourglass_1/fconv_B_4+/bn"
  top: "hourglass_1/fconv_B_hg1_4tohg2_4_step1"
  param {
    lr_mult: 0
    decay_mult: 1
  }
  convolution_param {
    num_output: 8
    bias_term: false
    pad: 3
    kernel_size: 7
    stride: 1
    weight_filler {
      type: "constant"
    }
  }
}
layer {
  name: "hourglass_1/fconv_B_hg1_4tohg2_4_step1/bn_batchmorn"
  type: "BatchNorm"
  bottom: "hourglass_1/fconv_B_hg1_4tohg2_4_step1"
  top: "hourglass_1/fconv_B_hg1_4tohg2_4_step1tmp"
}
layer {
  name: "hourglass_1/fconv_B_hg1_4tohg2_4_step1/bn_scale"
  type: "Scale"
  bottom: "hourglass_1/fconv_B_hg1_4tohg2_4_step1tmp"
  top: "hourglass_1/fconv_B_hg1_4tohg2_4_step1/bn"
  scale_param {
    bias_term: true
  }
}
layer {
  name: "hourglass_1/fconv_B_hg1_4tohg2_4_step1/bn/relu"
  type: "PReLU"
  bottom: "hourglass_1/fconv_B_hg1_4tohg2_4_step1/bn"
  top: "hourglass_1/fconv_B_hg1_4tohg2_4_step1/bn"
  param {
    lr_mult: 0
    decay_mult: 0
  }
}
layer {
  name: "hourglass_1/fconv_B_hg1_4tohg2_4_step2"
  type: "Convolution"
  bottom: "hourglass_1/fconv_B_hg1_4tohg2_4_step1/bn"
  top: "hourglass_1/fconv_B_hg1_4tohg2_4_step2"
  param {
    lr_mult: 0
    decay_mult: 1
  }
  convolution_param {
    num_output: 16
    bias_term: false
    pad: 3
    kernel_size: 7
    stride: 1
    weight_filler {
      type: "constant"
    }
  }
}
layer {
  name: "hourglass_1/fconv_B_5"
  type: "Convolution"
  bottom: "hourglass_1/post/linear_1"
  top: "hourglass_1/fconv_B_5"
  param {
    lr_mult: 0
    decay_mult: 1
  }
  convolution_param {
    num_output: 16
    bias_term: false
    pad: 0
    kernel_size: 1
    stride: 1
    weight_filler {
      type: "constant"
    }
  }
}
layer {
  name: "hourglass_1/Pass_4to5"
  type: "Eltwise"
  bottom: "hourglass_1/fconv_B_4to5_step2"
  bottom: "hourglass_1/fconv_B_5"
  top: "hourglass_1/fconv_B_5+"
}
layer {
  name: "hourglass_1/fconv_B_5+/bn_batchmorn"
  type: "BatchNorm"
  bottom: "hourglass_1/fconv_B_5+"
  top: "hourglass_1/fconv_B_5+tmp"
}
layer {
  name: "hourglass_1/fconv_B_5+/bn_scale"
  type: "Scale"
  bottom: "hourglass_1/fconv_B_5+tmp"
  top: "hourglass_1/fconv_B_5+/bn"
  scale_param {
    bias_term: true
  }
}
layer {
  name: "hourglass_1/relu_B_5"
  type: "PReLU"
  bottom: "hourglass_1/fconv_B_5+/bn"
  top: "hourglass_1/fconv_B_5+/bn"
  param {
    lr_mult: 0
    decay_mult: 0
  }
}
layer {
  name: "hourglass_1/fconv_B_5to10_step1"
  type: "Convolution"
  bottom: "hourglass_1/fconv_B_5+/bn"
  top: "hourglass_1/fconv_B_5to10_step1"
  param {
    lr_mult: 0
    decay_mult: 1
  }
  convolution_param {
    num_output: 8
    bias_term: false
    pad: 3
    kernel_size: 7
    stride: 1
    weight_filler {
      type: "constant"
    }
  }
}
layer {
  name: "hourglass_1/fconv_B_5to10_step1/bn_batchmorn"
  type: "BatchNorm"
  bottom: "hourglass_1/fconv_B_5to10_step1"
  top: "hourglass_1/fconv_B_5to10_step1tmp"
}
layer {
  name: "hourglass_1/fconv_B_5to10_step1/bn_scale"
  type: "Scale"
  bottom: "hourglass_1/fconv_B_5to10_step1tmp"
  top: "hourglass_1/fconv_B_5to10_step1/bn"
  scale_param {
    bias_term: true
  }
}
layer {
  name: "hourglass_1/fconv_B_5to10_step1/bn/relu"
  type: "PReLU"
  bottom: "hourglass_1/fconv_B_5to10_step1/bn"
  top: "hourglass_1/fconv_B_5to10_step1/bn"
  param {
    lr_mult: 0
    decay_mult: 0
  }
}
layer {
  name: "hourglass_1/fconv_B_5to10_step2"
  type: "Convolution"
  bottom: "hourglass_1/fconv_B_5to10_step1/bn"
  top: "hourglass_1/fconv_B_5to10_step2"
  param {
    lr_mult: 0
    decay_mult: 1
  }
  convolution_param {
    num_output: 16
    bias_term: false
    pad: 3
    kernel_size: 7
    stride: 1
    weight_filler {
      type: "constant"
    }
  }
}
layer {
  name: "hourglass_1/fconv_B_hg1_5tohg2_5_step1"
  type: "Convolution"
  bottom: "hourglass_1/fconv_B_5+/bn"
  top: "hourglass_1/fconv_B_hg1_5tohg2_5_step1"
  param {
    lr_mult: 0
    decay_mult: 1
  }
  convolution_param {
    num_output: 8
    bias_term: false
    pad: 3
    kernel_size: 7
    stride: 1
    weight_filler {
      type: "constant"
    }
  }
}
layer {
  name: "hourglass_1/fconv_B_hg1_5tohg2_5_step1/bn_batchmorn"
  type: "BatchNorm"
  bottom: "hourglass_1/fconv_B_hg1_5tohg2_5_step1"
  top: "hourglass_1/fconv_B_hg1_5tohg2_5_step1tmp"
}
layer {
  name: "hourglass_1/fconv_B_hg1_5tohg2_5_step1/bn_scale"
  type: "Scale"
  bottom: "hourglass_1/fconv_B_hg1_5tohg2_5_step1tmp"
  top: "hourglass_1/fconv_B_hg1_5tohg2_5_step1/bn"
  scale_param {
    bias_term: true
  }
}
layer {
  name: "hourglass_1/fconv_B_hg1_5tohg2_5_step1/bn/relu"
  type: "PReLU"
  bottom: "hourglass_1/fconv_B_hg1_5tohg2_5_step1/bn"
  top: "hourglass_1/fconv_B_hg1_5tohg2_5_step1/bn"
  param {
    lr_mult: 0
    decay_mult: 0
  }
}
layer {
  name: "hourglass_1/fconv_B_hg1_5tohg2_5_step2"
  type: "Convolution"
  bottom: "hourglass_1/fconv_B_hg1_5tohg2_5_step1/bn"
  top: "hourglass_1/fconv_B_hg1_5tohg2_5_step2"
  param {
    lr_mult: 0
    decay_mult: 1
  }
  convolution_param {
    num_output: 16
    bias_term: false
    pad: 3
    kernel_size: 7
    stride: 1
    weight_filler {
      type: "constant"
    }
  }
}
layer {
  name: "hourglass_1/fconv_B_10"
  type: "Convolution"
  bottom: "hourglass_1/post/linear_1"
  top: "hourglass_1/fconv_B_10"
  param {
    lr_mult: 0
    decay_mult: 1
  }
  convolution_param {
    num_output: 16
    bias_term: false
    pad: 0
    kernel_size: 1
    stride: 1
    weight_filler {
      type: "constant"
    }
  }
}
layer {
  name: "hourglass_1/Pass_5to10"
  type: "Eltwise"
  bottom: "hourglass_1/fconv_B_5to10_step2"
  bottom: "hourglass_1/fconv_B_10"
  top: "hourglass_1/fconv_B_10+"
}
layer {
  name: "hourglass_1/fconv_B_10+/bn_batchmorn"
  type: "BatchNorm"
  bottom: "hourglass_1/fconv_B_10+"
  top: "hourglass_1/fconv_B_10+tmp"
}
layer {
  name: "hourglass_1/fconv_B_10+/bn_scale"
  type: "Scale"
  bottom: "hourglass_1/fconv_B_10+tmp"
  top: "hourglass_1/fconv_B_10+/bn"
  scale_param {
    bias_term: true
  }
}
layer {
  name: "hourglass_1/relu_B_10"
  type: "PReLU"
  bottom: "hourglass_1/fconv_B_10+/bn"
  top: "hourglass_1/fconv_B_10+/bn"
  param {
    lr_mult: 0
    decay_mult: 0
  }
}
layer {
  name: "hourglass_1/fconv_B_10to11_step1"
  type: "Convolution"
  bottom: "hourglass_1/fconv_B_10+/bn"
  top: "hourglass_1/fconv_B_10to11_step1"
  param {
    lr_mult: 0
    decay_mult: 1
  }
  convolution_param {
    num_output: 8
    bias_term: false
    pad: 3
    kernel_size: 7
    stride: 1
    weight_filler {
      type: "constant"
    }
  }
}
layer {
  name: "hourglass_1/fconv_B_10to11_step1/bn_batchmorn"
  type: "BatchNorm"
  bottom: "hourglass_1/fconv_B_10to11_step1"
  top: "hourglass_1/fconv_B_10to11_step1tmp"
}
layer {
  name: "hourglass_1/fconv_B_10to11_step1/bn_scale"
  type: "Scale"
  bottom: "hourglass_1/fconv_B_10to11_step1tmp"
  top: "hourglass_1/fconv_B_10to11_step1/bn"
  scale_param {
    bias_term: true
  }
}
layer {
  name: "hourglass_1/fconv_B_10to11_step1/bn/relu"
  type: "PReLU"
  bottom: "hourglass_1/fconv_B_10to11_step1/bn"
  top: "hourglass_1/fconv_B_10to11_step1/bn"
  param {
    lr_mult: 0
    decay_mult: 0
  }
}
layer {
  name: "hourglass_1/fconv_B_10to11_step2"
  type: "Convolution"
  bottom: "hourglass_1/fconv_B_10to11_step1/bn"
  top: "hourglass_1/fconv_B_10to11_step2"
  param {
    lr_mult: 0
    decay_mult: 1
  }
  convolution_param {
    num_output: 16
    bias_term: false
    pad: 3
    kernel_size: 7
    stride: 1
    weight_filler {
      type: "constant"
    }
  }
}
layer {
  name: "hourglass_1/fconv_B_hg1_10tohg2_10_step1"
  type: "Convolution"
  bottom: "hourglass_1/fconv_B_10+/bn"
  top: "hourglass_1/fconv_B_hg1_10tohg2_10_step1"
  param {
    lr_mult: 0
    decay_mult: 1
  }
  convolution_param {
    num_output: 8
    bias_term: false
    pad: 3
…
  convolution_param {
    num_output: 16
    bias_term: false
    pad: 0
    kernel_size: 1
    stride: 1
    weight_filler {
      type: "constant"
    }
  }
}
layer {
  name: "res2_2/branch1/conv1_1x1/bn_batchmorn"
  type: "BatchNorm"
  bottom: "res2_2/branch1/conv1_1x1"
  top: "res2_2/branch1/conv1_1x1tmp"
}
layer {
  name: "res2_2/branch1/conv1_1x1/bn_scale"
  type: "Scale"
  bottom: "res2_2/branch1/conv1_1x1tmp"
  top: "res2_2/branch1/conv1_1x1/bn"
  scale_param {
    bias_term: true
  }
}
layer {
  name: "res2_2/branch1/conv1_1x1/bn/relu"
  type: "PReLU"
  bottom: "res2_2/branch1/conv1_1x1/bn"
  top: "res2_2/branch1/conv1_1x1/bn"
  param {
    lr_mult: 1
    decay_mult: 0
  }
}
layer {
  name: "res2_2/branch1/conv2_3x3"
  type: "Convolution"
  bottom: "res2_2/branch1/conv1_1x1/bn"
  top: "res2_2/branch1/conv2_3x3"
  param {
    lr_mult: 1
    decay_mult: 1
  }
  convolution_param {
    num_output: 16
    bias_term: false
    pad: 1
    kernel_size: 3
    stride: 1
    weight_filler {
      type: "constant"
    }
  }
}
layer {
  name: "res2_2/branch1/conv2_3x3/bn_batchmorn"
  type: "BatchNorm"
  bottom: "res2_2/branch1/conv2_3x3"
  top: "res2_2/branch1/conv2_3x3tmp"
}
layer {
  name: "res2_2/branch1/conv2_3x3/bn_scale"
  type: "Scale"
  bottom: "res2_2/branch1/conv2_3x3tmp"
  top: "res2_2/branch1/conv2_3x3/bn"
  scale_param {
    bias_term: true
  }
}
layer {
  name: "res2_2/branch1/conv2_3x3/bn/relu"
  type: "PReLU"
  bottom: "res2_2/branch1/conv2_3x3/bn"
  top: "res2_2/branch1/conv2_3x3/bn"
  param {
    lr_mult: 1
    decay_mult: 0
  }
}
layer {
  name: "res2_2/branch1/conv3_1x1"
  type: "Convolution"
  bottom: "res2_2/branch1/conv2_3x3/bn"
  top: "res2_2/branch1/conv3_1x1"
  param {
    lr_mult: 1
    decay_mult: 1
  }
  convolution_param {
    num_output: 64
    bias_term: false
    pad: 0
    kernel_size: 1
    stride: 1
    weight_filler {
      type: "constant"
    }
  }
}
layer {
  name: "res2_2"
  type: "Eltwise"
  bottom: "res2_2/branch1/conv3_1x1"
  bottom: "res2_1"
  top: "res2_2"
  eltwise_param {
    operation: SUM
  }
}
layer {
  name: "hourglass_4/pred_heatmap/32x32"
  type: "Interp"
  bottom: "hourglass_4/pred_heatmap/+"
  bottom: "res2_2"
  top: "hourglass_4/pred_heatmap/32x32"
}
layer {
  name: "res2_2/concat"
  type: "Concat"
  bottom: "hourglass_4/pred_heatmap/32x32"
  bottom: "res2_2"
  top: "res2_2/concat"
}
layer {
  name: "res2_2/concat/bn_batchmorn"
  type: "BatchNorm"
  bottom: "res2_2/concat"
  top: "res2_2/concattmp"
}
layer {
  name: "res2_2/concat/bn_scale"
  type: "Scale"
  bottom: "res2_2/concattmp"
  top: "res2_2/concat/bn"
  scale_param {
    bias_term: true
  }
}
layer {
  name: "res2_2/concat/bn/relu"
  type: "PReLU"
  bottom: "res2_2/concat/bn"
  top: "res2_2/concat/bn"
  param {
    lr_mult: 1
    decay_mult: 0
  }
}
layer {
  name: "res2_2/concat/bn/linear"
  type: "Convolution"
  bottom: "res2_2/concat/bn"
  top: "res2_2/concat/bn/linear"
  param {
    lr_mult: 1
    decay_mult: 1
  }
  convolution_param {
    num_output: 64
    bias_term: false
    pad: 0
    kernel_size: 1
    stride: 1
    weight_filler {
      type: "constant"
    }
  }
}
layer {
  name: "AttentionB_1/mask/down_sample/pool1_3x3_s2"
  type: "Pooling"
  bottom: "res2_2/concat/bn/linear"
  top: "AttentionB_1/mask/down_sample/pool1_3x3_s2"
  pooling_param {
    pool: MAX
    kernel_size: 3
    stride: 2
  }
}
layer {
  name: "AttentionB_1/mask/down_sample/pool1_3x3_s2/bn_batchmorn"
  type: "BatchNorm"
  bottom: "AttentionB_1/mask/down_sample/pool1_3x3_s2"
  top: "AttentionB_1/mask/down_sample/pool1_3x3_s2tmp"
}
layer {
  name: "AttentionB_1/mask/down_sample/pool1_3x3_s2/bn_scale"
  type: "Scale"
  bottom: "AttentionB_1/mask/down_sample/pool1_3x3_s2tmp"
  top: "AttentionB_1/mask/down_sample/pool1_3x3_s2/bn"
  scale_param {
    bias_term: true
  }
}
layer {
  name: "AttentionB_1/mask/down_sample/pool1_3x3_s2/bn/relu"
  type: "PReLU"
  bottom: "AttentionB_1/mask/down_sample/pool1_3x3_s2/bn"
  top: "AttentionB_1/mask/down_sample/pool1_3x3_s2/bn"
  param {
    lr_mult: 1
    decay_mult: 0
  }
}
layer {
  name: "AttentionB_1/mask/down_sample/res1_1/branch1/conv1_1x1"
  type: "Convolution"
  bottom: "AttentionB_1/mask/down_sample/pool1_3x3_s2/bn"
  top: "AttentionB_1/mask/down_sample/res1_1/branch1/conv1_1x1"
  param {
    lr_mult: 1
    decay_mult: 1
  }
  convolution_param {
    num_output: 16
    bias_term: false
    pad: 0
    kernel_size: 1
    stride: 1
    weight_filler {
      type: "constant"
    }
  }
}
layer {
  name: "AttentionB_1/mask/down_sample/res1_1/branch1/conv1_1x1/bn_batchmorn"
  type: "BatchNorm"
  bottom: "AttentionB_1/mask/down_sample/res1_1/branch1/conv1_1x1"
  top: "AttentionB_1/mask/down_sample/res1_1/branch1/conv1_1x1tmp"
}
layer {
  name: "AttentionB_1/mask/down_sample/res1_1/branch1/conv1_1x1/bn_scale"
  type: "Scale"
  bottom: "AttentionB_1/mask/down_sample/res1_1/branch1/conv1_1x1tmp"
  top: "AttentionB_1/mask/down_sample/res1_1/branch1/conv1_1x1/bn"
  scale_param {
    bias_term: true
  }
}
layer {
  name: "AttentionB_1/mask/down_sample/res1_1/branch1/conv1_1x1/bn/relu"
  type: "PReLU"
  bottom: "AttentionB_1/mask/down_sample/res1_1/branch1/conv1_1x1/bn"
  top: "AttentionB_1/mask/down_sample/res1_1/branch1/conv1_1x1/bn"
  param {
    lr_mult: 1
    decay_mult: 0
  }
}
layer {
  name: "AttentionB_1/mask/down_sample/res1_1/branch1/conv2_3x3"
  type: "Convolution"
  bottom: "AttentionB_1/mask/down_sample/res1_1/branch1/conv1_1x1/bn"
  top: "AttentionB_1/mask/down_sample/res1_1/branch1/conv2_3x3"
  param {
    lr_mult: 1
    decay_mult: 1
  }
  convolution_param {
    num_output: 16
    bias_term: false
    pad: 1
    kernel_size: 3
    stride: 1
    weight_filler {
      type: "constant"
    }
  }
}
layer {
  name: "AttentionB_1/mask/down_sample/res1_1/branch1/conv2_3x3/bn_batchmorn"
  type: "BatchNorm"
  bottom: "AttentionB_1/mask/down_sample/res1_1/branch1/conv2_3x3"
  top: "AttentionB_1/mask/down_sample/res1_1/branch1/conv2_3x3tmp"
}
layer {
  name: "AttentionB_1/mask/down_sample/res1_1/branch1/conv2_3x3/bn_scale"
  type: "Scale"
  bottom: "AttentionB_1/mask/down_sample/res1_1/branch1/conv2_3x3tmp"
  top: "AttentionB_1/mask/down_sample/res1_1/branch1/conv2_3x3/bn"
  scale_param {
    bias_term: true
  }
}
layer {
  name: "AttentionB_1/mask/down_sample/res1_1/branch1/conv2_3x3/bn/relu"
  type: "PReLU"
  bottom: "AttentionB_1/mask/down_sample/res1_1/branch1/conv2_3x3/bn"
  top: "AttentionB_1/mask/down_sample/res1_1/branch1/conv2_3x3/bn"
  param {
    lr_mult: 1
    decay_mult: 0
  }
}
layer {
  name: "AttentionB_1/mask/down_sample/res1_1/branch1/conv3_1x1"
  type: "Convolution"
  bottom: "AttentionB_1/mask/down_sample/res1_1/branch1/conv2_3x3/bn"
  top: "AttentionB_1/mask/down_sample/res1_1/branch1/conv3_1x1"
  param {
    lr_mult: 1
    decay_mult: 1
  }
  convolution_param {
    num_output: 64
    bias_term: false
    pad: 0
    kernel_size: 1
    stride: 1
    weight_filler {
      type: "constant"
    }
  }
}
layer {
  name: "AttentionB_1/mask/down_sample/res1_1"
  type: "Eltwise"
  bottom: "AttentionB_1/mask/down_sample/res1_1/branch1/conv3_1x1"
  bottom: "AttentionB_1/mask/down_sample/pool1_3x3_s2"
  top: "AttentionB_1/mask/down_sample/res1_1"
  eltwise_param {
    operation: SUM
  }
}
layer {
  name: "AttentionB_1/mask/down_sample/pool2_3x3_s2"
  type: "Pooling"
  bottom: "AttentionB_1/mask/down_sample/res1_1"
  top: "AttentionB_1/mask/down_sample/pool2_3x3_s2"
  pooling_param {
    pool: MAX
    kernel_size: 3
    stride: 2
  }
}
layer {
  name: "AttentionB_1/mask/down_sample/pool2_3x3_s2/bn_batchmorn"
  type: "BatchNorm"
  bottom: "AttentionB_1/mask/down_sample/pool2_3x3_s2"
  top: "AttentionB_1/mask/down_sample/pool2_3x3_s2tmp"
}
layer {
  name: "AttentionB_1/mask/down_sample/pool2_3x3_s2/bn_scale"
  type: "Scale"
  bottom: "AttentionB_1/mask/down_sample/pool2_3x3_s2tmp"
  top: "AttentionB_1/mask/down_sample/pool2_3x3_s2/bn"
  scale_param {
    bias_term: true
  }
}
layer {
  name: "AttentionB_1/mask/down_sample/pool2_3x3_s2/bn/relu"
  type: "PReLU"
  bottom: "AttentionB_1/mask/down_sample/pool2_3x3_s2/bn"
  top: "AttentionB_1/mask/down_sample/pool2_3x3_s2/bn"
  param {
    lr_mult: 1
    decay_mult: 0
  }
}
layer {
  name: "AttentionB_1/mask/down_sample/res2_1/branch1/conv1_1x1"
  type: "Convolution"
  bottom: "AttentionB_1/mask/down_sample/pool2_3x3_s2/bn"
  top: "AttentionB_1/mask/down_sample/res2_1/branch1/conv1_1x1"
  param {
    lr_mult: 1
    decay_mult: 1
  }
  convolution_param {
    num_output: 16
    bias_term: false
    pad: 0
    kernel_size: 1
    stride: 1
    weight_filler {
      type: "constant"
    }
  }
}
layer {
  name: "AttentionB_1/mask/down_sample/res2_1/branch1/conv1_1x1/bn_batchmorn"
  type: "BatchNorm"
  bottom: "AttentionB_1/mask/down_sample/res2_1/branch1/conv1_1x1"
  top: "AttentionB_1/mask/down_sample/res2_1/branch1/conv1_1x1tmp"
}
layer {
  name: "AttentionB_1/mask/down_sample/res2_1/branch1/conv1_1x1/bn_scale"
  type: "Scale"
  bottom: "AttentionB_1/mask/down_sample/res2_1/branch1/conv1_1x1tmp"
  top: "AttentionB_1/mask/down_sample/res2_1/branch1/conv1_1x1/bn"
  scale_param {
    bias_term: true
  }
}
layer {
  name: "AttentionB_1/mask/down_sample/res2_1/branch1/conv1_1x1/bn/relu"
  type: "PReLU"
  bottom: "AttentionB_1/mask/down_sample/res2_1/branch1/conv1_1x1/bn"
  top: "AttentionB_1/mask/down_sample/res2_1/branch1/conv1_1x1/bn"
  param {
    lr_mult: 1
    decay_mult: 0
  }
}
layer {
  name: "AttentionB_1/mask/down_sample/res2_1/branch1/conv2_3x3"
  type: "Convolution"
  bottom: "AttentionB_1/mask/down_sample/res2_1/branch1/conv1_1x1/bn"
  top: "AttentionB_1/mask/down_sample/res2_1/branch1/conv2_3x3"
  param {
    lr_mult: 1
    decay_mult: 1
  }
  convolution_param {
    num_output: 16
    bias_term: false
    pad: 1
    kernel_size: 3
    stride: 1
    weight_filler {
      type: "constant"
    }
  }
}
layer {
  name: "AttentionB_1/mask/down_sample/res2_1/branch1/conv2_3x3/bn_batchmorn"
  type: "BatchNorm"
  bottom: "AttentionB_1/mask/down_sample/res2_1/branch1/conv2_3x3"
  top: "AttentionB_1/mask/down_sample/res2_1/branch1/conv2_3x3tmp"
}
layer {
  name: "AttentionB_1/mask/down_sample/res2_1/branch1/conv2_3x3/bn_scale"
  type: "Scale"
  bottom: "AttentionB_1/mask/down_sample/res2_1/branch1/conv2_3x3tmp"
  top: "AttentionB_1/mask/down_sample/res2_1/branch1/conv2_3x3/bn"
  scale_param {
    bias_term: true
  }
}
layer {
  name: "AttentionB_1/mask/down_sample/res2_1/branch1/conv2_3x3/bn/relu"
  type: "PReLU"
  bottom: "AttentionB_1/mask/down_sample/res2_1/branch1/conv2_3x3/bn"
  top: "AttentionB_1/mask/down_sample/res2_1/branch1/conv2_3x3/bn"
  param {
    lr_mult: 1
    decay_mult: 0
  }
}
layer {
  name: "AttentionB_1/mask/down_sample/res2_1/branch1/conv3_1x1"
  type: "Convolution"
  bottom: "AttentionB_1/mask/down_sample/res2_1/branch1/conv2_3x3/bn"
  top: "AttentionB_1/mask/down_sample/res2_1/branch1/conv3_1x1"
  param {
    lr_mult: 1
    decay_mult: 1
  }
  convolution_param {
    num_output: 64
    bias_term: false
    pad: 0
    kernel_size: 1
    stride: 1
    weight_filler {
      type: "constant"
    }
  }
}
layer {
  name: "AttentionB_1/mask/down_sample/res2_1"
  type: "Eltwise"
  bottom: "AttentionB_1/mask/down_sample/res2_1/branch1/conv3_1x1"
  bottom: "AttentionB_1/mask/down_sample/pool2_3x3_s2"
  top: "AttentionB_1/mask/down_sample/res2_1"
  eltwise_param {
    operation: SUM
  }
}
layer {
  name: "AttentionB_1/mask/down_sample/res2_1/bn_batchmorn"
  type: "BatchNorm"
  bottom: "AttentionB_1/mask/down_sample/res2_1"
  top: "AttentionB_1/mask/down_sample/res2_1tmp"
}
layer {
  name: "AttentionB_1/mask/down_sample/res2_1/bn_scale"
  type: "Scale"
  bottom: "AttentionB_1/mask/down_sample/res2_1tmp"
  top: "AttentionB_1/mask/down_sample/res2_1/bn"
  scale_param {
    bias_term: true
  }
}
layer {
  name: "AttentionB_1/mask/down_sample/res2_1/bn/relu"
  type: "PReLU"
  bottom: "AttentionB_1/mask/down_sample/res2_1/bn"
  top: "AttentionB_1/mask/down_sample/res2_1/bn"
  param {
    lr_mult: 1
    decay_mult: 0
  }
}
layer {
  name: "AttentionB_1/mask/down_sample/res2_2/branch1/conv1_1x1"
  type: "Convolution"
  bottom: "AttentionB_1/mask/down_sample/res2_1/bn"
  top: "AttentionB_1/mask/down_sample/res2_2/branch1/conv1_1x1"
  param {
    lr_mult: 1
    decay_mult: 1
  }
  convolution_param {
    num_output: 16
    bias_term: false
    pad: 0
    kernel_size: 1
    stride: 1
    weight_filler {
      type: "constant"
    }
  }
}
layer {
  name: "AttentionB_1/mask/down_sample/res2_2/branch1/conv1_1x1/bn_batchmorn"
  type: "BatchNorm"
  bottom: "AttentionB_1/mask/down_sample/res2_2/branch1/conv1_1x1"
  top: "AttentionB_1/mask/down_sample/res2_2/branch1/conv1_1x1tmp"
}
layer {
  name: "AttentionB_1/mask/down_sample/res2_2/branch1/conv1_1x1/bn_scale"
  type: "Scale"
  bottom: "AttentionB_1/mask/down_sample/res2_2/branch1/conv1_1x1tmp"
  top: "AttentionB_1/mask/down_sample/res2_2/branch1/conv1_1x1/bn"
  scale_param {
    bias_term: true
  }
}
layer {
  name: "AttentionB_1/mask/down_sample/res2_2/branch1/conv1_1x1/bn/relu"
  type: "PReLU"
  bottom: "AttentionB_1/mask/down_sample/res2_2/branch1/conv1_1x1/bn"
  top: "AttentionB_1/mask/down_sample/res2_2/branch1/conv1_1x1/bn"
  param {
    lr_mult: 1
    decay_mult: 0
  }
}
layer {
  name: "AttentionB_1/mask/down_sample/res2_2/branch1/conv2_3x3"
  type: "Convolution"
  bottom: "AttentionB_1/mask/down_sample/res2_2/branch1/conv1_1x1/bn"
  top: "AttentionB_1/mask/down_sample/res2_2/branch1/conv2_3x3"
  param {
    lr_mult: 1
    decay_mult: 1
  }
  convolution_param {
    num_output: 16
    bias_term: false
    pad: 1
    kernel_size: 3
    stride: 1
    weight_filler {
      type: "constant"
    }
  }
}
layer {
  name: "AttentionB_1/mask/down_sample/res2_2/branch1/conv2_3x3/bn_batchmorn"
  type: "BatchNorm"
  bottom: "AttentionB_1/mask/down_sample/res2_2/branch1/conv2_3x3"
  top: "AttentionB_1/mask/down_sample/res2_2/branch1/conv2_3x3tmp"
}
layer {
  name: "AttentionB_1/mask/down_sample/res2_2/branch1/conv2_3x3/bn_scale"
  type: "Scale"
  bottom: "AttentionB_1/mask/down_sample/res2_2/branch1/conv2_3x3tmp"
  top: "AttentionB_1/mask/down_sample/res2_2/branch1/conv2_3x3/bn"
  scale_param {
    bias_term: true
  }
}
layer {
  name: "AttentionB_1/mask/down_sample/res2_2/branch1/conv2_3x3/bn/relu"
  type: "PReLU"
  bottom: "AttentionB_1/mask/down_sample/res2_2/branch1/conv2_3x3/bn"
  top: "AttentionB_1/mask/down_sample/res2_2/branch1/conv2_3x3/bn"
  param {
    lr_mult: 1
    decay_mult: 0
  }
}
layer {
  name: "AttentionB_1/mask/down_sample/res2_2/branch1/conv3_1x1"
  type: "Convolution"
  bottom: "AttentionB_1/mask/down_sample/res2_2/branch1/conv2_3x3/bn"
  top: "AttentionB_1/mask/down_sample/res2_2/branch1/conv3_1x1"
  param {
    lr_mult: 1
    decay_mult: 1
  }
  convolution_param {
    num_output: 64
    bias_term: false
    pad: 0
    kernel_size: 1
    stride: 1
    weight_filler {
      type: "constant"
    }
  }
}
layer {
  name: "AttentionB_1/mask/down_sample/res2_2"
  type: "Eltwise"
  bottom: "AttentionB_1/mask/down_sample/res2_2/branch1/conv3_1x1"
  bottom: "AttentionB_1/mask/down_sample/res2_1"
  top: "AttentionB_1/mask/down_sample/res2_2"
  eltwise_param {
    operation: SUM
  }
}
layer {
  name: "AttentionB_1/mask/up_sample/interp_2"
  type: "Interp"
  bottom: "AttentionB_1/mask/down_sample/res2_2"
  bottom: "AttentionB_1/mask/down_sample/res1_1"
  top: "AttentionB_1/mask/up_sample/interp_2"
}
layer {
  name: "AttentionB_1/mask/down_sample/res1_1/bn_batchmorn"
  type: "BatchNorm"
  bottom: "AttentionB_1/mask/down_sample/res1_1"
  top: "AttentionB_1/mask/down_sample/res1_1tmp"
}
layer {
  name: "AttentionB_1/mask/down_sample/res1_1/bn_scale"
  type: "Scale"
  bottom: "AttentionB_1/mask/down_sample/res1_1tmp"
  top: "AttentionB_1/mask/down_sample/res1_1/bn"
  scale_param {
    bias_term: true
  }
}
layer {
  name: "AttentionB_1/mask/down_sample/res1_1/bn/relu"
  type: "PReLU"
  bottom: "AttentionB_1/mask/down_sample/res1_1/bn"
  top: "AttentionB_1/mask/down_sample/res1_1/bn"
  param {
    lr_mult: 1
    decay_mult: 0
  }
}
layer {
  name: "AttentionB_1/mask/skip/res1/branch1/conv1_1x1"
  type: "Convolution"
  bottom: "AttentionB_1/mask/down_sample/res1_1/bn"
  top: "AttentionB_1/mask/skip/res1/branch1/conv1_1x1"
  param {
    lr_mult: 1
    decay_mult: 1
  }
  convolution_param {
    num_output: 16
    bias_term: false
    pad: 0
    kernel_size: 1
    stride: 1
    weight_filler {
      type: "constant"
    }
  }
}
layer {
  name: "AttentionB_1/mask/skip/res1/branch1/conv1_1x1/bn_batchmorn"
  type: "BatchNorm"
  bottom: "AttentionB_1/mask/skip/res1/branch1/conv1_1x1"
  top: "AttentionB_1/mask/skip/res1/branch1/conv1_1x1tmp"
}
layer {
  name: "AttentionB_1/mask/skip/res1/branch1/conv1_1x1/bn_scale"
  type: "Scale"
  bottom: "AttentionB_1/mask/skip/res1/branch1/conv1_1x1tmp"
  top: "AttentionB_1/mask/skip/res1/branch1/conv1_1x1/bn"
  scale_param {
    bias_term: true
  }
}
layer {
  name: "AttentionB_1/mask/skip/res1/branch1/conv1_1x1/bn/relu"
  type: "PReLU"
  bottom: "AttentionB_1/mask/skip/res1/branch1/conv1_1x1/bn"
  top: "AttentionB_1/mask/skip/res1/branch1/conv1_1x1/bn"
  param {
    lr_mult: 1
    decay_mult: 0
  }
}
layer {
  name: "AttentionB_1/mask/skip/res1/branch1/conv2_3x3"
  type: "Convolution"
  bottom: "AttentionB_1/mask/skip/res1/branch1/conv1_1x1/bn"
  top: "AttentionB_1/mask/skip/res1/branch1/conv2_3x3"
  param {
    lr_mult: 1
    decay_mult: 1
  }
  convolution_param {
    num_output: 16
    bias_term: false
    pad: 1
    kernel_size: 3
    stride: 1
    weight_filler {
      type: "constant"
    }
  }
}
layer {
  name: "AttentionB_1/mask/skip/res1/branch1/conv2_3x3/bn_batchmorn"
  type: "BatchNorm"
  bottom: "AttentionB_1/mask/skip/res1/branch1/conv2_3x3"
  top: "AttentionB_1/mask/skip/res1/branch1/conv2_3x3tmp"
}
layer {
  name: "AttentionB_1/mask/skip/res1/branch1/conv2_3x3/bn_scale"
  type: "Scale"
  bottom: "AttentionB_1/mask/skip/res1/branch1/conv2_3x3tmp"
  top: "AttentionB_1/mask/skip/res1/branch1/conv2_3x3/bn"
  scale_param {
    bias_term: true
  }
}
layer {
  name: "AttentionB_1/mask/skip/res1/branch1/conv2_3x3/bn/relu"
  type: "PReLU"
  bottom: "AttentionB_1/mask/skip/res1/branch1/conv2_3x3/bn"
  top: "AttentionB_1/mask/skip/res1/branch1/conv2_3x3/bn"
  param {
    lr_mult: 1
    decay_mult: 0
  }
}
layer {
  name: "AttentionB_1/mask/skip/res1/branch1/conv3_1x1"
  type: "Convolution"
  bottom: "AttentionB_1/mask/skip/res1/branch1/conv2_3x3/bn"
  top: "AttentionB_1/mask/skip/res1/branch1/conv3_1x1"
  param {
    lr_mult: 1
    decay_mult: 1
  }
  convolution_param {
    num_output: 64
    bias_term: false
    pad: 0
    kernel_size: 1
    stride: 1
    weight_filler {
      type: "constant"
    }
  }
}
layer {
  name: "AttentionB_1/mask/skip/res1"
  type: "Eltwise"
  bottom: "AttentionB_1/mask/skip/res1/branch1/conv3_1x1"
  bottom: "AttentionB_1/mask/down_sample/res1_1"
  top: "AttentionB_1/mask/skip/res1"
  eltwise_param {
    operation: SUM
  }
}
layer {
  name: "AttentionB_1/mask/up_sample1"
  type: "Eltwise"
  bottom: "AttentionB_1/mask/skip/res1"
  bottom: "AttentionB_1/mask/up_sample/interp_2"
  top: "AttentionB_1/mask/up_sample1"
  eltwise_param {
    operation: SUM
  }
}
layer {
  name: "AttentionB_1/mask/up_sample1/bn_batchmorn"
  type: "BatchNorm"
  bottom: "AttentionB_1/mask/up_sample1"
  top: "AttentionB_1/mask/up_sample1tmp"
}
layer {
  name: "AttentionB_1/mask/up_sample1/bn_scale"
  type: "Scale"
  bottom: "AttentionB_1/mask/up_sample1tmp"
  top: "AttentionB_1/mask/up_sample1/bn"
  scale_param {
    bias_term: true
  }
}
layer {
  name: "AttentionB_1/mask/up_sample1/bn/relu"
  type: "PReLU"
  bottom: "AttentionB_1/mask/up_sample1/bn"
  top: "AttentionB_1/mask/up_sample1/bn"
  param {
    lr_mult: 1
    decay_mult: 0
  }
}
layer {
  name: "AttentionB_1/mask/up_sample/res1_1/branch1/conv1_1x1"
  type: "Convolution"
  bottom: "AttentionB_1/mask/up_sample1/bn"
  top: "AttentionB_1/mask/up_sample/res1_1/branch1/conv1_1x1"
  param {
    lr_mult: 1
    decay_mult: 1
  }
  convolution_param {
    num_output: 16
    bias_term: false
    pad: 0
    kernel_size: 1
    stride: 1
    weight_filler {
      type: "constant"
    }
  }
}
layer {
  name: "AttentionB_1/mask/up_sample/res1_1/branch1/conv1_1x1/bn_batchmorn"
  type: "BatchNorm"
  bottom: "AttentionB_1/mask/up_sample/res1_1/branch1/conv1_1x1"
  top: "AttentionB_1/mask/up_sample/res1_1/branch1/conv1_1x1tmp"
}
layer {
  name: "AttentionB_1/mask/up_sample/res1_1/branch1/conv1_1x1/bn_scale"
  type: "Scale"
  bottom: "AttentionB_1/mask/up_sample/res1_1/branch1/conv1_1x1tmp"
  top: "AttentionB_1/mask/up_sample/res1_1/branch1/conv1_1x1/bn"
  scale_param {
    bias_term: true
  }
}
layer {
  name: "AttentionB_1/mask/up_sample/res1_1/branch1/conv1_1x1/bn/relu"
  type: "PReLU"
  bottom: "AttentionB_1/mask/up_sample/res1_1/branch1/conv1_1x1/bn"
  top: "AttentionB_1/mask/up_sample/res1_1/branch1/conv1_1x1/bn"
  param {
    lr_mult: 1
    decay_mult: 0
  }
}
layer {
  name: "AttentionB_1/mask/up_sample/res1_1/branch1/conv2_3x3"
  type: "Convolution"
  bottom: "AttentionB_1/mask/up_sample/res1_1/branch1/conv1_1x1/bn"
  top: "AttentionB_1/mask/up_sample/res1_1/branch1/conv2_3x3"
  param {
    lr_mult: 1
    decay_mult: 1
  }
  convolution_param {
    num_output: 16
    bias_term: false
    pad: 1
    kernel_size: 3
    stride: 1
    weight_filler {
      type: "constant"
    }
  }
}
layer {
  name: "AttentionB_1/mask/up_sample/res1_1/branch1/conv2_3x3/bn_batchmorn"
  type: "BatchNorm"
  bottom: "AttentionB_1/mask/up_sample/res1_1/branch1/conv2_3x3"
  top: "AttentionB_1/mask/up_sample/res1_1/branch1/conv2_3x3tmp"
}
layer {
  name: "AttentionB_1/mask/up_sample/res1_1/branch1/conv2_3x3/bn_scale"
  type: "Scale"
  bottom: "AttentionB_1/mask/up_sample/res1_1/branch1/conv2_3x3tmp"
  top: "AttentionB_1/mask/up_sample/res1_1/branch1/conv2_3x3/bn"
  scale_param {
    bias_term: true
  }
}
layer {
  name: "AttentionB_1/mask/up_sample/res1_1/branch1/conv2_3x3/bn/relu"
  type: "PReLU"
  bottom: "AttentionB_1/mask/up_sample/res1_1/branch1/conv2_3x3/bn"
  top: "AttentionB_1/mask/up_sample/res1_1/branch1/conv2_3x3/bn"
  param {
    lr_mult: 1
    decay_mult: 0
  }
}
layer {
  name: "AttentionB_1/mask/up_sample/res1_1/branch1/conv3_1x1"
  type: "Convolution"
  bottom: "AttentionB_1/mask/up_sample/res1_1/branch1/conv2_3x3/bn"
  top: "AttentionB_1/mask/up_sample/res1_1/branch1/conv3_1x1"
  param {
    lr_mult: 1
    decay_mult: 1
  }
  convolution_param {
    num_output: 64
    bias_term: false
    pad: 0
    kernel_size: 1
    stride: 1
    weight_filler {
      type: "constant"
    }
  }
}
layer {
  name: "AttentionB_1/mask/up_sample/res1_1"
  type: "Eltwise"
  bottom: "AttentionB_1/mask/up_sample/res1_1/branch1/conv3_1x1"
  bottom: "AttentionB_1/mask/up_sample1"
  top: "AttentionB_1/mask/up_sample/res1_1"
  eltwise_param {
    operation: SUM
  }
}
layer {
  name: "AttentionB_1/mask/up_sample/interp_1"
  type: "Interp"
  bottom: "AttentionB_1/mask/up_sample/res1_1"
  bottom: "res2_2/concat/bn/linear"
  top: "AttentionB_1/mask/up_sample/interp_1"
}
layer {
  name: "AttentionB_1/mask/up_sample/interp_1/bn_batchmorn"
  type: "BatchNorm"
  bottom: "AttentionB_1/mask/up_sample/interp_1"
  top: "AttentionB_1/mask/up_sample/interp_1tmp"
}
layer {
  name: "AttentionB_1/mask/up_sample/interp_1/bn_scale"
  type: "Scale"
  bottom: "AttentionB_1/mask/up_sample/interp_1tmp"
  top: "AttentionB_1/mask/up_sample/interp_1/bn"
  scale_param {
    bias_term: true
  }
}
layer {
  name: "AttentionB_1/mask/up_sample/interp_1/bn/relu"
  type: "PReLU"
  bottom: "AttentionB_1/mask/up_sample/interp_1/bn"
  top: "AttentionB_1/mask/up_sample/interp_1/bn"
  param {
    lr_mult: 1
    decay_mult: 0
  }
}
layer {
  name: "AttentionB_1/mask/linear_1"
  type: "Convolution"
  bottom: "AttentionB_1/mask/up_sample/interp_1/bn"
  top: "AttentionB_1/mask/linear_1"
  param {
    lr_mult: 1
    decay_mult: 1
  }
  convolution_param {
    num_output: 64
    bias_term: false
    pad: 0
    kernel_size: 1
    stride: 1
    weight_filler {
      type: "constant"
    }
  }
}
layer {
  name: "AttentionB_1/mask/linear_1/bn_batchmorn"
  type: "BatchNorm"
  bottom: "AttentionB_1/mask/linear_1"
  top: "AttentionB_1/mask/linear_1tmp"
}
layer {
  name: "AttentionB_1/mask/linear_1/bn_scale"
  type: "Scale"
  bottom: "AttentionB_1/mask/linear_1tmp"
  top: "AttentionB_1/mask/linear_1/bn"
  scale_param {
    bias_term: true
  }
}
layer {
  name: "AttentionB_1/mask/linear_1/bn/relu"
  type: "PReLU"
  bottom: "AttentionB_1/mask/linear_1/bn"
  top: "AttentionB_1/mask/linear_1/bn"
  param {
    lr_mult: 1
    decay_mult: 0
  }
}
layer {
  name: "AttentionB_1/mask/linear_2"
  type: "Convolution"
  bottom: "AttentionB_1/mask/linear_1/bn"
  top: "AttentionB_1/mask/linear_2"
  param {
    lr_mult: 1
    decay_mult: 1
  }
  convolution_param {
    num_output: 64
    bias_term: false
    pad: 0
    kernel_size: 1
    stride: 1
    weight_filler {
      type: "constant"
    }
  }
}
layer {
  name: "AttentionB_1/mask"
  type: "TanH"
  bottom: "AttentionB_1/mask/linear_2"
  top: "AttentionB_1/mask"
}
layer {
  name: "AttentionB_1_residual"
  type: "Eltwise"
  bottom: "res2_2"
  bottom: "AttentionB_1/mask"
  top: "AttentionB_1_residual"
  eltwise_param {
    operation: PROD
  }
}
layer {
  name: "AttentionB_1"
  type: "Eltwise"
  bottom: "AttentionB_1_residual"
  bottom: "res2_2"
  top: "AttentionB_1"
  eltwise_param {
    operation: SUM
  }
}
layer {
  name: "AttentionB_1/bn_batchmorn"
  type: "BatchNorm"
  bottom: "AttentionB_1"
  top: "AttentionB_1tmp"
}
layer {
  name: "AttentionB_1/bn_scale"
  type: "Scale"
  bottom: "AttentionB_1tmp"
  top: "AttentionB_1/bn"
  scale_param {
    bias_term: true
  }
}
layer {
  name: "AttentionB_1/bn/relu"
  type: "PReLU"
  bottom: "AttentionB_1/bn"
  top: "AttentionB_1/bn"
  param {
    lr_mult: 1
    decay_mult: 0
  }
}
layer {
  name: "res3_1/branch1/conv1_1x1"
  type: "Convolution"
  bottom: "AttentionB_1/bn"
  top: "res3_1/branch1/conv1_1x1"
  param {
    lr_mult: 1
    decay_mult: 1
  }
  convolution_param {
    num_output: 32
    bias_term: false
    pad: 0
    kernel_size: 1
    stride: 1
    weight_filler {
      type: "constant"
    }
  }
}
layer {
  name: "res3_1/branch1/conv1_1x1/bn_batchmorn"
  type: "BatchNorm"
  bottom: "res3_1/branch1/conv1_1x1"
  top: "res3_1/branch1/conv1_1x1tmp"
}
layer {
  name: "res3_1/branch1/conv1_1x1/bn_scale"
  type: "Scale"
  bottom: "res3_1/branch1/conv1_1x1tmp"
  top: "res3_1/branch1/conv1_1x1/bn"
  scale_param {
    bias_term: true
  }
}
layer {
  name: "res3_1/branch1/conv1_1x1/bn/relu"
  type: "PReLU"
  bottom: "res3_1/branch1/conv1_1x1/bn"
  top: "res3_1/branch1/conv1_1x1/bn"
  param {
    lr_mult: 1
    decay_mult: 0
  }
}
layer {
  name: "res3_1/branch1/conv2_3x3"
  type: "Convolution"
  bottom: "res3_1/branch1/conv1_1x1/bn"
  top: "res3_1/branch1/conv2_3x3"
  param {
    lr_mult: 1
    decay_mult: 1
  }
  convolution_param {
    num_output: 32
    bias_term: false
    pad: 1
    kernel_size: 3
    stride: 2
    weight_filler {
      type: "constant"
    }
  }
}
layer {
  name: "res3_1/branch1/conv2_3x3/bn_batchmorn"
  type: "BatchNorm"
  bottom: "res3_1/branch1/conv2_3x3"
  top: "res3_1/branch1/conv2_3x3tmp"
}
layer {
  name: "res3_1/branch1/conv2_3x3/bn_scale"
  type: "Scale"
  bottom: "res3_1/branch1/conv2_3x3tmp"
  top: "res3_1/branch1/conv2_3x3/bn"
  scale_param {
    bias_term: true
  }
}
layer {
  name: "res3_1/branch1/conv2_3x3/bn/relu"
  type: "PReLU"
  bottom: "res3_1/branch1/conv2_3x3/bn"
  top: "res3_1/branch1/conv2_3x3/bn"
  param {
    lr_mult: 1
    decay_mult: 0
  }
}
layer {
  name: "res3_1/branch1/conv3_1x1"
  type: "Convolution"
  bottom: "res3_1/branch1/conv2_3x3/bn"
  top: "res3_1/branch1/conv3_1x1"
  param {
    lr_mult: 1
    decay_mult: 1
  }
  convolution_param {
    num_output: 128
    bias_term: false
    pad: 0
    kernel_size: 1
    stride: 1
    weight_filler {
      type: "constant"
    }
  }
}
layer {
  name: "res3_1/branch2/conv1_1x1"
  type: "Convolution"
  bottom: "AttentionB_1/bn"
  top: "res3_1/branch2/conv1_1x1"
  param {
    lr_mult: 1
    decay_mult: 1
  }
  convolution_param {
    num_output: 128
    bias_term: false
    pad: 0
    kernel_size: 1
    stride: 2
    weight_filler {
      type: "constant"
    }
  }
}
layer {
  name: "res3_1"
  type: "Eltwise"
  bottom: "res3_1/branch2/conv1_1x1"
  bottom: "res3_1/branch1/conv3_1x1"
  top: "res3_1"
  eltwise_param {
    operation: SUM
  }
}
layer {
  name: "res3_1/bn_batchmorn"
  type: "BatchNorm"
  bottom: "res3_1"
  top: "res3_1tmp"
}
layer {
  name: "res3_1/bn_scale"
  type: "Scale"
  bottom: "res3_1tmp"
  top: "res3_1/bn"
  scale_param {
    bias_term: true
  }
}
layer {
  name: "res3_1/bn/relu"
  type: "PReLU"
  bottom: "res3_1/bn"
  top: "res3_1/bn"
  param {
    lr_mult: 1
    decay_mult: 0
  }
}
layer {
  name: "res3_2/branch1/conv1_1x1"
  type: "Convolution"
  bottom: "res3_1/bn"
  top: "res3_2/branch1/conv1_1x1"
  param {
    lr_mult: 1
    decay_mult: 1
  }
  convolution_param {
    num_output: 32
    bias_term: false
    pad: 0
    kernel_size: 1
    stride: 1
    weight_filler {
      type: "constant"
    }
  }
}
layer {
  name: "res3_2/branch1/conv1_1x1/bn_batchmorn"
  type: "BatchNorm"
  bottom: "res3_2/branch1/conv1_1x1"
  top: "res3_2/branch1/conv1_1x1tmp"
}
layer {
  name: "res3_2/branch1/conv1_1x1/bn_scale"
  type: "Scale"
  bottom: "res3_2/branch1/conv1_1x1tmp"
  top: "res3_2/branch1/conv1_1x1/bn"
  scale_param {
    bias_term: true
  }
}
layer {
  name: "res3_2/branch1/conv1_1x1/bn/relu"
  type: "PReLU"
  bottom: "res3_2/branch1/conv1_1x1/bn"
  top: "res3_2/branch1/conv1_1x1/bn"
  param {
    lr_mult: 1
    decay_mult: 0
  }
}
layer {
  name: "res3_2/branch1/conv2_3x3"
  type: "Convolution"
  bottom: "res3_2/branch1/conv1_1x1/bn"
  top: "res3_2/branch1/conv2_3x3"
  param {
    lr_mult: 1
    decay_mult: 1
  }
  convolution_param {
    num_output: 32
    bias_term: false
    pad: 1
    kernel_size: 3
    stride: 1
    weight_filler {
      type: "constant"
    }
  }
}
layer {
  name: "res3_2/branch1/conv2_3x3/bn_batchmorn"
  type: "BatchNorm"
  bottom: "res3_2/branch1/conv2_3x3"
  top: "res3_2/branch1/conv2_3x3tmp"
}
layer {
  name: "res3_2/branch1/conv2_3x3/bn_scale"
  type: "Scale"
  bottom: "res3_2/branch1/conv2_3x3tmp"
  top: "res3_2/branch1/conv2_3x3/bn"
  scale_param {
    bias_term: true
  }
}
layer {
  name: "res3_2/branch1/conv2_3x3/bn/relu"
  type: "PReLU"
  bottom: "res3_2/branch1/conv2_3x3/bn"
  top: "res3_2/branch1/conv2_3x3/bn"
  param {
    lr_mult: 1
    decay_mult: 0
  }
}
layer {
  name: "res3_2/branch1/conv3_1x1"
  type: "Convolution"
  bottom: "res3_2/branch1/conv2_3x3/bn"
  top: "res3_2/branch1/conv3_1x1"
  param {
    lr_mult: 1
    decay_mult: 1
  }
  convolution_param {
    num_output: 128
    bias_term: false
    pad: 0
    kernel_size: 1
    stride: 1
    weight_filler {
      type: "constant"
    }
  }
}
layer {
  name: "res3_2"
  type: "Eltwise"
  bottom: "res3_2/branch1/conv3_1x1"
  bottom: "res3_1"
  top: "res3_2"
  eltwise_param {
    operation: SUM
  }
}
layer {
  name: "hourglass_4/pred_heatmap/16x16"
  type: "Interp"
  bottom: "hourglass_4/pred_heatmap/+"
  bottom: "res3_2"
  top: "hourglass_4/pred_heatmap/16x16"
}
layer {
  name: "res3_2/concat"
  type: "Concat"
  bottom: "hourglass_4/pred_heatmap/16x16"
  bottom: "res3_2"
  top: "res3_2/concat"
}
layer {
  name: "res3_2/concat/bn_batchmorn"
  type: "BatchNorm"
  bottom: "res3_2/concat"
  top: "res3_2/concattmp"
}
layer {
  name: "res3_2/concat/bn_scale"
  type: "Scale"
  bottom: "res3_2/concattmp"
  top: "res3_2/concat/bn"
  scale_param {
    bias_term: true
  }
}
layer {
  name: "res3_2/concat/bn/relu"
  type: "PReLU"
  bottom: "res3_2/concat/bn"
  top: "res3_2/concat/bn"
  param {
    lr_mult: 1
    decay_mult: 0
  }
}
layer {
  name: "res3_2/concat/bn/linear"
  type: "Convolution"
  bottom: "res3_2/concat/bn"
  top: "res3_2/concat/bn/linear"
  param {
    lr_mult: 1
    decay_mult: 1
  }
  convolution_param {
    num_output: 128
    bias_term: false
    pad: 0
    kernel_size: 1
    stride: 1
    weight_filler {
      type: "constant"
    }
  }
}
layer {
  name: "AttentionC_1/mask/down_sample/pool1_3x3_s2"
  type: "Pooling"
  bottom: "res3_2/concat/bn/linear"
  top: "AttentionC_1/mask/down_sample/pool1_3x3_s2"
  pooling_param {
    pool: MAX
    kernel_size: 3
    stride: 2
  }
}
layer {
  name: "AttentionC_1/mask/down_sample/pool1_3x3_s2/bn_batchmorn"
  type: "BatchNorm"
  bottom: "AttentionC_1/mask/down_sample/pool1_3x3_s2"
  top: "AttentionC_1/mask/down_sample/pool1_3x3_s2tmp"
}
layer {
  name: "AttentionC_1/mask/down_sample/pool1_3x3_s2/bn_scale"
  type: "Scale"
  bottom: "AttentionC_1/mask/down_sample/pool1_3x3_s2tmp"
  top: "AttentionC_1/mask/down_sample/pool1_3x3_s2/bn"
  scale_param {
    bias_term: true
  }
}
layer {
  name: "AttentionC_1/mask/down_sample/pool1_3x3_s2/bn/relu"
  type: "PReLU"
  bottom: "AttentionC_1/mask/down_sample/pool1_3x3_s2/bn"
  top: "AttentionC_1/mask/down_sample/pool1_3x3_s2/bn"
  param {
    lr_mult: 1
    decay_mult: 0
  }
}
layer {
  name: "AttentionC_1/mask/down_sample/res1_1/branch1/conv1_1x1"
  type: "Convolution"
  bottom: "AttentionC_1/mask/down_sample/pool1_3x3_s2/bn"
  top: "AttentionC_1/mask/down_sample/res1_1/branch1/conv1_1x1"
  param {
    lr_mult: 1
    decay_mult: 1
  }
  convolution_param {
    num_output: 32
    bias_term: false
    pad: 0
    kernel_size: 1
    stride: 1
    weight_filler {
      type: "constant"
    }
  }
}
layer {
  name: "AttentionC_1/mask/down_sample/res1_1/branch1/conv1_1x1/bn_batchmorn"
  type: "BatchNorm"
  bottom: "AttentionC_1/mask/down_sample/res1_1/branch1/conv1_1x1"
  top: "AttentionC_1/mask/down_sample/res1_1/branch1/conv1_1x1tmp"
}
layer {
  name: "AttentionC_1/mask/down_sample/res1_1/branch1/conv1_1x1/bn_scale"
  type: "Scale"
  bottom: "AttentionC_1/mask/down_sample/res1_1/branch1/conv1_1x1tmp"
  top: "AttentionC_1/mask/down_sample/res1_1/branch1/conv1_1x1/bn"
  scale_param {
    bias_term: true
  }
}
layer {
  name: "AttentionC_1/mask/down_sample/res1_1/branch1/conv1_1x1/bn/relu"
  type: "PReLU"
  bottom: "AttentionC_1/mask/down_sample/res1_1/branch1/conv1_1x1/bn"
  top: "AttentionC_1/mask/down_sample/res1_1/branch1/conv1_1x1/bn"
  param {
    lr_mult: 1
    decay_mult: 0
  }
}
layer {
  name: "AttentionC_1/mask/down_sample/res1_1/branch1/conv2_3x3"
  type: "Convolution"
  bottom: "AttentionC_1/mask/down_sample/res1_1/branch1/conv1_1x1/bn"
  top: "AttentionC_1/mask/down_sample/res1_1/branch1/conv2_3x3"
  param {
    lr_mult: 1
    decay_mult: 1
  }
  convolution_param {
    num_output: 32
    bias_term: false
    pad: 1
    kernel_size: 3
    stride: 1
    weight_filler {
      type: "constant"
    }
  }
}
layer {
  name: "AttentionC_1/mask/down_sample/res1_1/branch1/conv2_3x3/bn_batchmorn"
  type: "BatchNorm"
  bottom: "AttentionC_1/mask/down_sample/res1_1/branch1/conv2_3x3"
  top: "AttentionC_1/mask/down_sample/res1_1/branch1/conv2_3x3tmp"
}
layer {
  name: "AttentionC_1/mask/down_sample/res1_1/branch1/conv2_3x3/bn_scale"
  type: "Scale"
  bottom: "AttentionC_1/mask/down_sample/res1_1/branch1/conv2_3x3tmp"
  top: "AttentionC_1/mask/down_sample/res1_1/branch1/conv2_3x3/bn"
  scale_param {
    bias_term: true
  }
}
layer {
  name: "AttentionC_1/mask/down_sample/res1_1/branch1/conv2_3x3/bn/relu"
  type: "PReLU"
  bottom: "AttentionC_1/mask/down_sample/res1_1/branch1/conv2_3x3/bn"
  top: "AttentionC_1/mask/down_sample/res1_1/branch1/conv2_3x3/bn"
  param {
    lr_mult: 1
    decay_mult: 0
  }
}
layer {
  name: "AttentionC_1/mask/down_sample/res1_1/branch1/conv3_1x1"
  type: "Convolution"
  bottom: "AttentionC_1/mask/down_sample/res1_1/branch1/conv2_3x3/bn"
  top: "AttentionC_1/mask/down_sample/res1_1/branch1/conv3_1x1"
  param {
    lr_mult: 1
    decay_mult: 1
  }
  convolution_param {
    num_output: 128
    bias_term: false
    pad: 0
    kernel_size: 1
    stride: 1
    weight_filler {
      type: "constant"
    }
  }
}
layer {
  name: "AttentionC_1/mask/down_sample/res1_1"
  type: "Eltwise"
  bottom: "AttentionC_1/mask/down_sample/res1_1/branch1/conv3_1x1"
  bottom: "AttentionC_1/mask/down_sample/pool1_3x3_s2"
  top: "AttentionC_1/mask/down_sample/res1_1"
  eltwise_param {
    operation: SUM
  }
}
layer {
  name: "AttentionC_1/mask/down_sample/res1_1/bn_batchmorn"
  type: "BatchNorm"
  bottom: "AttentionC_1/mask/down_sample/res1_1"
  top: "AttentionC_1/mask/down_sample/res1_1tmp"
}
layer {
  name: "AttentionC_1/mask/down_sample/res1_1/bn_scale"
  type: "Scale"
  bottom: "AttentionC_1/mask/down_sample/res1_1tmp"
  top: "AttentionC_1/mask/down_sample/res1_1/bn"
  scale_param {
    bias_term: true
  }
}
layer {
  name: "AttentionC_1/mask/down_sample/res1_1/bn/relu"
  type: "PReLU"
  bottom: "AttentionC_1/mask/down_sample/res1_1/bn"
  top: "AttentionC_1/mask/down_sample/res1_1/bn"
  param {
    lr_mult: 1
    decay_mult: 0
  }
}
layer {
  name: "AttentionC_1/mask/down_sample/res1_2/branch1/conv1_1x1"
  type: "Convolution"
  bottom: "AttentionC_1/mask/down_sample/res1_1/bn"
  top: "AttentionC_1/mask/down_sample/res1_2/branch1/conv1_1x1"
  param {
    lr_mult: 1
    decay_mult: 1
  }
  convolution_param {
    num_output: 32
    bias_term: false
    pad: 0
    kernel_size: 1
    stride: 1
    weight_filler {
      type: "constant"
    }
  }
}
layer {
  name: "AttentionC_1/mask/down_sample/res1_2/branch1/conv1_1x1/bn_batchmorn"
  type: "BatchNorm"
  bottom: "AttentionC_1/mask/down_sample/res1_2/branch1/conv1_1x1"
  top: "AttentionC_1/mask/down_sample/res1_2/branch1/conv1_1x1tmp"
}
layer {
  name: "AttentionC_1/mask/down_sample/res1_2/branch1/conv1_1x1/bn_scale"
  type: "Scale"
  bottom: "AttentionC_1/mask/down_sample/res1_2/branch1/conv1_1x1tmp"
  top: "AttentionC_1/mask/down_sample/res1_2/branch1/conv1_1x1/bn"
  scale_param {
    bias_term: true
  }
}
layer {
  name: "AttentionC_1/mask/down_sample/res1_2/branch1/conv1_1x1/bn/relu"
  type: "PReLU"
  bottom: "AttentionC_1/mask/down_sample/res1_2/branch1/conv1_1x1/bn"
  top: "AttentionC_1/mask/down_sample/res1_2/branch1/conv1_1x1/bn"
  param {
    lr_mult: 1
    decay_mult: 0
  }
}
layer {
  name: "AttentionC_1/mask/down_sample/res1_2/branch1/conv2_3x3"
  type: "Convolution"
  bottom: "AttentionC_1/mask/down_sample/res1_2/branch1/conv1_1x1/bn"
  top: "AttentionC_1/mask/down_sample/res1_2/branch1/conv2_3x3"
  param {
    lr_mult: 1
    decay_mult: 1
  }
  convolution_param {
    num_output: 32
    bias_term: false
    pad: 1
    kernel_size: 3
    stride: 1
    weight_filler {
      type: "constant"
    }
  }
}
layer {
  name: "AttentionC_1/mask/down_sample/res1_2/branch1/conv2_3x3/bn_batchmorn"
  type: "BatchNorm"
  bottom: "AttentionC_1/mask/down_sample/res1_2/branch1/conv2_3x3"
  top: "AttentionC_1/mask/down_sample/res1_2/branch1/conv2_3x3tmp"
}
layer {
  name: "AttentionC_1/mask/down_sample/res1_2/branch1/conv2_3x3/bn_scale"
  type: "Scale"
  bottom: "AttentionC_1/mask/down_sample/res1_2/branch1/conv2_3x3tmp"
  top: "AttentionC_1/mask/down_sample/res1_2/branch1/conv2_3x3/bn"
  scale_param {
    bias_term: true
  }
}
layer {
  name: "AttentionC_1/mask/down_sample/res1_2/branch1/conv2_3x3/bn/relu"
  type: "PReLU"
  bottom: "AttentionC_1/mask/down_sample/res1_2/branch1/conv2_3x3/bn"
  top: "AttentionC_1/mask/down_sample/res1_2/branch1/conv2_3x3/bn"
  param {
    lr_mult: 1
    decay_mult: 0
  }
}
layer {
  name: "AttentionC_1/mask/down_sample/res1_2/branch1/conv3_1x1"
  type: "Convolution"
  bottom: "AttentionC_1/mask/down_sample/res1_2/branch1/conv2_3x3/bn"
  top: "AttentionC_1/mask/down_sample/res1_2/branch1/conv3_1x1"
  param {
    lr_mult: 1
    decay_mult: 1
  }
  convolution_param {
    num_output: 128
    bias_term: false
    pad: 0
    kernel_size: 1
    stride: 1
    weight_filler {
      type: "constant"
    }
  }
}
layer {
  name: "AttentionC_1/mask/down_sample/res1_2"
  type: "Eltwise"
  bottom: "AttentionC_1/mask/down_sample/res1_2/branch1/conv3_1x1"
  bottom: "AttentionC_1/mask/down_sample/res1_1"
  top: "AttentionC_1/mask/down_sample/res1_2"
  eltwise_param {
    operation: SUM
  }
}
layer {
  name: "AttentionC_1/mask/up_sample/interp_1"
  type: "Interp"
  bottom: "AttentionC_1/mask/down_sample/res1_2"
  bottom: "res3_2/concat/bn/linear"
  top: "AttentionC_1/mask/up_sample/interp_1"
}
layer {
  name: "AttentionC_1/mask/up_sample/interp_1/bn_batchmorn"
  type: "BatchNorm"
  bottom: "AttentionC_1/mask/up_sample/interp_1"
  top: "AttentionC_1/mask/up_sample/interp_1tmp"
}
layer {
  name: "AttentionC_1/mask/up_sample/interp_1/bn_scale"
  type: "Scale"
  bottom: "AttentionC_1/mask/up_sample/interp_1tmp"
  top: "AttentionC_1/mask/up_sample/interp_1/bn"
  scale_param {
    bias_term: true
  }
}
layer {
  name: "AttentionC_1/mask/up_sample/interp_1/bn/relu"
  type: "PReLU"
  bottom: "AttentionC_1/mask/up_sample/interp_1/bn"
  top: "AttentionC_1/mask/up_sample/interp_1/bn"
  param {
    lr_mult: 1
    decay_mult: 0
  }
}
layer {
  name: "AttentionC_1/mask/linear_1"
  type: "Convolution"
  bottom: "AttentionC_1/mask/up_sample/interp_1/bn"
  top: "AttentionC_1/mask/linear_1"
  param {
    lr_mult: 1
    decay_mult: 1
  }
  convolution_param {
    num_output: 128
    bias_term: false
    pad: 0
    kernel_size: 1
    stride: 1
    weight_filler {
      type: "constant"
    }
  }
}
layer {
  name: "AttentionC_1/mask/linear_1/bn_batchmorn"
  type: "BatchNorm"
  bottom: "AttentionC_1/mask/linear_1"
  top: "AttentionC_1/mask/linear_1tmp"
}
layer {
  name: "AttentionC_1/mask/linear_1/bn_scale"
  type: "Scale"
  bottom: "AttentionC_1/mask/linear_1tmp"
  top: "AttentionC_1/mask/linear_1/bn"
  scale_param {
    bias_term: true
  }
}
layer {
  name: "AttentionC_1/mask/linear_1/bn/relu"
  type: "PReLU"
  bottom: "AttentionC_1/mask/linear_1/bn"
  top: "AttentionC_1/mask/linear_1/bn"
  param {
    lr_mult: 1
    decay_mult: 0
  }
}
layer {
  name: "AttentionC_1/mask/linear_2"
  type: "Convolution"
  bottom: "AttentionC_1/mask/linear_1/bn"
  top: "AttentionC_1/mask/linear_2"
  param {
    lr_mult: 1
    decay_mult: 1
  }
  convolution_param {
    num_output: 128
    bias_term: false
    pad: 0
    kernel_size: 1
    stride: 1
    weight_filler {
      type: "constant"
    }
  }
}
layer {
  name: "AttentionC_1/mask"
  type: "TanH"
  bottom: "AttentionC_1/mask/linear_2"
  top: "AttentionC_1/mask"
}
layer {
  name: "AttentionC_1_residual"
  type: "Eltwise"
  bottom: "res3_2"
  bottom: "AttentionC_1/mask"
  top: "AttentionC_1_residual"
  eltwise_param {
    operation: PROD
  }
}
layer {
  name: "AttentionC_1"
  type: "Eltwise"
  bottom: "AttentionC_1_residual"
  bottom: "res3_2"
  top: "AttentionC_1"
  eltwise_param {
    operation: SUM
  }
}
layer {
  name: "AttentionC_1/bn_batchmorn"
  type: "BatchNorm"
  bottom: "AttentionC_1"
  top: "AttentionC_1tmp"
}
layer {
  name: "AttentionC_1/bn_scale"
  type: "Scale"
  bottom: "AttentionC_1tmp"
  top: "AttentionC_1/bn"
  scale_param {
    bias_term: true
  }
}
layer {
  name: "AttentionC_1/bn/relu"
  type: "PReLU"
  bottom: "AttentionC_1/bn"
  top: "AttentionC_1/bn"
  param {
    lr_mult: 1
    decay_mult: 0
  }
}
layer {
  name: "res4_1/branch1/conv1_1x1"
  type: "Convolution"
  bottom: "AttentionC_1/bn"
  top: "res4_1/branch1/conv1_1x1"
  param {
    lr_mult: 1
    decay_mult: 1
  }
  convolution_param {
    num_output: 64
    bias_term: false
    pad: 0
    kernel_size: 1
    stride: 1
    weight_filler {
      type: "constant"
    }
  }
}
layer {
  name: "res4_1/branch1/conv1_1x1/bn_batchmorn"
  type: "BatchNorm"
  bottom: "res4_1/branch1/conv1_1x1"
  top: "res4_1/branch1/conv1_1x1tmp"
}
layer {
  name: "res4_1/branch1/conv1_1x1/bn_scale"
  type: "Scale"
  bottom: "res4_1/branch1/conv1_1x1tmp"
  top: "res4_1/branch1/conv1_1x1/bn"
  scale_param {
    bias_term: true
  }
}
layer {
  name: "res4_1/branch1/conv1_1x1/bn/relu"
  type: "PReLU"
  bottom: "res4_1/branch1/conv1_1x1/bn"
  top: "res4_1/branch1/conv1_1x1/bn"
  param {
    lr_mult: 1
    decay_mult: 0
  }
}
layer {
  name: "res4_1/branch1/conv2_3x3"
  type: "Convolution"
  bottom: "res4_1/branch1/conv1_1x1/bn"
  top: "res4_1/branch1/conv2_3x3"
  param {
    lr_mult: 1
    decay_mult: 1
  }
  convolution_param {
    num_output: 64
    bias_term: false
    pad: 1
    kernel_size: 3
    stride: 2
    weight_filler {
      type: "constant"
    }
  }
}
layer {
  name: "res4_1/branch1/conv2_3x3/bn_batchmorn"
  type: "BatchNorm"
  bottom: "res4_1/branch1/conv2_3x3"
  top: "res4_1/branch1/conv2_3x3tmp"
}
layer {
  name: "res4_1/branch1/conv2_3x3/bn_scale"
  type: "Scale"
  bottom: "res4_1/branch1/conv2_3x3tmp"
  top: "res4_1/branch1/conv2_3x3/bn"
  scale_param {
    bias_term: true
  }
}
layer {
  name: "res4_1/branch1/conv2_3x3/bn/relu"
  type: "PReLU"
  bottom: "res4_1/branch1/conv2_3x3/bn"
  top: "res4_1/branch1/conv2_3x3/bn"
  param {
    lr_mult: 1
    decay_mult: 0
  }
}
layer {
  name: "res4_1/branch1/conv3_1x1"
  type: "Convolution"
  bottom: "res4_1/branch1/conv2_3x3/bn"
  top: "res4_1/branch1/conv3_1x1"
  param {
    lr_mult: 1
    decay_mult: 1
  }
  convolution_param {
    num_output: 256
    bias_term: false
    pad: 0
    kernel_size: 1
    stride: 1
    weight_filler {
      type: "constant"
    }
  }
}
layer {
  name: "res4_1/branch2/conv1_1x1"
  type: "Convolution"
  bottom: "AttentionC_1/bn"
  top: "res4_1/branch2/conv1_1x1"
  param {
    lr_mult: 1
    decay_mult: 1
  }
  convolution_param {
    num_output: 256
    bias_term: false
    pad: 0
    kernel_size: 1
    stride: 2
    weight_filler {
      type: "constant"
    }
  }
}
layer {
  name: "res4_1"
  type: "Eltwise"
  bottom: "res4_1/branch2/conv1_1x1"
  bottom: "res4_1/branch1/conv3_1x1"
  top: "res4_1"
  eltwise_param {
    operation: SUM
  }
}
layer {
  name: "res4_1/bn_batchmorn"
  type: "BatchNorm"
  bottom: "res4_1"
  top: "res4_1tmp"
}
layer {
  name: "res4_1/bn_scale"
  type: "Scale"
  bottom: "res4_1tmp"
  top: "res4_1/bn"
  scale_param {
    bias_term: true
  }
}
layer {
  name: "res4_1/bn/relu"
  type: "PReLU"
  bottom: "res4_1/bn"
  top: "res4_1/bn"
  param {
    lr_mult: 1
    decay_mult: 0
  }
}
layer {
  name: "res4_2/branch1/conv1_1x1"
  type: "Convolution"
  bottom: "res4_1/bn"
  top: "res4_2/branch1/conv1_1x1"
  param {
    lr_mult: 1
    decay_mult: 1
  }
  convolution_param {
    num_output: 64
    bias_term: false
    pad: 0
    kernel_size: 1
    stride: 1
    weight_filler {
      type: "constant"
    }
  }
}
layer {
  name: "res4_2/branch1/conv1_1x1/bn_batchmorn"
  type: "BatchNorm"
  bottom: "res4_2/branch1/conv1_1x1"
  top: "res4_2/branch1/conv1_1x1tmp"
}
layer {
  name: "res4_2/branch1/conv1_1x1/bn_scale"
  type: "Scale"
  bottom: "res4_2/branch1/conv1_1x1tmp"
  top: "res4_2/branch1/conv1_1x1/bn"
  scale_param {
    bias_term: true
  }
}
layer {
  name: "res4_2/branch1/conv1_1x1/bn/relu"
  type: "PReLU"
  bottom: "res4_2/branch1/conv1_1x1/bn"
  top: "res4_2/branch1/conv1_1x1/bn"
  param {
    lr_mult: 1
    decay_mult: 0
  }
}
layer {
  name: "res4_2/branch1/conv2_3x3"
  type: "Convolution"
  bottom: "res4_2/branch1/conv1_1x1/bn"
  top: "res4_2/branch1/conv2_3x3"
  param {
    lr_mult: 1
    decay_mult: 1
  }
  convolution_param {
    num_output: 64
    bias_term: false
    pad: 1
    kernel_size: 3
    stride: 1
    weight_filler {
      type: "constant"
    }
  }
}
layer {
  name: "res4_2/branch1/conv2_3x3/bn_batchmorn"
  type: "BatchNorm"
  bottom: "res4_2/branch1/conv2_3x3"
  top: "res4_2/branch1/conv2_3x3tmp"
}
layer {
  name: "res4_2/branch1/conv2_3x3/bn_scale"
  type: "Scale"
  bottom: "res4_2/branch1/conv2_3x3tmp"
  top: "res4_2/branch1/conv2_3x3/bn"
  scale_param {
    bias_term: true
  }
}
layer {
  name: "res4_2/branch1/conv2_3x3/bn/relu"
  type: "PReLU"
  bottom: "res4_2/branch1/conv2_3x3/bn"
  top: "res4_2/branch1/conv2_3x3/bn"
  param {
    lr_mult: 1
    decay_mult: 0
  }
}
layer {
  name: "res4_2/branch1/conv3_1x1"
  type: "Convolution"
  bottom: "res4_2/branch1/conv2_3x3/bn"
  top: "res4_2/branch1/conv3_1x1"
  param {
    lr_mult: 1
    decay_mult: 1
  }
  convolution_param {
    num_output: 256
    bias_term: false
    pad: 0
    kernel_size: 1
    stride: 1
    weight_filler {
      type: "constant"
    }
  }
}
layer {
  name: "res4_2"
  type: "Eltwise"
  bottom: "res4_2/branch1/conv3_1x1"
  bottom: "res4_1"
  top: "res4_2"
  eltwise_param {
    operation: SUM
  }
}
layer {
  name: "res4_2/bn_batchmorn"
  type: "BatchNorm"
  bottom: "res4_2"
  top: "res4_2tmp"
}
layer {
  name: "res4_2/bn_scale"
  type: "Scale"
  bottom: "res4_2tmp"
  top: "res4_2/bn"
  scale_param {
    bias_term: true
  }
}
layer {
  name: "res4_2/bn/relu"
  type: "PReLU"
  bottom: "res4_2/bn"
  top: "res4_2/bn"
  param {
    lr_mult: 1
    decay_mult: 0
  }
}
layer {
  name: "ip1"
  type: "InnerProduct"
  bottom: "res4_2/bn"
  top: "ip1"
  param {
    lr_mult: 1
  }
  param {
    lr_mult: 2
    decay_mult: 0
  }
  inner_product_param {
    num_output: 256
    weight_filler {
      type: "constant"
    }
    bias_filler {
      type: "constant"
    }
  }
}
layer {
  name: "relu_ip1"
  type: "PReLU"
  bottom: "ip1"
  top: "ip1"
  param {
    lr_mult: 1
    decay_mult: 0
  }
}
layer {
  name: "ip2"
  type: "InnerProduct"
  bottom: "ip1"
  top: "ip2"
  param {
    lr_mult: 1
  }
  param {
    lr_mult: 2
    decay_mult: 0
  }
  inner_product_param {
    num_output: 256
    weight_filler {
      type: "constant"
    }
    bias_filler {
      type: "constant"
    }
  }
}
layer {
  name: "relu_ip2"
  type: "PReLU"
  bottom: "ip2"
  top: "ip2"
  param {
    lr_mult: 1
    decay_mult: 0
  }
}
layer {
  name: "ip3"
  type: "InnerProduct"
  bottom: "ip2"
  top: "ip3"
  param {
    lr_mult: 1
  }
  param {
    lr_mult: 2
    decay_mult: 0
  }
  inner_product_param {
    num_output: 196
    weight_filler {
      type: "constant"
    }
    bias_filler {
      type: "constant"
    }
  }
}
layer {
  name: "result"
  type: "Eltwise"
  bottom: "ip3"
  bottom: "ip3"
  top: "result"
  eltwise_param {
    operation: SUM
    coeff: 0.5
    coeff: 0.5
  }
}
